paper_reproductions/adaptive_quantum_cvrp/models/test_sac_agent_actor.pth (torch, 278211 bytes, 8 tensors)

fc1.weight f4 [256, 6]
000000 24 37 d4 3d 24 96 91 be f4 b4 95 3e d4 f7 ce 3b
       0.1036208 -0.2843486 0.2923962 0.0063161645
000010 1b 09 28 be d2 be 9e be 0f 2a af 3e 4e ed c3 3d
       -0.16409723 -0.3100496 0.34211776 0.09566747
000020 be 0d cf bd 55 a7 bc 3c 07 a8 32 bd 37 bb 98 3e
       -0.10110043 0.023029009 -0.043617275 0.29830334
000030 f3 57 aa 3e 86 1e 8a 3e 24 89 c4 be fc db c0 3d
       0.33270225 0.26976413 -0.3838588 0.09416959
000040 cd 4d 85 3d 0e ca ad be 40 e0 0f 3d da 3b f6 3d
       0.0650898 -0.33943218 0.03512597 0.120231345
000050 d9 2f 3c 3e 4d fb fa bd 63 9f 04 be 3e db a4 be
       0.18377627 -0.12254963 -0.12951426 -0.3219852
000060 c6 e9 b0 bd 20 44 22 3e 44 f9 c7 be 62 2a b8 be
       -0.08638339 0.158463 -0.39057362 -0.35969836
000070 30 53 68 be c7 6a cd bd f7 35 d0 bd db 4a 99 3e
       -0.22687984 -0.10030132 -0.10166543 0.29939923
000080 0d f0 0f 3e 96 bf 81 bd 9e 9f ea 3d 83 98 93 3e
       0.14056416 -0.0633537 0.11456226 0.28827295
000090 3f b8 30 be 88 f5 af be da 22 eb 3c c9 c4 1a be
       -0.17257784 -0.34367013 0.028703142 -0.1511413
0000a0 47 1b ac 3e 73 a1 94 be 1b 80 0c be dd d8 79 be
       0.3361456 -0.29029426 -0.13720743 -0.24399133
0000b0 09 50 ae 3e d0 f5 73 3e 75 df 89 be 2e 07 83 be
       0.34045437 0.23824239 -0.26928297 -0.25591415
0000c0 c4 f6 cb be 21 2f 9e be 78 26 2a be 59 9f b1 3e
       -0.39836705 -0.30895332 -0.16616237 0.34691885
0000d0 6c 9d 4b be 05 d3 40 3e 4d c2 a2 bd d5 04 d1 3d
       -0.1988427 0.18830498 -0.07947216 0.10206
0000e0 4d be 7f 3e 79 e1 32 3e 30 6e 6f 3e d6 e5 83 3e
       0.24974938 0.17468823 0.23381877 0.25761288
0000f0 61 2a b5 be aa a3 53 3e 03 0b 93 be 46 83 78 3d
       -0.35383895 0.20667902 -0.2871934 0.060672067
000100 88 0e b0 be f9 e3 d0 be eb 0d c3 be 1d 8f 3e 3e
       -0.34386086 -0.4079893 -0.38096556 0.18609281
000110 91 38 46 bd c7 2f 70 3e cb d7 d2 bd d8 26 93 be
       -0.04839379 0.23455726 -0.102950655 -0.28740573
000120 c1 15 71 3c ab f7 6c 3e 62 33 ad be 08 09 89 3d
       0.014714659 0.23141353 -0.33828264 0.06691176
000130 1b 79 7c 3e cc cf 8a bd 1c 22 c1 3e 09 5f a2 be
       0.24655573 -0.06777915 0.37721336 -0.3171313
000140 e7 b2 8d 3e ba 1f 6b be 65 8b 65 3e 90 fa cb bc
       0.27675554 -0.22961321 0.22416456 -0.024899751
000150 a4 be 0c 3e 7a 11 3e bd c7 e6 89 be 03 c7 71 3e
       0.13744599 -0.046403386 -0.26933882 0.23611073
000160 d4 f4 f7 3d ca 8d 3a be e3 30 a7 3e bb 83 2d be
       0.12107244 -0.1821815 0.32654485 -0.16944782
000170 22 dc 9a 3e 98 37 56 be a9 1e 9c be 9b 0e 34 be
       0.30246073 -0.20919645 -0.30492142 -0.17583697
000180 4d fc b3 3e 1c ff 50 bb ed c2 80 3e 6e 2c 5f 3d
       0.35153428 -0.0031890338 0.25148717 0.05448573
000190 80 d7 aa be 2c 63 24 3e 32 79 bf be 89 a8 a0 bc
       -0.33367538 0.16053456 -0.37397152 -0.019611614
0001a0 ec 6c 5a 3e 32 14 c5 3e 7f 23 8a 3e 93 14 03 be
       0.21330613 0.3849197 0.26980206 -0.12800817
0001b0 9a 14 80 be 7b 9a 89 3e 5f c6 be 3c 9f 41 8a be
       -0.25015718 0.26875672 0.02328795 -0.2700319
0001c0 6d 1a a5 3e 30 16 86 be 9c ac b3 be 37 fd 93 3d
       0.32246724 -0.26188803 -0.35092628 0.07226031
0001d0 b1 5a 45 be 25 48 d7 bd 98 58 c0 be d4 cd 94 be
       -0.19272877 -0.10511807 -0.37567592 -0.29063284
0001e0 4a 0d 5a bd 3b 84 b9 3d 9c 4c 27 be ce dd 87 3e
       -0.05323533 0.09058424 -0.16337818 0.2653641
0001f0 a4 d4 b9 be 33 c4 ae be c1 7f 4c bd 71 8a fb 3d
       -0.36295044 -0.34134063 -0.049926523 0.12282265
000200 65 7b c1 be 1e 3c 33 3c 86 bc b2 3e e2 47 5f 3d
       -0.37789455 0.010939626 0.34909457 0.054511912
000210 20 81 ca 3e 3b 4a a5 be 30 b2 82 3d 4e 4b 56 bd
       0.3955164 -0.32283196 0.06381643 -0.05231791
000220 0c 8b 62 3e 99 95 67 3e 95 64 bb be dd 0a 82 bd
       0.22123355 0.2261566 -0.36600175 -0.06349728
000230 d8 b9 81 3e 31 5c 08 3d 14 46 b0 be fc bb 05 3e
       0.253371 0.033291046 -0.34428465 0.13059992
000240 4f e7 4c be 18 a2 0d be dd fa 81 3e 6c 77 d1 bd
       -0.20010112 -0.13831365 0.25386706 -0.10227856
000250 1b 9e a6 3d 29 97 ee bd f1 82 55 be e7 12 24 3e
       0.08135625 -0.11649925 -0.20850731 0.16022836
000260 ad 25 2b 3e 18 a3 c0 be e0 04 61 3e c9 12 0d bd
       0.16713591 -0.3762443 0.21974516 -0.034441743
000270 97 f1 2c 3e 6d 7c cd 3e a0 68 ae be de ee 46 3e
       0.16889034 0.40133992 -0.34064198 0.19427058
000280 0a a2 8f 3e dd 3e 49 bd ac 7f bc bd e5 78 0a 3e
       0.28053313 -0.049132217 -0.09204039 0.1352268
000290 82 80 11 3e a3 3e bb be f6 49 21 3d 25 17 26 3d
       0.14209178 -0.36571226 0.039377175 0.040549416
0002a0 88 3c ab be 58 25 ce 3e 58 ce 3d 3e 24 b8 53 ba
       -0.3344462 0.40262866 0.18535745 -0.00080764503
0002b0 aa 37 a8 be 94 af 7b 3e 92 50 5e bd 2a 10 84 bd
       -0.32854968 0.24578696 -0.054276057 -0.064483956
0002c0 6c e4 e2 bd 1e 40 0a 3e 83 0d 32 be 74 cd a4 bd
       -0.11078724 0.13501021 -0.17387967 -0.080469996
0002d0 60 a5 2c 3e 48 6d a2 3d 9f 9b 1d 3d 31 5c 6f 3e
       0.1685996 0.07931 0.03847849 0.23375012
0002e0 75 5d da 3d c5 f5 77 be bb 92 45 bd 3b 3c 7d be
       0.10662357 -0.24214847 -0.048235636 -0.24730007
0002f0 8d c8 03 bc 6c 3c 99 3e da e9 c3 3b 6c 20 b7 bd
       -0.0080434205 0.2992891 0.005978805 -0.08941731
000300 8e b3 4c bd 8f 59 97 3e e8 1b 9b be 6f 3c ab 3e
       -0.049975924 0.29560515 -0.30294728 0.33444545
000310 5d 21 b5 be 2e 26 84 be 4a 10 ac 3d 10 28 54 bd
       -0.35377017 -0.2581038 0.084015444 -0.05179602
000320 f3 1b c2 bc f9 17 6a 3e 46 ac a4 bd be 48 6c 3d
       -0.023694968 0.22860707 -0.08040671 0.05768656
000330 16 ff c2 be 1c be 6d 3e 93 c3 9e be 0f ff 9d 3e
       -0.3808524 0.23217052 -0.31008586 0.30858657
000340 00 fa a6 3e d6 0c ab be 04 52 fa 3d b6 68 2d 3e
       0.3261261 -0.3340823 0.122226745 0.16934475
000350 64 53 a6 3e 94 d0 06 be bb 9f 38 3e 34 28 05 3e
       0.32485497 -0.13165504 0.18029682 0.13003618
000360 19 3f 83 3e 8d d4 57 be af 10 b3 be 29 1e b4 be
       0.25634077 -0.21077175 -0.34973666 -0.3517926
000370 57 aa 9f 3d af 4c 9a be c2 0b 24 3e cb b5 bc bb
       0.077961616 -0.3013663 0.1602011 -0.005758976
000380 c6 bd 73 3e d3 88 db bc ab 01 3a 3e 83 6e 6e 3e
       0.23802862 -0.026798641 0.18164699 0.23284344
000390 af 7d be 3e d4 f4 32 be 6f 38 9e 3e 14 36 7e be
       0.37205264 -0.17476207 0.3090243 -0.24825317
0003a0 22 e1 bb 39 8b d0 90 be 7e f9 c6 3d 6c ea 1a 3e
       0.00035835156 -0.28284106 0.097155556 0.15128487
0003b0 c8 e9 c0 bd f8 8a f0 3d 29 69 75 3d 2b 29 c2 3e
       -0.0941959 0.11745256 0.05991474 0.37922034
0003c0 7a 82 cc 3e cb 80 6e 3e 30 87 7b 3e a4 5d 9a 3e
       0.39943296 0.23291318 0.24563289 0.30149567
0003d0 ce 43 c8 3d 28 47 09 3d 73 9f cb 3d da 5e cc bd
       0.09778558 0.033515126 0.09942522 -0.09979029
0003e0 74 05 d0 3e 40 6b 12 bd 00 d2 81 3b 8e 3b 2a 3e
       0.4062916 -0.035746813 0.0039618015 0.16624281
0003f0 de 56 50 3e 42 9a 0a be 7c a4 55 3e 6d 2d 15 3e
       0.20345637 -0.13535407 0.20863527 0.1456811

fc1.bias f4 [256]
000000 f1 2b e5 3d c2 c6 9b 3d fa ef 82 bc 76 45 03 be
       0.11190022 0.076062694 -0.01598357 -0.12819466
000010 ea 21 b7 3e 39 5a f4 bc 78 3c a3 3d f3 a2 80 be
       0.35768062 -0.029828178 0.07970518 -0.2512432
000020 9b 42 31 3e ba de ef 3d 2e c5 c6 be 12 b4 1b 3d
       0.17310564 0.117124036 -0.3882231 0.038013525
000030 c9 0f cc be f2 b6 aa be db c4 03 be 2c 41 8e 3d
       -0.39855793 -0.333427 -0.12868063 0.06946024
000040 ab aa d6 3d fe 0a 44 be 52 eb cd 3e 6c ee 6c be
       0.10481771 -0.19144818 0.40218598 -0.23137826
000050 83 45 29 3e ae 8c c9 3e db 67 98 3e 8f f2 cc be
       0.16530423 0.39365143 0.29766735 -0.40028808
000060 26 98 79 3e 41 02 c3 3e ea 9a 99 3e 79 07 cd bd
       0.24374446 0.38087657 0.30001003 -0.10011191
000070 2b 1c 94 3e a5 f0 89 be a7 30 52 3e 9a 2a 8d 3e
       0.2892774 -0.2694141 0.20526372 0.27571565
000080 54 59 3a be 0d ac 42 be 89 ef ba be 7c 4e 35 bd
       -0.18198138 -0.19010945 -0.36510876 -0.0442643
000090 0d 3d a5 3e a2 e8 3f 3e 45 a0 ba bd 14 6d a2 3d
       0.3227314 0.18741086 -0.091126 0.07930961
0000a0 87 45 02 3e 3c df 4c be 0d fe 7f be 6c 1b 09 3e
       0.12721835 -0.20007032 -0.24999256 0.13389367
0000b0 53 b7 9f be 70 03 ad bd 14 31 a4 3e 84 a9 80 3e
       -0.31194553 -0.08447921 0.32068694 0.2512933
0000c0 db 14 9e 3d 42 59 a0 be 58 40 64 be fb c7 9a 3e
       0.077188216 -0.31318098 -0.2229017 0.30230698
0000d0 b9 88 6b 3e e3 ae 25 bd 60 4e f3 3c a4 a1 82 3e
       0.23001374 -0.040449988 0.029700458 0.25513947
0000e0 c1 33 aa 3e 30 33 4d be 32 2d b0 3e 72 22 14 be
       0.3324261 -0.20039058 0.3440948 -0.14466265
0000f0 6c 3b ad 3e 23 f0 be be 0e 55 91 3d ba 16 84 be
       0.33834398 -0.37292585 0.07096301 -0.2579859
000100 23 60 e6 bd ae c8 bd be 3e 05 57 bd 6c f4 9f be
       -0.112488054 -0.3706717 -0.052495234 -0.31241167
000110 a3 7b 82 be b5 0d b2 be b0 8f ff bd 0e 23 cd bc
       -0.25484952 -0.34776083 -0.12478578 -0.02504113
000120 63 c8 9d bd ac bd 04 3d 6e 59 98 be af d6 d9 3c
       -0.07704236 0.032407448 -0.2975573 0.026591627
000130 b6 a0 58 be ec 03 e8 3c 1e 54 da 3c fb 3c 94 be
       -0.21155056 0.028322183 0.026651438 -0.28952774
000140 bc 17 a6 3e 6d c0 94 3e fc 1a ea 3d 11 72 a9 3e
       0.32439983 0.2905306 0.11430928 0.33094838
000150 a3 5e d5 bd 8e 48 3c be c6 4d b1 be fb fd ab bd
       -0.10418441 -0.18387052 -0.3462965 -0.08398052
000160 5b 4c 92 3e 17 a5 99 3e 8f 4a 98 3e 5b ea a0 3d
       0.2857388 0.30008766 0.29744384 0.078572
000170 a5 e0 cc 3e 5c 82 86 be e3 5f c8 3e 4d ee 5b be
       0.4001514 -0.2627133 0.39135656 -0.21477623
000180 45 9d a7 bd 43 e0 12 be 62 4c 88 3e dd 65 49 3e
       -0.08184294 -0.14343362 0.26620775 0.19667764
000190 39 cf 95 3e 6b ba 5e bd c0 69 ca 3d e6 70 80 3e
       0.2925966 -0.054377 0.098834515 0.25086135
0001a0 1e b2 ae be 7a 68 14 3e b5 85 93 3e 30 ca c1 bd
       -0.34120268 0.1449298 0.28812948 -0.09462392
0001b0 ac 35 81 3c 7f 94 d6 bc 0b e8 ab be bb 02 46 3e
       0.015772663 -0.026193855 -0.33575472 0.19336979
0001c0 4a e1 cc 3e 89 0e c7 3e 3e d8 b8 be 68 25 b5 3e
       0.40015632 0.38878277 -0.3610248 0.353801
0001d0 be 55 31 3e ac 46 a4 3e 8c cf b3 be 1e 45 68 3e
       0.17317864 0.32085168 -0.35119283 0.22682616
0001e0 4a 76 89 3e 82 35 cf be 54 d1 be 3d 3f cb 0f be
       0.2684806 -0.4047051 0.0931727 -0.14042376
0001f0 ca 2e 53 be 4b 97 af bd 6a 3c ad 3d 66 e0 b1 3e
       -0.20623317 -0.08573779 0.08458789 0.34741515
000200 bb cf 36 be ae a5 ae 3d b3 0a c3 3e 81 15 89 be
       -0.1785268 0.08527695 0.380941 -0.2677422
000210 44 cf 9c 3d 4c f2 a1 3d 11 09 6c 3e a7 20 aa bd
       0.0765672 0.079075426 0.23050334 -0.08307009
000220 c2 61 b6 be 2f db 79 3d 55 a7 76 be 18 d0 91 be
       -0.35621458 0.061000045 -0.2408727 -0.28479075
000230 fa 45 00 be 62 06 38 3e 03 e0 90 3e d4 43 a5 3e
       -0.12526694 0.17971185 0.28295907 0.3227831
000240 de 5a b2 3d 27 be c7 bd 57 d1 83 3e 94 b4 02 3d
       0.08708738 -0.097530656 0.2574565 0.031910494
000250 46 2a e3 bd a6 7e af 3e 10 cf bd bb f4 a9 f2 3c
       -0.110920474 0.34276313 -0.005792506 0.029622056
000260 14 f5 7d 3e ed 46 a5 be 1d 48 fa bd 02 55 98 be
       0.24800521 -0.32280675 -0.12220786 -0.29752356
000270 2f 19 de 3c fc 0a 72 be 83 ff 7d 3e 2b c7 cf be
       0.027111618 -0.23637003 0.24804501 -0.4058164
000280 94 50 66 be e2 84 47 3d 95 9d a5 3e 87 54 8a 3e
       -0.22491676 0.04871071 0.32346788 0.27017614
000290 fe 3a a0 be 4a 65 ad bd 7f c2 b1 3e 5a 45 9d 3e
       -0.31295007 -0.08466585 0.347187 0.30716974
0002a0 1f 91 2f 3e 04 e8 fc 3d 6a 36 66 be 7e 85 5a be
       0.17145203 0.12348941 -0.22481695 -0.21339986
0002b0 f8 48 5b 3e bf 31 37 3d e0 6a 70 be 50 af 7b 3c
       0.21414554 0.044725176 -0.2347827 0.015361622
0002c0 07 ad 90 3e 59 35 52 3e 96 1b 82 bc 36 e9 b9 3d
       0.2825701 0.20528163 -0.015882295 0.090776846
0002d0 88 30 78 3e eb 16 97 3e af 1a a3 be b2 29 c3 bb
       0.24237263 0.29509673 -0.31856295 -0.005955898
0002e0 a2 70 72 3e 50 8b d6 bc fb 46 8c be f7 6c 50 3e
       0.23675779 -0.026189476 -0.27397904 0.20354067
0002f0 06 35 04 be 1c c5 8f 3e 2e f3 57 3d ce 56 92 be
       -0.12910852 0.2808007 0.05272215 -0.28581852
000300 83 e0 7b be 57 74 8d be f5 ea 80 be 9a d7 9f 3e
       -0.24597363 -0.27627823 -0.25179258 0.31219178
000310 ad e9 2e be c1 2b a0 3d 80 bb 9b 3e c3 c1 93 bd
       -0.17081328 0.078208454 0.3041649 -0.072146915
000320 30 50 41 3e b6 ce 2c 3e b9 04 aa 3e 51 cd 42 bd
       0.18878245 0.16875729 0.33206728 -0.047559086
000330 2c 0f 6e 3e 0c 78 86 ba 46 c4 1f 3d 11 be b6 be
       0.23247975 -0.0010259165 0.03900554 -0.35691884
000340 d6 97 8d be bd 24 bf 3e d5 f7 d8 3d 88 c7 83 3d
       -0.27654904 0.37332717 0.10594145 0.06434542
000350 59 ef 02 bd f7 7f d6 3d e1 f0 30 3e 75 4a 96 be
       -0.03196654 0.10473626 0.17279388 -0.2935368
000360 50 0a 40 3e c4 ca 45 3b b8 ec 59 3e 30 c7 1d 3e
       0.18753934 0.0030180672 0.21281707 0.15408015
000370 b0 21 96 3e 86 b2 77 3e 1c ba 8b 3e 70 f2 4e be
       0.29322577 0.24189195 0.27290428 -0.2020967
000380 54 e8 0c be f5 1c 8c be 1d 40 53 3e 9b 8e c7 be
       -0.13760501 -0.27365842 0.20629926 -0.38975987
000390 bf 0c 4b bd b0 94 86 be 55 33 08 bc da 32 a2 3e
       -0.049572702 -0.26285315 -0.00831302 0.31679422
0003a0 37 26 5b be 83 94 80 be 7b dc a9 be 78 62 40 be
       -0.21401297 -0.25113305 -0.33176026 -0.18787563
0003b0 be a5 89 3e c5 cc d6 3d c0 c6 36 3d b6 61 b2 3e
       0.26884264 0.104882754 0.044623137 0.34840173
0003c0 f1 17 3a bd 29 7f a1 3d c2 bf 16 3e 6b 0d 7a 3e
       -0.04543299 0.07885582 0.14721587 0.24419181
0003d0 b9 51 bb bd aa 81 96 3e d3 a9 92 3e 9c 06 50 3e
       -0.09146447 0.293958 0.2864519 0.20315021
0003e0 39 bb a6 3e b9 60 a2 3e 11 eb 09 3d a3 29 5f bd
       0.32564715 0.3171442 0.033671442 -0.054483067
0003f0 0e 31 fd 3d e6 4f 03 3e 46 b9 83 be 91 d7 c8 3d
       0.12362872 0.12823448 -0.2572729 0.09806741

fc2.weight f4 [256, 256]
000000 78 30 e9 3c 5e 1e 0e bc 35 ae 30 bd 6c a3 37 bd
       0.028465495 -0.008674232 -0.043134887 -0.044833586
000010 9a f3 cf 3c cc fd 0b 3d f6 b4 cd 3c 94 2d bc bc
       0.025384713 0.034177586 0.025110703 -0.022970952
000020 34 a9 56 3d c5 9c 3b 3d 08 bf 0c bc 90 78 81 3b
       0.05240746 0.045803804 -0.008590467 0.0039511397
000030 88 91 c0 3c ba 15 00 3d 64 31 9c bc d1 cd ca 3b
       0.023506895 0.03127072 -0.01906652 0.006189086
000040 b0 e8 66 3d 82 41 bf 3c 94 d5 73 3d 30 93 5a 3d
       0.05637425 0.023346666 0.059529856 0.053363025
000050 ec 2f c1 3c dd cc 03 3d 0a 1b 73 3c a0 a7 44 3d
       0.023582421 0.032177795 0.01483799 0.048011422
000060 00 3c 6d bd b5 37 3b 3d c5 47 58 bd 52 02 31 3d
       -0.05791855 0.045707423 -0.05280282 0.043215103
000070 f3 e6 f5 bc 38 97 88 bc b3 46 e8 bc ff 42 80 3d
       -0.030017352 -0.01667367 -0.028354025 0.062627785
000080 64 5a bb bc 40 63 87 3b c2 10 0e 3d 56 48 62 bd
       -0.02287025 0.0041317046 0.03468395 -0.055244766
000090 b7 43 79 bd 2b 6b ca bc 8d ff 3b 3c be 88 16 bc
       -0.060855594 -0.024709305 0.011474502 -0.009187875
0000a0 5c ed cc bb 82 b1 77 3d 3e bb 19 bd 14 a4 f6 3b
       -0.0062538814 0.06047202 -0.037532084 0.007526884
0000b0 78 9e 69 3d db 62 7a 3d c7 0a 19 3b 41 dc a8 3c
       0.057035893 0.061129432 0.002335237 0.020612838
0000c0 83 ec 25 bc f0 0e 1e 3d bc ca 18 bd 12 19 19 bd
       -0.01012719 0.038588464 -0.037302718 -0.037377425
0000d0 af b3 3c bc cb 72 8f b9 cb 88 f5 bc a8 d0 78 3d
       -0.011517449 -0.00027360613 -0.029972455 0.060745865
0000e0 07 4c 83 bc c0 29 ba 3a d3 f1 3c bd 7b ea 9a 3c
       -0.016027464 0.0014203116 -0.04612906 0.018910637
0000f0 28 9c 62 3d af ce 47 3c 3b 30 fb 3c be 81 bc bc
       0.055324703 0.012195273 0.030662647 -0.023011085
000100 00 6b 4a bc 3e 93 74 bd 00 1e 0e bd 88 17 63 bc
       -0.012354612 -0.059710734 -0.03469658 -0.013860591
000110 b4 23 84 bc c0 4c 09 3d 00 8e b5 39 38 d9 06 3d
       -0.016130306 0.03352046 0.00034628808 0.032922
000120 93 69 c1 bc 88 18 0e 3d 5c 0e 3f 3d c0 9f fc ba
       -0.023609912 0.034691364 0.046644554 -0.0019273683
000130 c4 b1 9a 3c 54 c0 c4 bc 60 cb 23 3c 20 01 51 3d
       0.018883593 -0.02401749 0.009997219 0.051026464
000140 47 06 7b bd 40 2e a5 3a 80 a1 9d bb 18 10 16 bb
       -0.061285283 0.0012602285 -0.004810512 -0.0022897776
000150 e0 d9 4d 3d 91 e8 19 bd d1 d7 40 bd 84 ea eb 3b
       0.05025661 -0.03757531 -0.04708082 0.0071995873
000160 e6 85 41 3d 09 d9 77 bd be 0d 1e bd 2f 42 03 3d
       0.047246836 -0.060509715 -0.038587324 0.03204554
000170 2c 22 ab 3c 25 ab 36 bd 25 c6 f6 3b f0 43 d0 bb
       0.020890318 -0.04459681 0.007530945 -0.006355755
000180 a4 46 a7 bc f6 74 10 3d 11 5c b1 3c 69 af 13 bd
       -0.020419426 0.035267793 0.021650346 -0.036055956
000190 9a 4f 99 bc 42 a9 7f bd 00 75 cb 39 ed 4f e3 3c
       -0.018714715 -0.062417276 0.0003880635 0.027748073
0001a0 c0 03 cf bc 9e 86 72 bc 1c db 23 bd 63 02 68 3d
       -0.025270343 -0.014802603 -0.04000388 0.0566429
0001b0 b2 1e 46 3d d9 3f 4d bc ec 41 c8 3c f9 e0 74 3c
       0.048369117 -0.0125274295 0.024445496 0.014946216
0001c0 19 f3 1b bd 27 e0 2e bc fe 7c 73 bd 33 37 cf bc
       -0.038073633 -0.010673559 -0.059445374 -0.025294876
0001d0 21 09 10 3d 36 d0 5c bc fe 74 3c 3d 62 7d 57 bd
       0.035164956 -0.013477376 0.04601001 -0.05260981
0001e0 66 49 4b bd e4 21 fc bc d9 d0 78 3d 54 89 0d bd
       -0.049630545 -0.030777879 0.060746048 -0.034554794
0001f0 c4 f2 ed bc b8 cc c6 38 30 cd c3 ba 26 85 7e bd
       -0.029046424 9.4795076e-05 -0.001493847 -0.0621387
000200 80 3e d8 bb d6 00 2b bc 81 a2 54 bd ce a4 22 bd
       -0.0065992475 -0.010437211 -0.05191279 -0.03970795
000210 c0 55 ac 3c e4 23 d2 3b 1c 2f a2 bb ca c9 35 bd
       0.021036983 0.00641297 -0.0049494635 -0.044381894
000220 00 2d 86 bc 83 7a 30 bc 50 0d 02 3d d6 56 56 bd
       -0.01637888 -0.010771397 0.031750977 -0.052328907
000230 83 3c 2b bc 0b 67 c1 bc 3c 93 cc bb d6 e7 30 bd
       -0.010451439 -0.023608705 -0.0062431376 -0.043189846
000240 6c c5 f9 3c 62 c3 15 bd 24 20 51 39 d2 94 6d 3d
       0.030489646 -0.036563285 0.00019943767 0.058003254
000250 4f 71 7c 3d 94 cd 0b 3d 1b 78 90 3c 76 92 10 3d
       0.061631497 0.0341316 0.017635396 0.035295926
000260 96 79 09 bd 26 ea 1f 3b 01 19 80 3c 78 24 69 3d
       -0.03356322 0.0024401038 0.015636923 0.056919545
000270 81 14 59 3d e8 2b 71 3c 25 8e 78 bd 1a 36 75 3d
       0.05299807 0.014719941 -0.060682435 0.05986605
000280 a8 38 f5 3c 52 4c 7b bd 89 9a 1a 3c 21 5a 91 3c
       0.029934242 -0.06135208 0.009436258 0.017743172
000290 50 93 05 bd c3 66 73 3d 6b 19 44 3d ca 76 55 bd
       -0.03261119 0.059424173 0.047875803 -0.05211524
0002a0 bf 9f 10 3d 04 bf d0 3c 24 4e e8 bc 26 1b 5a 3d
       0.035308596 0.025481708 -0.028357573 0.053248547
0002b0 f0 c7 5b bd e1 0b 32 bd a0 61 64 bd ac 5f 6a bd
       -0.053657472 -0.04346836 -0.055757165 -0.057220146
0002c0 27 31 73 bc 1f 4c fb bc c9 7f e0 3c f2 53 7d bd
       -0.014843262 -0.030675946 0.027404683 -0.061847635
0002d0 ce 7c 72 bd 41 3e 12 3d 30 02 b4 bc c4 9c 67 bd
       -0.059201054 0.0357039 -0.0219737 -0.056545988
0002e0 88 cc 88 bc d2 89 41 bd 00 90 c1 ba 26 6d e1 bb
       -0.01669909 -0.047250576 -0.0014767647 -0.0068794666
0002f0 38 81 e0 bc ba 3c 3e 3c e0 d2 90 bb d0 ff 31 bd
       -0.027405366 0.011611158 -0.0044196695 -0.043456852
000300 5c 12 30 bd 07 c2 66 3c 5c 51 3b 3d 7c e3 4c bd
       -0.04298626 0.014084346 0.045731887 -0.050021634
000310 cc 68 d0 bb ec 75 e5 3c d5 11 88 3c ec 3f ff bc
       -0.006360149 0.028010331 0.016610065 -0.03115841
000320 91 fe d4 3c 9c 43 10 3d 6b 0c 24 bd 16 a1 06 bd
       0.026000293 0.035220727 -0.040050905 -0.032868467
000330 bb 5b 73 bd d5 ca 5a 3d 72 92 5f bd 04 9f 1f 3d
       -0.059413653 0.053416092 -0.05458302 0.03897001
000340 72 3b 2b 3d 48 7a 0e 3d 0e ef 21 bd 06 24 47 bc
       0.04180474 0.034784585 -0.03953462 -0.012154585
000350 fd c7 24 3d fd 4f 04 3d 18 60 cf bb 4c f5 4c 3d
       0.040229786 0.032302845 -0.006328594 0.05003862
000360 0e 7a 09 bd a0 4c 09 3d 69 d0 48 3d eb 24 f3 bc
       -0.033563666 0.03352034 0.04902688 -0.02968069
000370 7d 12 47 bd b6 fd 0e bd d0 ce 85 3b e4 c4 9e bc
       -0.048601616 -0.034909926 0.004083492 -0.019380994
000380 e4 22 29 3d 44 ac 08 bd 52 b0 2f bd 0a 16 40 bd
       0.04129304 -0.03336741 -0.04289276 -0.046896018
000390 a8 ea 24 bd ba b4 2c 3d 00 33 9c bb fa 27 1a 3c
       -0.04026285 0.04216454 -0.004766822 0.009408945
0003a0 16 9b 56 bd 9e cb 15 bd 18 28 02 bd 8c 41 54 bd
       -0.052393995 -0.036571138 -0.031776518 -0.051820323
0003b0 4f 5e 49 3d 13 c7 b2 bc 93 e4 0b 3d fb 76 95 bc
       0.049162205 -0.021823442 0.034153532 -0.01824521
0003c0 32 86 19 bd 86 8d 54 bd d1 d3 2c 3d 80 37 63 3d
       -0.037481494 -0.05189278 0.04219419 0.05547285
0003d0 bb ec f6 bc 40 cd c3 39 f0 01 4f 3d 63 bb 32 3d
       -0.030142179 0.00037346222 0.050538957 0.043635737
0003e0 42 a8 a4 3b 84 97 7e bc 34 16 67 bd bd f5 88 bb
       0.0050249407 -0.015539054 -0.05641766 -0.004179685
0003f0 95 8e ec 3c 97 e1 d7 bc 20 08 28 bb 4f 4b df bc
       0.028876582 -0.026352687 -0.0025639609 -0.02725759

fc2.bias f4 [256]
000000 5b c4 5e 3d 8d 68 b9 3c 9e ab 42 3c e5 18 26 bd
       0.054386478 0.022632862 0.011881737 -0.040551085
000010 c7 9b 5c 3d 33 57 54 3c 95 4e ef 3c 17 3d d5 3c
       0.0538595 0.012960243 0.029212276 0.026030106
000020 e0 c2 ba 3b 70 3d 64 bc 9c 44 09 b9 3c 1d 68 3c
       0.0056995004 -0.0139306635 -0.00013090897 0.014167126
000030 db bc a1 bc b0 f1 0e bc bd 1a 16 bd 62 d6 1f 3d
       -0.019743374 -0.008724615 -0.036646593 0.03902281
000040 d8 08 24 ba fc 2c a3 3c 6b 0b 5b 3c ff e7 50 bd
       -0.00062574213 0.019918911 0.0133694215 -0.0510025
000050 56 d5 4b 3c 75 c5 14 bd a3 66 36 3d fc 22 f2 bc
       0.012441 -0.036321122 0.044531476 -0.029557697
000060 37 94 09 bd 56 22 0f bb b1 69 a5 bc 9d 2d 64 bd
       -0.033588614 -0.0021840534 -0.020192 -0.055707563
000070 df b8 6c 3d 67 72 3d bd e9 fc 4a bd 38 75 fc bc
       0.057793494 -0.04625168 -0.0495576 -0.030817613
000080 16 99 7d 3b 73 3e 0d bd 01 42 a6 bc c3 cb 76 bd
       0.0038695983 -0.034483384 -0.020295145 -0.060252916
000090 8b a0 e5 3b 00 c1 03 ba 89 a1 b7 3c 13 4b 03 bd
       0.0070076636 -0.00050260127 0.022415893 -0.03205402
0000a0 6e f1 4d 3d 37 67 05 3d 0e dd 54 3d c9 1f c0 3c
       0.050279073 0.032569136 0.051968627 0.023452656
0000b0 be 37 52 bd 79 9e 39 bd a3 ad 0a bd a7 b5 df 3c
       -0.05132269 -0.045317147 -0.033857 0.027308298
0000c0 fb 02 34 bd 31 a0 95 bc 20 90 75 bd 03 a7 0d bc
       -0.043948155 -0.018264862 -0.0599519 -0.008645776
0000d0 df d1 4d 3d cb a5 63 3d bd c2 ab 3c b0 79 3b bc
       0.050248977 0.055578034 0.020966882 -0.011442587
0000e0 60 30 6f 3b db f3 ee bc 41 8f 62 bd 65 cc b5 bb
       0.003649734 -0.029169014 -0.0553124 -0.0055480474
0000f0 d6 f9 0b bd c0 d5 76 bc fa 41 34 3c 68 6c 4e 3d
       -0.03417381 -0.01506561 0.011002058 0.050396353
000100 dd 0b ec bc d5 67 b8 bc db 20 c0 3c 86 6c 33 bd
       -0.02881425 -0.022510448 0.023453167 -0.043804668
000110 a7 95 36 3b 65 c5 d0 bb a3 73 fe 3c 78 42 20 3c
       0.0027860196 -0.0063711875 0.031061 0.009781472
000120 71 54 9f bc a9 12 23 3d dd d3 48 bd df 14 cf 3c
       -0.019449444 0.039812718 -0.049030174 0.025278507
000130 77 1d 41 3d 10 1d 99 3b e8 06 24 3d 21 9e 97 3c
       0.04714724 0.004672654 0.04004565 0.018508019
000140 c1 57 a4 3c c0 96 e3 3a 62 e4 7c bd b9 26 69 3d
       0.020061376 0.0017363653 -0.06174124 0.056921694
000150 5b 76 41 3d 03 b2 37 bd c0 09 4c 3b 5f e5 ad bc
       0.047232013 -0.0448475 0.003113374 -0.021227537
000160 b8 d9 4b 3c 1b 71 1b bc 8b 1a 28 bd b5 75 8a bc
       0.012442045 -0.009487416 -0.04104094 -0.01690183
000170 eb 69 46 3d f5 86 cd bb b8 fd 43 3d 9f a9 e3 bc
       0.048440855 -0.0062721916 0.047849387 -0.027790843
000180 8c 8c 49 3d a6 8a 74 3d 17 a0 24 3d 8f e7 10 bd
       0.0492063 0.059702538 0.040191736 -0.03537708
000190 58 d7 61 3c 7a d5 3d bd 3b ef 4a bd cb 24 54 3d
       0.013784252 -0.046346165 -0.049544554 0.0517929
0001a0 1f a3 d2 bc 09 d7 6f 3d a1 88 a0 3c dd fc 71 3c
       -0.025712548 0.058554683 0.0195964 0.01476976
0001b0 95 8b 6b 3d ba 0f 0b 3d b0 9e ef bc 47 e1 e1 bc
       0.057506163 0.033950545 -0.029250473 -0.02757324
0001c0 48 2d 55 bd 57 21 19 3b cf 89 3a 3d 21 40 00 bd
       -0.052045137 0.002336582 0.04554158 -0.031311158
0001d0 5c cf 60 3d e6 48 70 bc df 6a fa bc cb 41 16 bd
       0.054885253 -0.014665818 -0.030568538 -0.03668384
0001e0 78 11 25 3c 89 45 b2 bc 31 6b 3f bd 74 f0 84 bc
       0.010074966 -0.021761673 -0.046733085 -0.016227938
0001f0 cc 3d 61 bd 98 97 43 3c 56 c5 57 3b ac 71 fb ba
       -0.054990575 0.011937998 0.0032924018 -0.0019183657
000200 4f 27 56 3d 31 16 4b 3d 77 e6 35 bd 2f 19 1b 3d
       0.05228358 0.04958171 -0.04440924 0.037865814
000210 93 1b 82 bc 28 97 1e 3c c3 40 2d bd b0 bc b7 3c
       -0.015882289 0.009679593 -0.04229809 0.02242884
000220 ac 52 9b ba e1 4a 4b bd 1b 24 01 bd 0d 59 86 3c
       -0.00118502 -0.049631957 -0.031528573 0.016399885
000230 8d 21 82 3c 9e 3b 23 bc ab d3 1d bd 43 64 22 bd
       0.015885139 -0.009962944 -0.03853194 -0.0396464
000240 7b 79 89 bc 97 be bb bc a1 71 7e bd 80 6a 3d ba
       -0.01678156 -0.022918029 -0.062120084 -0.00072256476
000250 ed f0 f7 bc af 5e 9d bc b5 c0 23 bc f9 7e 46 3d
       -0.03026625 -0.019210188 -0.009994675 0.048460934
000260 85 d6 e2 bb 5b 0d 80 bc 0f db a9 3c 6d 5a 32 bd
       -0.0069225454 -0.015631368 0.020734338 -0.043543268
000270 e5 f0 89 bb 40 a1 09 bb 88 59 76 bd 0d f9 4f bd
       -0.004209625 -0.0021000654 -0.060143977 -0.050774623
000280 5b e3 e0 3b 5b 48 c1 3c 40 db 49 bb 2e 5b 5c 3d
       0.0068630404 0.023594072 -0.003080085 0.053797893
000290 ac 69 d4 3a 17 27 6b 3d 57 61 30 3d e3 91 87 bc
       0.0016205809 0.057410326 0.04306158 -0.016549056
0002a0 c3 51 c6 bc 2d 97 49 3d 30 fa 71 bc c3 8b 7b bd
       -0.024208909 0.049216438 -0.014769122 -0.061412584
0002b0 0b 30 34 bc 70 89 21 bd d8 92 f1 bc 28 83 4d bd
       -0.010997782 -0.03943771 -0.029488966 -0.05017391
0002c0 5f 4f 90 bc 43 14 16 bd 23 cd db 3c 85 62 3c 3d
       -0.017615972 -0.036640417 0.026831215 0.045992393
0002d0 ac 19 bb ba 29 fc 12 3d ff 59 11 3d f6 b9 6d 3c
       -0.0014274619 0.03588501 0.035486218 0.014509669
0002e0 40 51 da bb f5 56 0c bd 83 4d 18 3d 81 07 ac 3c
       -0.006662518 -0.034262616 0.037183296 0.020999672
0002f0 49 11 3b 3d 25 f7 67 bc a3 6f c2 bc 1d 1a 55 3d
       0.04567078 -0.014158045 -0.023734873 0.052026857
000300 5d 5b 2a bc ba 57 69 bd 3f 4e 33 3d 16 58 3f 3b
       -0.010397759 -0.05696843 0.043775793 0.002919679
000310 53 17 36 bc de d2 a8 bc 68 56 00 bd cb 6b 68 3d
       -0.011113959 -0.020608362 -0.031332403 0.056743424
000320 2e de 77 bd bd 23 f4 3c a8 ce 36 ba ba b4 28 3c
       -0.06051462 0.029802198 -0.0006973543 0.010296995
000330 c3 2c 05 3d 1b 4f 56 bd 2d 0d bf 3c ac be 84 ba
       0.03251339 -0.052321535 0.023321712 -0.0010127625
000340 f8 0b 3e bc d7 0e 57 3d 20 fb 50 bc be d5 4e 3c
       -0.011599533 0.052504387 -0.012755185 0.012624202
000350 2b c3 2f bd 0d f5 28 bd f9 59 3c bd cd 60 56 bd
       -0.042910736 -0.041249324 -0.045984242 -0.05233841
000360 24 05 57 bd dd de 61 3d 3d e7 f7 bc 9b 6e 1e 3d
       -0.052495137 0.05514418 -0.03026163 0.0386797
000370 0e cb 37 bc 4f e3 8e bc db af 45 3d b5 97 a3 bc
       -0.011217846 -0.017442374 0.048263412 -0.0199698
000380 0b e2 fe 3c 29 54 45 3d 33 5b 10 3d 54 b4 20 3d
       0.031113645 0.048175965 0.035243224 0.039234474
000390 f3 da db 3c 81 b2 58 3d ea 08 55 3b f5 b9 6e bc
       0.026837802 0.05290461 0.0032506534 -0.014570703
0003a0 8b b5 da 3c 49 fa 73 3d 57 1f 63 bd 4b bc de bc
       0.026697895 0.059564862 -0.05544981 -0.027189394
0003b0 f3 29 37 bc e6 6e 4a bc d7 0b 49 bd 7f bd 51 3d
       -0.011179435 -0.012355542 -0.049083557 0.05120611
0003c0 2f 81 2b bd 90 c0 0e bc d6 5b 43 3d eb 5a fd 3b
       -0.041871246 -0.008712903 0.047695003 0.0077317855
0003d0 6a 31 19 3d 8c 04 e5 3c 2d 4d 7b bd c8 6e 99 3c
       0.03740064 0.02795627 -0.061352897 0.018729582
0003e0 ec 38 ae 3c ab 41 83 bb b6 25 1f 3b c9 e9 6e 3d
       0.021267377 -0.004005631 0.0024283952 0.058328424
0003f0 ed db 1b 3d d9 bb 5a 3d 67 fe f3 3c ba d3 51 bd
       0.038051534 0.0534018 0.029784394 -0.05122731

mean_layer.weight f4 [2, 256]
000000 54 ce 58 bd 0b b0 2c bd 07 12 90 3c eb 64 48 3d
       -0.052931145 -0.042160075 0.017586721 0.048924368
000010 55 e5 23 3d 0d ae 5c bd 05 56 0e bd 3b c3 5a 3d
       0.04001363 -0.053876925 -0.034750003 0.053408843
000020 50 49 03 3c 00 05 f1 3b 6d 2d a0 bc 38 6b d8 bc
       0.0080130845 0.0073553324 -0.01955291 -0.026418313
000030 b9 f1 b4 bc 90 58 33 3c 92 c3 2c bc 75 4d e0 bc
       -0.022087919 0.010946408 -0.0105446745 -0.027380684
000040 bb 5b 39 bd 8e 3f 2e bd 67 d1 5f bd 63 bf 68 3d
       -0.045253497 -0.04254108 -0.05464306 0.056823146
000050 46 fd e5 bb cd ee 71 3d c1 f2 eb bc 60 9c d6 3c
       -0.007018718 0.05906563 -0.028802278 0.026197612
000060 9b d5 be 3b 59 e1 56 bd 35 58 0d 3c 97 c0 82 3c
       0.0058238036 -0.052461002 0.008626987 0.015960975
000070 b1 0f 7c 3d 9d ff 7d bd d5 0b 13 bd fc 82 ab 3c
       0.061538402 -0.06201135 -0.035899956 0.020936482
000080 6d 7d 1c 3d 8b 76 5f bd bb da da 3b e1 27 05 3d
       0.038205553 -0.05455641 0.0066789067 0.032508735
000090 ef e4 99 3c 06 ee 7f bd 01 fe d8 bc 0b 4e 78 3d
       0.018785922 -0.062482856 -0.026488306 0.060621303
0000a0 95 56 aa bc 5b 45 d2 3c 3a d1 1c bc 2e 12 15 3c
       -0.020793239 0.025667837 -0.009571368 0.009098573
0000b0 ec f4 6f bd 15 7a 0b bd 15 b7 9d bb eb f9 de 3c
       -0.058583185 -0.034051973 -0.004813085 0.02721878
0000c0 0d 81 71 3d 7b 61 f8 3c c0 b8 25 bd 99 fa ae bc
       0.058960963 0.03031992 -0.040459394 -0.021359729
0000d0 67 9b 79 bd f3 63 c6 3c c3 a1 ec 3c ce 4e 00 bd
       -0.06093922 0.024217581 0.028885728 -0.031325154
0000e0 c0 c3 47 3d b1 3d 4e bd 05 c6 75 bd bd 9b 63 3c
       0.048770666 -0.050351802 -0.0600033 0.013892111
0000f0 b8 86 8d bc c6 95 36 3d 84 c4 72 bd ca be b4 3c
       -0.017276153 0.04457643 -0.059269443 0.022063632
000100 d3 b6 b4 3c 55 bf 54 3d c6 f1 03 3c bc 8e d9 3c
       0.022059834 0.05194028 0.008053249 0.026557319
000110 1c 4e 1c 3d 8b da a3 3b 7b 06 fc 3b 90 58 df 3b
       0.03816043 0.0050004176 0.007691202 0.0068159774
000120 38 ae 5f 3d fb 52 a6 3b 50 13 e1 3c 9f 52 4a 3d
       0.054609507 0.00507581 0.02747503 0.0493952
000130 1d 53 f8 bc 5c 06 43 bd d0 a7 69 3d 67 82 3e bd
       -0.030313069 -0.047613487 0.057044804 -0.04651108
000140 6a ea 25 bc 2a 85 7d bd bc 61 40 3d f3 22 79 bd
       -0.010126689 -0.061894573 0.046968207 -0.060824346
000150 93 1a 29 3d 7b 08 f2 3b e0 3c 6b bc 71 9d e1 bc
       0.04128511 0.007386265 -0.014357775 -0.027540894
000160 ae f9 29 bd c9 75 78 3d 89 2f 54 bd fd e8 64 3d
       -0.04149788 0.060659204 -0.051803146 0.055886257
000170 99 3a 37 3d bf 56 d3 3c 1e bc 10 bd b5 4b b4 bb
       0.044733617 0.0257982 -0.035335653 -0.005502189
000180 fb 14 2f 3d fa d1 09 bd 2a 4c 67 bb 07 a9 58 bd
       0.042744618 -0.033647515 -0.00352932 -0.052895572
000190 d8 ea be bc 00 fa 2f ba 8b ae 45 3d 8b 5b 64 bd
       -0.023305342 -0.0006712973 0.04826216 -0.055751365
0001a0 15 db 63 3c b5 25 b3 bb 2d a8 17 bd fd 4f 01 3d
       0.013907214 -0.0054671415 -0.03702562 0.031570423
0001b0 13 36 22 3d e6 6b 08 3d 34 34 44 bd 82 7d 38 bc
       0.03960235 0.033306025 -0.047901347 -0.011260392
0001c0 51 73 de 3c 1d 96 84 bc dd 52 c9 bc c6 4a 5a 3d
       0.027154597 -0.01618486 -0.024575645 0.053293966
0001d0 84 20 e2 bc 75 ca 62 bd 39 33 f1 bc 95 c1 2c 3d
       -0.027603395 -0.05536886 -0.02944337 0.0421768
0001e0 72 a1 73 3d e3 2f c1 3c 7d 50 06 3c 10 ba b0 bb
       0.059480138 0.023582404 0.008197901 -0.005393274
0001f0 60 69 46 bd 64 d8 f3 3c 2f 2f f6 3c 01 1a 4a bd
       -0.048440337 0.029766269 0.030051796 -0.049341206
000200 1b df 9b 3b b7 b4 0b bd 79 8d 10 3d 43 5f 9a 3c
       0.004756821 -0.03410789 0.03529117 0.018844252
000210 eb 89 a9 3b 64 ed df bc b5 85 92 bc b4 d5 65 bd
       0.005173912 -0.027334876 -0.017886022 -0.056112006
000220 51 8c 77 bd 86 8d 7b 3c 0c d1 37 3d 41 6f 80 bd
       -0.06043655 0.015353566 0.044877097 -0.0627122
000230 31 3f 21 bd 73 35 78 bc 21 9e 8e bc c1 77 42 3d
       -0.039366905 -0.015149462 -0.017409386 0.047477487
000240 37 5e 12 bd 0b 3f 53 bd db a9 d4 3b ca 56 13 3d
       -0.03573438 -0.051573794 0.006489975 0.03597144
000250 45 a6 4f 3d 1f 97 61 bd 85 0d 59 bd 1b 81 5b bd
       0.050695676 -0.05507576 -0.05299141 -0.05358992
000260 c3 93 29 3d db 56 02 bd b6 3e 61 3b 51 ea 72 bd
       0.041400682 -0.031821113 0.0034369654 -0.059305493
000270 17 cc 5e 3d 18 ab 57 bd 10 a4 1c 3d 87 67 f5 3c
       0.054393854 -0.052653402 0.0382424 0.029956592
000280 ad 2f 53 3d d5 8c 44 3d 08 59 03 3d c4 4f f7 3c
       0.05155914 0.04798587 0.03206733 0.030189402
000290 07 d8 18 3d c9 53 66 3d 99 89 80 bc f5 fc ff bc
       0.037315395 0.056232248 -0.015690612 -0.031248549
0002a0 97 b9 56 bd 9d ec 6c 3d fc 47 c1 bc bb 7d f1 3c
       -0.052423086 0.05784284 -0.023593895 0.029478898
0002b0 f7 09 76 3d 00 f6 b4 3a 10 0c 92 bb 72 be 60 3d
       0.060068097 0.0013806224 -0.0044570044 0.054869123
0002c0 05 f2 8a bb a5 15 1b bd 07 f1 8d 3c 4b 27 15 bd
       -0.0042402768 -0.03786244 0.017326845 -0.036414426
0002d0 bd dd 20 3c 0a 23 17 bb db e7 78 bc eb 03 9a 3c
       0.0098184915 -0.0023061656 -0.015191997 0.018800696
0002e0 56 a8 49 3d 17 95 14 bd 85 7b 92 bc 27 f9 48 bd
       0.049232803 -0.036274996 -0.017881164 -0.049065735
0002f0 f5 7b 85 bc f3 0d 00 bd dd 76 b0 bc 65 b8 13 3d
       -0.016294459 -0.031263303 -0.021541053 0.036064524
000300 fb c6 2d bd 00 8b fb bc c3 de 54 bd 4b 19 94 3b
       -0.04242609 -0.030705929 -0.051970255 0.0045196167
000310 3d d1 7c 3d ec 11 98 3b 24 5d 2f bd 0b 56 75 3d
       0.061722983 0.0046408083 -0.042813435 0.05989651
000320 b6 b4 73 3d c5 6a f9 bb e9 00 12 3d 65 9c 11 bd
       0.05949851 -0.007611605 0.0356454 -0.03554954
000330 ec ab d6 3a f1 31 45 bd 71 6d a0 bc 87 51 2a bd
       0.0016378141 -0.04814333 -0.019583436 -0.041581657
000340 7a 0c 36 bd 4d e0 2e 3c 9e 75 4a bd 8d 95 20 3d
       -0.044445492 0.010673595 -0.049428575 0.039205123
000350 05 50 7a bd 78 c7 53 3b 85 98 38 bd 41 2d 0e 3d
       -0.06111147 0.0032314938 -0.04506733 0.034711126
000360 76 e7 6a 3d ed 47 0a 3c a3 25 57 3d ec be bf 3a
       0.057349645 0.00844 0.052526128 0.0014629043
000370 56 e7 0a 3c e5 f2 54 bd 01 63 24 bd fb 20 a4 3c
       0.008478006 -0.051989455 -0.04013348 0.020035258
000380 9d ca 42 3d 7b 71 b9 3b 9f a9 d2 bc 6a 59 2a bd
       0.04755651 0.00565928 -0.025715647 -0.04158918
000390 83 6c 02 3d 03 e3 c5 3c 15 ec 9c bc df 03 71 bd
       0.031841766 0.0241561 -0.019155541 -0.058841582
0003a0 cb f3 88 3b 28 84 09 ba a7 f1 95 3c c3 a3 2f bd
       0.004179453 -0.0005245828 0.018303705 -0.042880785
0003b0 63 7f e3 3c 09 d3 9a bc 45 30 46 bd 53 8b 9b bc
       0.027770704 -0.018899458 -0.048385877 -0.018987333
0003c0 15 f8 ef bc e0 4c 4a 3b ac f7 f8 3c 79 90 11 3d
       -0.0292931 0.0030868575 0.030391537 0.03553817
0003d0 fc 44 0e bd b0 0e 98 bb 6d 03 41 bd a0 78 44 3c
       -0.034733757 -0.0046404228 -0.047122408 0.01199165
0003e0 a0 59 13 3c 0b 12 64 bd 1f 02 98 3c dd a7 75 3c
       0.008993536 -0.05568127 0.018555699 0.014993635
0003f0 09 15 78 3d 5a 2f 77 bc f6 75 3a 3b 90 4b ea 3c
       0.060566936 -0.015086973 0.0028451658 0.028600484

mean_layer.bias f4 [2]
000000 f9 58 61 3d 51 c5 1d 3d
       0.05501649 0.038518254

log_std_layer.weight f4 [2, 256]
000000 64 2d 43 3d 2f 57 6e bd bb 0e 12 bd 73 64 4d bd
       0.04765071 -0.058188614 -0.03565858 -0.050144624
000010 45 b9 5c bc 85 48 4c bd 8d e3 4a bd 2d 4b b3 3c
       -0.013471906 -0.049873848 -0.049533416 0.021886433
000020 42 52 47 bc 48 85 8f 3c f5 98 2f bd fd e9 4b 3d
       -0.012165608 0.017519608 -0.04287048 0.049783695
000030 6f 0a 15 3d 90 ea 10 3c 66 d8 47 bc fb f1 be bb
       0.036386903 0.008844987 -0.0121975895 -0.005827186
000040 bf 47 60 3d 62 e8 07 3d 4d 84 1b 3d 25 2a 95 3b
       0.054755922 0.033180602 0.03796797 0.004552143
000050 c6 81 bb ba b9 86 c2 3c 3b 25 b9 bb 4a 2b 1a 3d
       -0.0014305643 0.023745881 -0.00565019 0.03763894
000060 45 87 8f 3c f7 3b 72 3d 03 61 43 bd 65 44 7a 3d
       0.017520556 0.05913922 -0.04769994 0.061100382
000070 eb 94 a8 bc 37 e7 56 3d ff 70 3f bd cc 34 10 bd
       -0.020578822 0.052466597 -0.04673862 -0.0352066
000080 25 98 65 bd e7 2f 24 bd 0b ce 4f bd b7 ac cf bc
       -0.0560533 -0.040084746 -0.050733607 -0.025350912
000090 b3 35 92 bc 88 18 70 3c 63 74 14 3d 31 18 6c 3d
       -0.017847871 0.014654286 0.036243808 0.05764026
0000a0 17 14 a0 bc cb 9a 7f 3c 41 1e f8 3b fe 01 17 bc
       -0.01954083 0.01560087 0.007571966 -0.009216784
0000b0 60 6d 15 3b 81 21 40 bd 61 f5 21 bd 5e d3 39 bc
       0.0022800788 -0.04690695 -0.039540652 -0.011341898
0000c0 f9 d5 b9 3c 23 69 5e 3c d0 94 25 bd 83 7a cd bc
       0.022685038 0.013574871 -0.04042512 -0.025082832
0000d0 fd 44 42 bd ff d6 3a 3d fc e5 59 3d a0 a7 42 bc
       -0.047429074 0.045615193 0.053197846 -0.011880785
0000e0 30 14 1f 3c 3f 7f cb bc c0 ca e0 b8 99 fb ed 3c
       0.009709403 -0.02484095 -0.000107189175 0.029050635
0000f0 3c d7 16 bd b0 df 9f 3b e4 15 a1 bc 55 09 76 bc
       -0.036826357 0.0048789605 -0.019663759 -0.015016873
000100 03 99 20 3c 75 1a 87 3c 83 ef d0 bc 96 47 1b bd
       0.009802106 0.016492108 -0.025504833 -0.037910067
000110 0c 16 f7 bc 0b 31 38 3c 61 7a 78 bd c0 d0 f0 3a
       -0.03016188 0.0112421615 -0.060663585 0.0018372759
000120 fa 28 55 3d a1 29 04 3d 09 da 60 3b 97 0c 68 3d
       0.05204103 0.032266263 0.0034309647 0.05665263
000130 0b c2 3a bd 16 2b 4c bd e4 77 6f 3d 39 3e 0e bd
       -0.04559521 -0.049845777 0.058463946 -0.03472731
000140 1e a7 7b bd 70 bb 4a bd 80 3a c9 3a ac 1a c6 ba
       -0.061438672 -0.04949516 0.0015352517 -0.001511415
000150 33 6c 44 3c 5e 30 7b bc 88 c3 41 3d 7b c7 29 3d
       0.011988687 -0.015331356 0.047305614 0.041450005
000160 c0 83 9a 3a 4f 34 83 bc 91 86 38 3d f7 04 d8 bc
       0.0011788532 -0.016016154 0.045050208 -0.026369555
000170 33 3d 47 bd 75 13 5e bd 00 7c 4a bb a5 33 da 3c
       -0.04864235 -0.054217774 -0.0030896664 0.026635954
000180 8a c1 ca bb b9 22 b4 bc fc 5c 51 bd fd 37 e1 3c
       -0.0061876224 -0.021989213 -0.051114067 0.027492518
000190 4c 14 ff 3c a2 57 6b 3d 17 fc be bc 6d 0e fd 3b
       0.031137608 0.05745662 -0.023313565 0.007722667
0001a0 5d 91 0f 3d f1 8c 76 bd 68 b4 04 bd ab fa 45 bd
       0.03505074 -0.060193006 -0.03239861 -0.04833476
0001b0 8f 67 4f bd aa 0b 42 3d 00 2c 71 b9 23 9a f7 bc
       -0.05063587 0.047374405 -0.00022999942 -0.030224865
0001c0 06 2c a0 3c 54 ed 55 bd 0a 9a 4f 3b 7f e2 21 3d
       0.019552242 -0.052228287 0.0031677508 0.039522644
0001d0 f6 8a 05 3d ad 93 32 bd 61 97 df 3c a6 fa 3d bc
       0.032603227 -0.043597866 0.027293863 -0.011595404
0001e0 66 20 78 3d c6 4d 80 3d b7 d1 fe bc 90 b2 c3 3b
       0.060577773 0.06264834 -0.03110586 0.005972214
0001f0 14 3c 30 bd 80 f6 08 3d 3b 5c b1 bc da 5d 1e 3c
       -0.043026045 0.033438206 -0.021650424 0.009665931
000200 a5 e8 58 3d b5 a7 52 3d f6 44 53 bb 8a 87 09 3b
       0.052956242 0.05142947 -0.003223715 0.0020985329
000210 99 e5 50 3d 1c 84 fe bc 73 7f 3a 3d 0c de c1 bc
       0.05100021 -0.031068854 0.0455317 -0.02366545
000220 73 42 9b bc 35 af 6c 3d 90 29 54 3d 6c 7b ff ba
       -0.018952584 0.057784278 0.05179745 -0.0019491739
000230 8d 29 c9 bb 71 ea 33 3d 4a 50 4f 3d 67 17 07 3d
       -0.0061389864 0.043924753 0.05061368 0.032981303
000240 5b a5 c8 bb 9b df 96 bb b1 e0 10 bd c0 5b 21 bc
       -0.0061232275 -0.0046042926 -0.035370532 -0.009848535
000250 99 91 1f 3d cf 40 c5 bc a3 0b 82 bc 4d 86 4c 3d
       0.038957212 -0.024078755 -0.01587469 0.049932767
000260 bb 39 84 bb cb 83 64 3c 07 9a 6b bd 5d ee 0b bd
       -0.0040352023 0.0139474375 -0.05751994 -0.034162868
000270 b5 31 e7 3b 64 07 66 bd 28 d9 4a 3c 5e 68 42 bc
       0.007055486 -0.056159392 0.012380876 -0.011865703
000280 c1 11 a9 3c 4d c9 02 3d cc 01 bb bc d8 27 20 bc
       0.020638349 0.031930257 -0.022828005 -0.0097751245
000290 15 91 35 bd 37 91 f2 bc b3 f2 6d bd 5b a4 44 bd
       -0.044327814 -0.02961026 -0.058092784 -0.048008304
0002a0 94 62 11 bd 77 6f 71 bd 04 ec c8 bc 07 ce 5a bd
       -0.035494402 -0.05894419 -0.024526604 -0.05341914
0002b0 d5 a0 bd 3c a0 43 ee bb ae d7 47 3d e0 be 21 bb
       0.02314798 -0.007271245 0.048789673 -0.002468042
0002c0 6f 4a 7a bd 47 9e 34 bd c5 61 ae 3b cb 03 b5 bc
       -0.06110614 -0.044096258 0.0053217136 -0.022096535
0002d0 41 70 85 3c 52 b8 7e 3c 27 43 35 3d bb 08 c1 bb
       0.016288878 0.015546875 0.044253495 -0.0058909333
0002e0 a6 3f 43 3d d9 6e 37 bd 8f b5 1c bd bf 14 81 bc
       0.04766812 -0.044783447 -0.038259085 -0.015756963
0002f0 aa 81 78 bd aa 68 66 3c f3 2f 37 3d c1 12 c4 3c
       -0.060670532 0.01406304 0.044723462 0.023934724
000300 2e e3 5c bc 7c 45 5f bd 21 d5 5d 3d a7 de 64 bd
       -0.013481898 -0.054509625 0.054158334 -0.0558764
000310 23 53 14 bd 9c 85 61 bd 06 7d 52 bd 5d 2d 4d 3d
       -0.036212098 -0.05505906 -0.051388763 0.05009209
000320 30 7c 8d 3c 7b 9d ba bc 83 a0 77 bd f5 eb 05 bc
       0.017271131 -0.02278017 -0.06045581 -0.008173932
000330 14 a0 9e 3a 1f 9f ff bc eb 04 c8 bc 54 d3 cc 3b
       0.001210215 -0.031203805 -0.024416408 0.006250778
000340 1a ca 7a 3d a1 78 81 3c fc 9b dc bc 76 3e 5b bc
       0.061227895 0.01580459 -0.026929848 -0.013381591
000350 af 4c cb bc 9c 0e 53 bd bf 16 a8 bc 36 f0 4e bb
       -0.024816839 -0.051527604 -0.020518659 -0.0031576282
000360 58 9a fb bc 21 8f 3d 3d 3f 27 11 3d 62 82 63 3c
       -0.030713245 0.046279076 0.03543782 0.013886066
000370 8e 9d 43 3d b8 34 86 bc a3 67 b5 bc e3 77 f8 bc
       0.047757678 -0.01638256 -0.022144144 -0.030330604
000380 a6 a0 5c bd f3 f9 31 bd 3e e0 04 3d 3c 04 01 bd
       -0.053864144 -0.04345126 0.032440417 -0.03149818
000390 b1 fc 2e 3d e9 c2 fa 3c d5 a3 93 3c a9 20 93 3c
       0.042721454 0.030610519 0.018022457 0.01795991
0003a0 69 93 0a 3d 5b d3 ec bb f1 79 85 3c 09 1f 7b 3d
       0.033831988 -0.007227344 0.016293498 0.061308894
0003b0 43 e6 da bc 5b 10 f1 bc b1 c6 50 3d 41 65 fc 3b
       -0.026721125 -0.029426744 0.050970737 0.0077025
0003c0 1d de 3e bd e0 af 9d bb 02 97 04 3d 6a 27 42 3c
       -0.046598542 -0.0048122257 0.032370575 0.011850217
0003d0 26 e7 08 3d 5e c1 45 3d 9c 83 33 bd 70 9e d1 3c
       0.033423565 0.048280112 -0.043826684 0.025588244
0003e0 7a 47 40 bd a1 10 0f bd 1a 43 07 3c 36 38 22 bb
       -0.046943165 -0.034927968 0.008255744 -0.0024752743
0003f0 c3 35 25 3d 8b 00 35 3d 57 15 86 bc 78 fc 06 3c
       0.040334474 0.04418997 -0.016367598 0.008238904

log_std_layer.bias f4 [2]
000000 6c a3 e6 ba 8b ed ed bb
       -0.0017596311 -0.0072609833
