paper_reproductions/adaptive_quantum_cvrp/models/test_sac_agent_critic.pth (torch, 551739 bytes, 10 tensors)

fc1_q1.weight f4 [256, 8]
0	0xbe70ed53	-0.23528032
1	0x3e80cfa1	0.25158408
2	0xbd8acc0c	-0.067772
3	0xbe921b53	-0.28536472
4	0x3e9f354f	0.3109536
5	0x3d770cd3	0.060314965
6	0x3e03d77d	0.12875171
7	0xbeaa9ef2	-0.3332439
8	0xbd33d419	-0.043903444
9	0x3e38ffde	0.18066356
10	0xbe7a160b	-0.24422471
11	0xbe9fc770	-0.31206846
12	0x3dbb7997	0.09154051
13	0xbe9cb8bc	-0.3060969
14	0xbe5c9d0f	-0.21544288
15	0xbe86bb37	-0.2631471
16	0xbe63c992	-0.22244862
17	0xbdd685d3	-0.10474744
18	0xbe97e4c6	-0.29666728
19	0xbe4b1214	-0.19831115
20	0x3dc4cd2e	0.096094474
21	0xbe3efa25	-0.1865011
22	0xbe617454	-0.22017032
23	0x3e98cf65	0.2984573
24	0xbe0b0673	-0.13576679
25	0xbdbbac9d	-0.09163783
26	0x3e8758a2	0.2643481
27	0x3e9fb229	0.31190613
28	0xbe24b20f	-0.16083549
29	0x3e534d02	0.20634845
30	0xbce13dd2	-0.027495299
31	0x3e91df24	0.28490555
32	0x3e538045	0.206544
33	0xbe694b4c	-0.2278263
34	0x3e96e51f	0.2947168
35	0xbe81387a	-0.252384
36	0xbeb4caf2	-0.35311085
37	0x3eb32bbd	0.34994307
38	0xbd816b2e	-0.06319271
39	0xbe85e562	-0.26151568
40	0x3ea0bbe7	0.31393358
41	0x3e644edc	0.22295707
42	0xbdecc43d	-0.11560867
43	0xbe6ecb83	-0.23319821
44	0xbea82ea7	-0.32848093
45	0x3c984711	0.018588575
46	0x3e7ee8ba	0.24893466
47	0x3df611ef	0.12015139
48	0xbdff567f	-0.1246767
49	0x3e9a2c22	0.30111796
50	0x3e26680b	0.16250627
51	0x3c51d551	0.012807206
52	0xbe4226b9	-0.18960084
53	0x3cc205d6	0.023684423
54	0x3ea97dff	0.3310394
55	0xbe481a13	-0.19541197
56	0x3ea5cf61	0.3238478
57	0xbe12bfb6	-0.14330944
58	0x3dac2ae5	0.08406619
59	0xbe8f8a28	-0.28035092
60	0xbdba2e44	-0.09090856
61	0xbeadef71	-0.33971742
62	0x3d46a76e	0.048499517
63	0x3e7c3947	0.24631225
64	0x3ea6fc39	0.32614306
65	0xbe8b278c	-0.2717861
66	0x3e4c4bac	0.19950742
67	0x3e8f6255	0.2800471
68	0x3d879269	0.066197224
69	0xbdc7b9b3	-0.09752216
70	0x3e322252	0.17395905
71	0xbcaba43d	-0.020952338
72	0x3e7c01cb	0.24610059
73	0xbeb31185	-0.34974304
74	0x3e0b9c23	0.1363378
75	0xbe2be399	-0.1678604
76	0x3e21d506	0.15803918
77	0x3e18d561	0.14925148
78	0x3e0fdcff	0.14049147
79	0xbe8a8f2e	-0.27062362
80	0xbd96a321	-0.07355333
81	0xbded5002	-0.11587526
82	0x3c757648	0.014981814
83	0x3d2defc0	0.04246497
84	0xbe3f3186	-0.18671235
85	0xbd884ba2	-0.06655051
86	0xbe0ad141	-0.13556387
87	0xbe6c9053	-0.2310193
88	0x3e4aabba	0.19792071
89	0xbe05aaf9	-0.13053502
90	0x3c314db5	0.010821749
91	0xbe5e38d4	-0.21701366
92	0x3d0adcdd	0.033902038
93	0x3e82a055	0.2551295
94	0xbe92ddee	-0.28684944
95	0x3d6615a4	0.05617298
96	0x3e13b229	0.14423431
97	0x3e770d1f	0.24126099
98	0xbeaea562	-0.34110552
99	0x3d19795e	0.03746926
100	0xbe99180d	-0.29901162
101	0xbe1bf8fb	-0.15231697
102	0x3e6a2a50	0.22867703
103	0xbe78a525	-0.24281748
104	0x3e22d90d	0.15903111
105	0xbbf172a9	-0.007368405
106	0xbd95d141	-0.07315303
107	0xbe193936	-0.1496323
108	0xbe9aefc7	-0.3026106
109	0x3d6e8284	0.05822994
110	0x3ea83fea	0.32861263
111	0xbe9c0384	-0.30471432
112	0xbe5c2e60	-0.21502066
113	0x3e0a7885	0.13522537
114	0x3e39537e	0.18098256
115	0x3dd62767	0.10456734
116	0xbead5cf0	-0.33859968
117	0x3d08260b	0.033239406
118	0xbd7b722f	-0.06138819
119	0x3db0a123	0.086244844
120	0xbd0402d8	-0.032229275
121	0x3e13fddb	0.14452307
122	0xbd882e0c	-0.06649408
123	0x3e3f5f44	0.18688685
124	0x3e186400	0.14881897
125	0xbd3014e8	-0.042988688
126	0x3e9fff6c	0.3124956
127	0x3e8aee9b	0.27135167
128	0x3e502567	0.20326768
129	0xbdce0c55	-0.10060946
130	0x3de129a4	0.109942704
131	0x3de5a7a4	0.112136155
132	0xbe401cef	-0.18761037
133	0xbdb88157	-0.090090446
134	0xbe0c3189	-0.13690771
135	0xbe2243f6	-0.15846238
136	0xbdf5f563	-0.120096944
137	0xbd4a6ef9	-0.049422238
138	0x3eafaac5	0.34309974
139	0x3e8007d8	0.25005984
140	0x3e669382	0.22517207
141	0xbea4ccf0	-0.32187605
142	0xbea0f154	-0.3143412
143	0x3e594828	0.21218932
144	0xbdae7c7c	-0.08519837
145	0x3e754a0b	0.23954026
146	0xbe08341f	-0.13301133
147	0x3d8181b2	0.063235655
148	0x3e89f860	0.26947308
149	0x3e03b2b5	0.1286114
150	0x3e9f9500	0.31168365
151	0x3d4214b9	0.047383044
152	0x3e9e6705	0.30937973
153	0x3d864339	0.065557905
154	0xbe8f1e39	-0.27952746
155	0x3e884039	0.26611498
156	0x3e4b8f05	0.19878776
157	0x3e372d7d	0.17888446
158	0xbc43163e	-0.011907158
159	0xbd271ef7	-0.040801015
160	0x3e79d9c6	0.2439948
161	0x3e0ed0ec	0.13946885
162	0xbe269005	-0.16265877
163	0x3ddcd146	0.10782103
164	0xbe82f669	-0.2557862
165	0xbd360c0a	-0.044445075
166	0x3dfe20bd	0.12408588
167	0xbe8e540e	-0.27798504
168	0xbe2853cb	-0.16438214
169	0x3ce0e5de	0.02745336
170	0x3ea972d1	0.3309541
171	0x3deb0521	0.11475588
172	0xbe4755bd	-0.194663
173	0xbe339c59	-0.1754011
174	0x3d423c96	0.04742106
175	0x3ea788f1	0.32721666
176	0x3dbaea39	0.09126706
177	0x3e48af16	0.1959804
178	0xbcb5af30	-0.022178262
179	0x3e2b3b10	0.1672175
180	0xbcdb5f4f	-0.026778845
181	0x3e790fe0	0.24322462
182	0xbe33a8a7	-0.17544805
183	0x3d016087	0.031586196
184	0x3dcde028	0.1005252
185	0x3d325c94	0.04354532
186	0xbdea446c	-0.11438832
187	0x3d31e6a0	0.04343283
188	0x3de39ebf	0.11114263
189	0xbe4529a2	-0.19254163
190	0x3e4d542a	0.20051637
191	0xbdf3e4a0	-0.11908841
192	0xbeb27033	-0.34851226
193	0x3e66a201	0.22522737
194	0x3e224e5e	0.15850207
195	0xbe9f0ec0	-0.3106594
196	0xbde478ea	-0.11155875
197	0xbe73f553	-0.23824053
198	0x3dcde82e	0.100540504
199	0x3e7f7512	0.24947003
200	0xbdf0d5e0	-0.117595434
201	0xbe7d699c	-0.24747318
202	0x3ead0b54	0.33797705
203	0xbe00c105	-0.12573631
204	0xbe359dd7	-0.17735992
205	0xbc96cc23	-0.018407887
206	0x3e0e4ef6	0.13897309
207	0x3dd18306	0.10230069
208	0xbeb16010	-0.34643602
209	0x3d7396bb	0.05946992
210	0xbc9b35ed	-0.018946612
211	0xbdd8f726	-0.10594015
212	0xbd8738ec	-0.06602654
213	0xbe7bbd5b	-0.24583952
214	0xbdb68b73	-0.089133166
215	0x3e948c1d	0.29013148
216	0xbe6ad70e	-0.229336
217	0xbe634a3c	-0.22196287
218	0xbd99ced3	-0.07510152
219	0x3eb4da49	0.35322788
220	0xbc8f0e91	-0.017463
221	0xbe3da71c	-0.18520778
222	0x3de94713	0.113905095
223	0x3e2957c4	0.16537386
224	0x3ea19bcf	0.31564185
225	0xbd8b50b3	-0.068025015
226	0xbd60dcc4	-0.05489804
227	0x3dbdde46	0.09270911
228	0x3e0412bb	0.1289777
229	0xbe770ef7	-0.24126802
230	0xbe37823d	-0.17920776
231	0x3c921230	0.017830938
232	0xbe98fd0f	-0.29880568
233	0xbdb367ff	-0.0876007
234	0xbe2251a1	-0.15851451
235	0xbd257b2a	-0.04040066
236	0x3e62f21f	0.22162674
237	0x3e30282a	0.17202821
238	0x3e0b3dc5	0.13597782
239	0xbe5e9b8c	-0.21739024
240	0xbe8c4b32	-0.2740112
241	0xbe9e0301	-0.30861667
242	0xbe5a739b	-0.21333162
243	0x3dd55ea0	0.10418439
244	0x3cc2f5cd	0.023798848
245	0xbe75af75	-0.23992713
246	0x3e8a4fb1	0.27013925
247	0x3e25aa22	0.16178182
248	0xbddba241	-0.10724307
249	0xbd1135b5	-0.03545161
250	0x3d7fc37b	0.062442284
251	0xbe4717d6	-0.19442686
252	0x3e3a3ca9	0.18187203
253	0xbdee2c67	-0.11629563
254	0xbcb104b4	-0.021608688
255	0x3dd2d143	0.1029382

fc1_q1.bias f4 [256]
0	0xbd738190	-0.059449732
1	0xbe81ca75	-0.25349775
2	0x3da2daa3	0.07951858
3	0x3e5afc44	0.21385294
4	0xbe9673f2	-0.29385334
5	0xbb160fad	-0.0022897527
6	0xbeac8518	-0.33695292
7	0xbe4cbbcb	-0.19993512
8	0xbde201a5	-0.1103547
9	0xbea1b63f	-0.31584355
10	0xbe878990	-0.2647214
11	0xbce69d96	-0.028151315
12	0x3e82b8b4	0.25531542
13	0x3ce0f78e	0.027461793
14	0x3d130d4e	0.03590136
15	0xbc580a5d	-0.013186065
16	0xbe2e7d78	-0.1704005
17	0x3e80285e	0.25030798
18	0xbd350fde	-0.044204585
19	0x3e49b753	0.19698839
20	0x39d0ba6c	0.00039811747
21	0xbe861bff	-0.26193234
22	0x3e1774e0	0.14790678
23	0x3e32d029	0.1746222
24	0x3e3e4787	0.18581973
25	0x3deb391b	0.114855014
26	0x3db977b8	0.09056038
27	0xbe9f2414	-0.31082213
28	0x3df53950	0.11973822
29	0xbe93a416	-0.28836125
30	0x3e2936ad	0.16524763
31	0xbd6fb2a3	-0.05851997
32	0x3e0ff7fc	0.14059442
33	0xbe880a1e	-0.2657022
34	0xbc002bde	-0.007822959
35	0xbde8c564	-0.11365774
36	0x3e3cd538	0.18440711
37	0x3e464858	0.19363534
38	0xbe5a6d52	-0.21330765
39	0xbd127d8a	-0.035764255
40	0xbe24554f	-0.16048168
41	0xbc6dbc26	-0.01451019
42	0x3ea57bde	0.32321066
43	0x3e97ee09	0.29673794
44	0xbd19b667	-0.037527468
45	0xbea525bf	-0.3225536
46	0xbea1a670	-0.31572294
47	0x3e2575dc	0.16158241
48	0xbcab180c	-0.02088549
49	0x3ea1b83f	0.3158588
50	0xbe23be4c	-0.15990561
51	0x3e002460	0.12513876
52	0x3d5feebd	0.054671038
53	0xbd8850a0	-0.06656003
54	0xbd9b2af6	-0.075765535
55	0xbe10654f	-0.14101146
56	0x3e8a2fc2	0.2698956
57	0x3c9516e3	0.01819939
58	0xbe062e52	-0.13103607
59	0x3e0a3f7d	0.13500781
60	0xbe6b9364	-0.23005444
61	0x3e0dadd9	0.13835849
62	0xbe13b790	-0.14425492
63	0xbe4da482	-0.20082286
64	0x3d78572d	0.060630012
65	0xbdf2378b	-0.11827
66	0xbd9b699b	-0.07588502
67	0xbdaf3592	-0.085551396
68	0x3d1b7dc8	0.03796175
69	0x3c3082c4	0.010773364
70	0xbe8e13f4	-0.27749598
71	0x3e609902	0.21933368
72	0xbe3d750f	-0.18501686
73	0x3d734bff	0.059398647
74	0x3d71f360	0.05906999
75	0xbeabe9e5	-0.33576885
76	0xbce070d9	-0.02739756
77	0x3e6e6956	0.2328237
78	0x3e9a3bb5	0.30123678
79	0x3e8338d6	0.256293
80	0x3e876f9a	0.26452333
81	0xbe03e9d7	-0.12882172
82	0x3e8ac7a7	0.27105448
83	0xbded8cc6	-0.11599116
84	0x3caca52f	0.02107486
85	0x3ea453c6	0.32095164
86	0xbe8cd1dc	-0.2750386
87	0x3b0bff95	0.0021362056
88	0x3e717de4	0.2358318
89	0xbe4b2fef	-0.19842504
90	0xbea9cf4b	-0.33165964
91	0x3d9decb8	0.07711166
92	0xbe8bfcde	-0.2734136
93	0x3e1dcf2d	0.15411063
94	0xbe0a9b92	-0.13535908
95	0xbea974e1	-0.33096984
96	0xbea5356e	-0.32267326
97	0xbd158e1e	-0.036512487
98	0xbeb38695	-0.35063615
99	0x3da2a04d	0.07940731
100	0x3deed2a9	0.11661274
101	0xbe8b2818	-0.27179027
102	0xbe0fe06e	-0.14050457
103	0xbe974f45	-0.29552665
104	0xbd4b9866	-0.049705885
105	0xbe62c7a7	-0.22146474
106	0x3eb25eb2	0.34837872
107	0xbdf91a51	-0.121632226
108	0xbc3b0140	-0.011413872
109	0xbe849957	-0.2589824
110	0x3e8f9f62	0.28051287
111	0xbe7cbd7f	-0.24681662
112	0xbe1ca039	-0.15295495
113	0xbd6920f6	-0.0569162
114	0xbd9ceb71	-0.076620944
115	0x3e74eee4	0.23919255
116	0x3e92c862	0.28668505
117	0xbe271872	-0.16317919
118	0xbda2c22e	-0.07947193
119	0x3e3c2f07	0.18377315
120	0x3dbfd277	0.09366315
121	0x3e9418b7	0.28925106
122	0xbe8472c7	-0.25868818
123	0x3e04abbe	0.1295614
124	0x3e86a90b	0.26300845
125	0x3d29b56f	0.041432794
126	0x3e961b8e	0.29317898
127	0x3ea159bf	0.31513783
128	0x3dab60b4	0.08368054
129	0xbe0598a8	-0.13046515
130	0xbe182eff	-0.14861678
131	0xbd3592ae	-0.044329338
132	0x3e87fc22	0.2655955
133	0x3e04243b	0.12904446
134	0xbdb91e6d	-0.090390064
135	0xbc9c7ff7	-0.019103987
136	0xbc71d448	-0.014760084
137	0xbd1465b6	-0.03622981
138	0xbe089caf	-0.1334102
139	0xbd33a76b	-0.043860834
140	0xbcdcc765	-0.026950547
141	0xbe906392	-0.28200966
142	0x3ddb317f	0.107028
143	0xbe718fa0	-0.23589945
144	0xbe686a62	-0.22696832
145	0x3e54ec24	0.20793205
146	0xbe4e9e07	-0.2017747
147	0x3ea0f5bb	0.31437477
148	0x3d6f9a8d	0.058497
149	0x3e59c04c	0.21264762
150	0x3e812c6d	0.25229207
151	0x3e72c5d9	0.23708285
152	0xbe872671	-0.26396516
153	0x3e8a57f2	0.27020222
154	0x3d0bac5c	0.03409992
155	0xbe4af591	-0.19820239
156	0x3eaebaaa	0.34126788
157	0x3cc0296c	0.023457251
158	0x3dffe7e5	0.12495402
159	0xbd0a08ff	-0.033699986
160	0x3e8ce983	0.27521905
161	0x3deaf801	0.11473084
162	0x3e26bc53	0.16282777
163	0x3e9a3e57	0.30125687
164	0x3e5c541c	0.2151646
165	0x3e99af46	0.30016536
166	0xbeabe2c8	-0.33571458
167	0xbe57aa61	-0.21061088
168	0x3ea354dd	0.31900683
169	0xbea253f1	-0.31704667
170	0xbe6d41b0	-0.23169589
171	0xbe59da2d	-0.21274634
172	0x3e74d9f4	0.23911268
173	0xbded2557	-0.11579388
174	0x3ea10fe5	0.3145744
175	0xbdbcf2c3	-0.092259906
176	0x3e1dcbb2	0.15409735
177	0xbe835d02	-0.25656897
178	0x3ea31d0d	0.318581
179	0x3da1e168	0.07904321
180	0xbde43025	-0.11141995
181	0x3bc3c431	0.0059743156
182	0xbd35704c	-0.044296548
183	0xbe605f17	-0.21911274
184	0xbe12b5e0	-0.14327192
185	0x3e08f29c	0.13373798
186	0x3da9d804	0.08293155
187	0xbe96fb87	-0.29488775
188	0x3e016b9f	0.1263871
189	0xbde98515	-0.114023365
190	0xbd00cc63	-0.03144492
191	0x3dc0beff	0.094114296
192	0x3e9d0880	0.30670547
193	0xbd334efc	-0.043776497
194	0x3e9d1806	0.3068239
195	0xbd6db821	-0.058036927
196	0xbeb13ff4	-0.34619105
197	0xbe53554d	-0.20638008
198	0x3e2c9a10	0.16855645
199	0x3de393ca	0.11112173
200	0x3e92f3f3	0.28701743
201	0xbe95c95c	-0.29255188
202	0xbeaca1a2	-0.33717066
203	0xbe752f4e	-0.23943827
204	0x3e98aded	0.29820195
205	0xbdb0bfc3	-0.08630326
206	0xbe7592bb	-0.23981754
207	0xbe7a25ca	-0.24428478
208	0x3e6f9cb2	0.23399618
209	0x3df7c1c7	0.12097507
210	0x3e51bb6c	0.20481652
211	0x3de44ba3	0.11147239
212	0xbe59450a	-0.21217743
213	0x3dfc5f87	0.12322908
214	0xbe32debe	-0.17467782
215	0xbdfb7427	-0.12278014
216	0xbe2cf1ca	-0.1688911
217	0xbe18a83f	-0.14907931
218	0x3e654571	0.22389771
219	0x3e2e69a3	0.17032485
220	0x3e2cbd79	0.16869153
221	0x3d1361ef	0.03598207
222	0x3e8db061	0.2767363
223	0x3d844b75	0.06459705
224	0xbe7f2ca2	-0.2491937
225	0xbe5ded1d	-0.21672483
226	0xbde23bd3	-0.11046567
227	0xbe4099d1	-0.18808676
228	0x3e902626	0.28154105
229	0xbea0fa56	-0.3144099
230	0x3e0f231f	0.13978241
231	0xbe770e4b	-0.24126546
232	0x3e7f9c03	0.24961857
233	0xbe3bfdeb	-0.18358581
234	0x3e2bb8d7	0.1676973
235	0xbe5a6d8a	-0.21330848
236	0x3dd911e9	0.10599119
237	0x3ddaabd5	0.106773056
238	0x3c6314ab	0.013859908
239	0xbe4fe20d	-0.20301075
240	0x3924e372	0.00015724989
241	0x3e4fc273	0.2028902
242	0xbd48168d	-0.04884963
243	0xbe2eec6e	-0.17082378
244	0x3e5a0064	0.21289212
245	0x3cd974a8	0.026544884
246	0xbe9a5268	-0.30140996
247	0x3e59f5bb	0.21285145
248	0x3e3c9a66	0.18418273
249	0xbd976e7d	-0.07394121
250	0xbdfa93bb	-0.122352086
251	0x3e1b4840	0.1516428
252	0x3e9c13b0	0.3048377
253	0x3ea02720	0.3127985
254	0x3e2e76aa	0.17037454
255	0x3e732871	0.23745896

fc2_q1.weight f4 [256, 256]
0	0x3d66b137	0.05632135
1	0xbd432278	-0.047640294
2	0x3d16fb9d	0.03686105
3	0x3d040517	0.032231417
4	0x3c9c2ad0	0.019063383
5	0x3d7c9929	0.061669502
6	0x3d0463f5	0.03232189
7	0x3cf3f201	0.029778482
8	0xbc9049bd	-0.017613286
9	0x3d6318d7	0.05544361
10	0x3cbddeb4	0.023177482
11	0x3ca564b8	0.020189628
12	0x3c243695	0.010022779
13	0x3cb4488f	0.022007255
14	0xbbd7e25b	-0.006588263
15	0x3c14a2fa	0.00907206
16	0xbcfc1ce4	-0.030775495
17	0x3c840414	0.016115226
18	0xbd638487	-0.05554631
19	0x3caa9d04	0.020826824
20	0xbd36a52d	-0.044591118
21	0xbd64d539	-0.055867407
22	0xb9e06600	-0.00042800605
23	0x3cd4432f	0.025910942
24	0xbb7ccf96	-0.003857588
25	0x3d285e61	0.04110563
26	0xbcd1df97	-0.025619311
27	0xbcbd255b	-0.023089102
28	0xbc44fb98	-0.012022875
29	0x3c99124b	0.01868548
30	0xbd4e291d	-0.050332177
31	0x3ca85695	0.020549098
32	0xbc605dcd	-0.013694239
33	0xbd3e83c2	-0.046512373
34	0xbcb749b1	-0.022374006
35	0xbd64c49b	-0.05585156
36	0xbc7d87b8	-0.015474252
37	0x3d22b2d0	0.03972131
38	0x3d40b7cc	0.047050282
39	0xbd4d16e5	-0.050070662
40	0x3d35af6b	0.044356745
41	0x3d64f5ca	0.055898465
42	0xbd5edd03	-0.054409992
43	0x3c591cd3	0.013251501
44	0xbd51dc27	-0.051235344
45	0xbab7fb54	-0.0014036694
46	0x3d66f13f	0.056382414
47	0xbcb28f00	-0.021796703
48	0xbab63494	-0.0013901168
49	0x3d5367c2	0.051612623
50	0x3d2fede7	0.04295149
51	0xbcc734b3	-0.024317121
52	0xbc37b998	-0.011213683
53	0xbcdec6eb	-0.02719446
54	0x3d0a26c6	0.033728383
55	0xbd06c722	-0.03290475
56	0xbd332805	-0.043739337
57	0x3d2fd443	0.042927038
58	0x3d283b0b	0.041071933
59	0x3c8d2574	0.017229773
60	0xbce6a50b	-0.02815487
61	0xbd11a57b	-0.035558205
62	0xbcefd9c3	-0.029278642
63	0x3d2f8e7e	0.0428605
64	0xbd3d6dfd	-0.04624747
65	0xbcc3c14b	-0.02389588
66	0xbd2dcc79	-0.04243133
67	0xbd4d494a	-0.050118722
68	0xbd1bddee	-0.038053446
69	0xbd3d2547	-0.04617813
70	0xbd3021d8	-0.043001026
71	0xbc5c2dc8	-0.0134386495
72	0x3ca3531f	0.019937096
73	0x3d450d66	0.04810848
74	0xbd3511c9	-0.044206414
75	0xbcf350d4	-0.029701628
76	0x3a7330d7	0.0009276992
77	0xbc8d282f	-0.017231075
78	0xbd340a4a	-0.043955125
79	0x3cbaca20	0.022801459
80	0xbccb3ca7	-0.024809195
81	0xbd1c89b9	-0.03821728
82	0x3d2b0176	0.04174944
83	0x3b9e23c0	0.004826039
84	0xbc4a5935	-0.01235037
85	0x3cfafeeb	0.030639132
86	0xbd678f42	-0.056533106
87	0xbd44b1cc	-0.048021123
88	0x3d5a6f56	0.053328834
89	0x3d10e632	0.03537578
90	0xbd710ab8	-0.058848113
91	0x3cebad1b	0.028769067
92	0x3d46a9ad	0.04850166
93	0xbd2e9a7e	-0.042627804
94	0x3cd40abd	0.025884027
95	0xbaf9fdac	-0.0019072792
96	0x3d272dd1	0.04081518
97	0xbc534e62	-0.012897106
98	0xbd7b5877	-0.061363664
99	0xbd7b8841	-0.06140924
100	0x3cf47acc	0.02984371
101	0xbd1f16e3	-0.038840186
102	0x3c1c274d	0.009530854
103	0xbd6b4432	-0.057438083
104	0xbd576d54	-0.052594498
105	0x3d6beb80	0.057597637
106	0x3d16d643	0.03682543
107	0x3d188881	0.037239555
108	0x3cc6e67c	0.024279825
109	0xbd143ff4	-0.036193803
110	0x3d05785f	0.032585498
111	0x3c985c2d	0.01859864
112	0x3cab5048	0.020912305
113	0x3c7f8a68	0.015596963
114	0xba8cf1ec	-0.0010753251
115	0x3d4399dd	0.047754157
116	0xbcbacc33	-0.022802448
117	0x3d685243	0.056719076
118	0xbd1cc0e1	-0.03826988
119	0xbd379b91	-0.044826094
120	0xbc1d0275	-0.009583105
121	0xbaf78294	-0.001888352
122	0x3d344b65	0.044017214
123	0xbd7c17a3	-0.06154598
124	0xbce0dff7	-0.027450545
125	0x3b9f3ac0	0.0048592985
126	0xbd121b31	-0.035670463
127	0x3cbde928	0.023182467
128	0xbd581dab	-0.05276267
129	0xbd5e8d8a	-0.0543342
130	0x3d5dd769	0.05416051
131	0x3c09f64b	0.008420537
132	0x3d77d065	0.060501475
133	0xbd294e19	-0.041334245
134	0xbcb01065	-0.021492193
135	0xbd700ef3	-0.058608007
136	0xbcada455	-0.021196524
137	0xbd7ae674	-0.061254933
138	0x3d6f1bbe	0.058376066
139	0x3d6ee1af	0.058320697
140	0xbad67094	-0.0016360455
141	0xbd3c2b0d	-0.045939494
142	0x3d1e8a3d	0.038706053
143	0x3ce492cb	0.027902028
144	0x3b9a4d10	0.0047088936
145	0xbd67a053	-0.05654938
146	0xbd77f8fa	-0.060540177
147	0xbce305ac	-0.027712665
148	0x3c29352b	0.010327618
149	0xbd1e61bd	-0.03866743
150	0xbcccb604	-0.024989136
151	0xbd69666e	-0.05698245
152	0xbca3b6e7	-0.019984676
153	0x3d60aee7	0.0548543
154	0x3ce1e2df	0.027574
155	0xbd4b4e68	-0.04963532
156	0xbd4b6613	-0.049657892
157	0x3d70ce03	0.058790218
158	0xbc5e2f0a	-0.01356102
159	0xbc99f175	-0.018791893
160	0xbca498e0	-0.020092428
161	0x3ceaa150	0.028641373
162	0x3cf46e19	0.029837655
163	0xbce116a1	-0.02747661
164	0xbd4d77c3	-0.05016304
165	0xbd1a3913	-0.037652086
166	0x3d241517	0.040059175
167	0x3d53c606	0.05170252
168	0x3cacabfb	0.0210781
169	0xbcd330cf	-0.02578011
170	0xbd5b1217	-0.05348405
171	0xbcb141c3	-0.021637803
172	0x3c8465e0	0.016161859
173	0x3d486435	0.04892369
174	0xbc8c896b	-0.01715537
175	0x3c9dbecf	0.019256024
176	0x3c9ab883	0.01888681
177	0x3ca60444	0.020265706
178	0x3d173e9d	0.036924947
179	0x3d7af0ad	0.061264683
180	0x3cb4d9f4	0.022076584
181	0x3ccd2548	0.025042191
182	0x3d59ab73	0.053142022
183	0x3c041ffd	0.008064267
184	0xbd672333	-0.056430053
185	0x3c2b08e3	0.0104391305
186	0xbd671521	-0.056416634
187	0x3d577917	0.052605715
188	0xbc95b709	-0.018275755
189	0x3ccea60d	0.025225664
190	0x3d0c4f6f	0.03425544
191	0x3d62866d	0.05530398
192	0xbcd2234b	-0.025651595
193	0x3d25ce2d	0.040479828
194	0x3c5271b3	0.012844491
195	0x3d25a8d0	0.040444195
196	0x3d796339	0.06088564
197	0x3d186880	0.037209034
198	0xbd53b947	-0.051690366
199	0xbce6fa25	-0.02819545
200	0xbd455e8d	-0.048185874
201	0x3c19426d	0.009354216
202	0xbd3afc52	-0.045650788
203	0x3b3fddc0	0.002927646
204	0x3d3182a3	0.043337476
205	0x3d2625a8	0.040563256
206	0xbd3cc2a4	-0.04608406
207	0x3d2fe203	0.04294015
208	0x3cb9dcd0	0.0226883
209	0xbd79101d	-0.060806382
210	0x3ca1db38	0.019757852
211	0xbcc88473	-0.02447722
212	0xbc1b2096	-0.009468218
213	0x3cbbfc48	0.022947446
214	0xbd182d29	-0.037152443
215	0xbc5c1ad2	-0.013434129
216	0x3d2f58d4	0.042809322
217	0x3d26f2c7	0.040758874
218	0x3d607a3b	0.054804068
219	0x3d3d678b	0.046241324
220	0x3d5ef5b0	0.054433525
221	0xbb919080	-0.0044422746
222	0xbd3164ac	-0.0433089
223	0xbc5a2e23	-0.013316664
224	0xbd27699a	-0.040872194
225	0x3d44b61e	0.048025243
226	0x3cb8ed2b	0.022574028
227	0x3cbd4f5c	0.02310913
228	0x3ca61251	0.020272406
229	0x3b657780	0.0035013855
230	0xbc5cb156	-0.013470015
231	0xbc3e79fd	-0.011625764
232	0x3cdc8139	0.026917087
233	0x3d010f19	0.03150854
234	0xbca34213	-0.019928968
235	0xbc469200	-0.01211977
236	0x3d3423e9	0.04397956
237	0xbca80db4	-0.020514347
238	0x3d64cfdd	0.055862296
239	0x3d680e15	0.056654055
240	0xbc1ea020	-0.009681731
241	0xbc1ef4a3	-0.009701881
242	0x3d7e489b	0.06208096
243	0xbd3849b8	-0.04499218
244	0x3d434bf7	0.047679868
245	0x3c99ec57	0.018789453
246	0x3ca95b30	0.020673364
247	0xbd3c4693	-0.045965742
248	0xbd2add94	-0.04171522
249	0x3c55b400	0.013043404
250	0x3ce1e988	0.027577177
251	0xbd35ba88	-0.044367343
252	0x3d2baf95	0.041915495
253	0x3d1a7549	0.037709508
254	0x3d1ac608	0.037786514
255	0x3cbaac11	0.022787126

fc2_q1.bias f4 [256]
0	0x39adfb4e	0.00033184368
1	0x3d51a461	0.051182155
2	0x3d4c67c3	0.049903642
3	0x3bb7a06b	0.00560384
4	0x3b1866d6	0.0023254654
5	0xbb9dead0	-0.0048192516
6	0xbd1feb11	-0.039042536
7	0x3d7ae0c9	0.061249528
8	0xbd629eb5	-0.055327136
9	0x3b441ab6	0.0029923148
10	0x3cf20290	0.029542238
11	0x3d6be71b	0.057593446
12	0x3c436a9e	0.011927275
13	0xbd744a17	-0.05964097
14	0x3d2b63b0	0.041843116
15	0x3d51163e	0.051046602
16	0x3d090743	0.03345419
17	0xbd52171a	-0.051291563
18	0x3b8c0189	0.004272644
19	0xbca60fc8	-0.020271197
20	0x3d63fd72	0.055661626
21	0xbd195bd9	-0.03744111
22	0x3c862e9c	0.016379647
23	0x3c10e6a3	0.008844051
24	0xbd2551f3	-0.040361356
25	0x3cf58c21	0.029974045
26	0xbb0b35e9	-0.002124185
27	0xbd178ad8	-0.036997646
28	0xbc646c7e	-0.013941882
29	0xbb5fb97e	-0.0034137662
30	0xbd0cc90b	-0.034371417
31	0xbd2e1bb6	-0.042506896
32	0xbcf52f23	-0.029929703
33	0x3d23bcaa	0.039974846
34	0xbd62335b	-0.055224758
35	0xbd6223c9	-0.05520991
36	0x3cdcbb89	0.026944892
37	0xbd694863	-0.0569538
38	0x3c62ccb8	0.013842754
39	0xbc1f76ea	-0.009732941
40	0xbd64a9db	-0.05582605
41	0xbb3e2a60	-0.0029016957
42	0xbd4f5d3a	-0.050626017
43	0x3bfb9b10	0.007678397
44	0xbccab57b	-0.02474474
45	0x3d0036c8	0.031302243
46	0x3cad3454	0.021143116
47	0x3cf01c53	0.029310381
48	0x3d55c707	0.05219176
49	0xbd30ba0f	-0.04314619
50	0x3d55bfcb	0.05218486
51	0xbd624086	-0.055237316
52	0xbd7d7acb	-0.061884683
53	0x3c61ed4d	0.013789487
54	0xbcb73e54	-0.022368588
55	0x3cb166ad	0.021655405
56	0x3c9e09a3	0.019291705
57	0xbd6c1413	-0.05763633
58	0x3d7352a1	0.059404973
59	0xbc99996d	-0.018749917
60	0x3d11d4bc	0.03560327
61	0xbd67fc8b	-0.056637328
62	0x3cd1a6c9	0.025592225
63	0xbd1facd9	-0.0389832
64	0x3d204ed9	0.039137695
65	0x3c4396d8	0.011937819
66	0x3cfc5a08	0.030804649
67	0x3cc83511	0.024439367
68	0xbd4f8283	-0.050661575
69	0x3cceed34	0.025259592
70	0xbd07c573	-0.033147287
71	0xbd48995c	-0.04897438
72	0xbd1288ab	-0.035774868
73	0xbc5c7e76	-0.013457885
74	0x3d4a9bb8	0.04946491
75	0xbc739200	-0.014866352
76	0x3925bca0	0.00015805895
77	0x3d1fbb60	0.038997054
78	0xbc66522a	-0.014057675
79	0x3b832735	0.0040024766
80	0xbd65ac05	-0.056072254
81	0xbbe4eeeb	-0.006986489
82	0xbcc87073	-0.024467682
83	0x3d672c76	0.056438886
84	0xbd7e6577	-0.062108483
85	0xbc5ce4aa	-0.013482252
86	0xbb632300	-0.0034658313
87	0xbb9c3865	-0.004767465
88	0x3d2fe4e5	0.0429429
89	0xbcf5d7cf	-0.030010132
90	0xbd57c7c2	-0.05268074
91	0x3d4531a8	0.04814306
92	0xbc8a2add	-0.016866142
93	0x3d2d33ee	0.042285852
94	0xbc5293e0	-0.012852639
95	0xbc4649a8	-0.012102522
96	0xbc80536f	-0.015664784
97	0x3c4a5dad	0.012351436
98	0x3bedae14	0.0072534177
99	0x3d0659d0	0.032800496
100	0xbc6509a6	-0.013979351
101	0xbd1ee331	-0.038790885
102	0x3c602a68	0.013681985
103	0xbd59958d	-0.05312114
104	0xbd62a9a7	-0.055337574
105	0x3d24c430	0.04022616
106	0x3d0b39a5	0.03399052
107	0xbd38966c	-0.04506533
108	0x3ca01c0b	0.019544622
109	0xbd4f7fdf	-0.050659057
110	0x3cb74b15	0.02237467
111	0xbd5071a5	-0.05088963
112	0x3c3040bb	0.01075762
113	0xbceed1f7	-0.029152853
114	0xbd04deb8	-0.032438964
115	0xbc5ce350	-0.01348193
116	0x3d3220b3	0.043488216
117	0x3d2125f9	0.039342854
118	0xbcbad8c7	-0.022808446
119	0x3b73e86c	0.0037217392
120	0x3d186b42	0.037211664
121	0xbcce6c7c	-0.025198214
122	0xbcadc99b	-0.021214297
123	0xbd2b76f4	-0.04186149
124	0xbd60b3a3	-0.054858815
125	0xbca38d7f	-0.019964932
126	0xbd55088a	-0.052010097
127	0x3b4b43f6	0.003101585
128	0xbb9ae900	-0.004727483
129	0x3d0075a8	0.031362206
130	0x3a8cf16c	0.0010753102
131	0x3cb2675b	0.0217778
132	0x3caf2345	0.021379123
133	0x3d0f5fcc	0.03500347
134	0xbcbd6dff	-0.02312374
135	0xbbdc931b	-0.0067314035
136	0xbd2af50f	-0.041737612
137	0x3ae8c1ac	0.0017757914
138	0x3cdd429b	0.027009299
139	0x3d4b9224	0.049699917
140	0x3baf72c5	0.0053542578
141	0xbc518cdb	-0.01278993
142	0x3c534a2e	0.012896104
143	0x3c5f7a46	0.013639992
144	0xbd205618	-0.039144605
145	0x3d043045	0.032272596
146	0xbc7dc8e1	-0.015489788
147	0xbd2bafcd	-0.041915704
148	0x3d7a429b	0.061098676
149	0x3d5ce2c7	0.05392721
150	0xbc8230cb	-0.015892407
151	0xbd5d4a7b	-0.05402611
152	0x3bc392ab	0.005968412
153	0x3cc5ea40	0.02415955
154	0xbd1079a4	-0.035272256
155	0x3c4f1d68	0.012641288
156	0x3cd6c364	0.026216216
157	0xbd39c1b7	-0.045350756
158	0xbb339876	-0.0027404106
159	0xbd416405	-0.047214527
160	0xbd59a4d7	-0.05313572
161	0xbd62c793	-0.05536611
162	0xb9e732b0	-0.0004409752
163	0xbc1bde40	-0.009513438
164	0x3c8d91b4	0.01728139
165	0x3cff97f4	0.031200387
166	0x3bc6014b	0.0060426346
167	0x3cea653d	0.028612727
168	0xbc93dc0d	-0.018049264
169	0x3c398dad	0.011325282
170	0x3d41171a	0.047141172
171	0xbd5055f4	-0.05086322
172	0xbd695670	-0.0569672
173	0xbd32f11c	-0.04368697
174	0x3cbd45f5	0.023104647
175	0x3c63d458	0.013905607
176	0x3c492d7a	0.012278909
177	0xbcf6379c	-0.030055813
178	0xbc900191	-0.017578872
179	0x3d6bab37	0.05753633
180	0xbd200327	-0.039065506
181	0xbd2569b7	-0.04038402
182	0xbd4885f5	-0.048955876
183	0x3ba0c815	0.004906664
184	0xbd637032	-0.05552692
185	0x3d38812c	0.045045063
186	0x3c9d95ad	0.01923641
187	0x3d08a4cb	0.033360284
188	0x3cc92483	0.024553543
189	0x3d1a47f2	0.03766627
190	0xbd33cd7c	-0.043897137
191	0xbba8edd5	-0.005155305
192	0xbd4b2373	-0.049594354
193	0xbb327436	-0.0027229912
194	0x3cae4ecc	0.021277808
195	0x3c5e0e7b	0.013553257
196	0x3d7dde3c	0.061979517
197	0x3b3299a0	0.0027252212
198	0x3d49d591	0.04927594
199	0xbb3c3fca	-0.0028724545
200	0x3c189980	0.009313941
201	0xbd4df3b6	-0.05028125
202	0xbd318ab1	-0.043345157
203	0xbd49d2a5	-0.049273152
204	0xbd1b0cb8	-0.037853926
205	0x3c66539e	0.014058022
206	0xbbcc8a3c	-0.0062420648
207	0xbc9e629f	-0.019334136
208	0xbcd617c1	-0.026134374
209	0x3d2378fe	0.03991031
210	0xbc66a75a	-0.014077986
211	0x39cf8bb0	0.00039586192
212	0xbb7e7cca	-0.0038831704
213	0xbd2bf5dd	-0.04198252
214	0xbd287666	-0.04112854
215	0x3d54b883	0.051933777
216	0x3d339896	0.04384669
217	0x3d0df843	0.03466059
218	0x3d007961	0.031365756
219	0xbd20d2df	-0.039263602
220	0xbcd915dc	-0.026499681
221	0x3c97f527	0.018549515
222	0xbd22da8b	-0.0397592
223	0xbd198f83	-0.03749038
224	0x3d22ac0f	0.03971487
225	0xbd0a1978	-0.033715695
226	0xbd0065a5	-0.031346936
227	0x3d4e7748	0.050406724
228	0x3d65b5c1	0.056081537
229	0xbc9bc601	-0.019015314
230	0xbd3b6b7a	-0.045756795
231	0xbd44a965	-0.04801311
232	0x3cff4253	0.031159556
233	0x3ca229f0	0.019795388
234	0x38729800	5.7838857e-05
235	0xbd58ce84	-0.052931324
236	0xbc869a3f	-0.016430972
237	0xbd100140	-0.035157442
238	0x3c833f77	0.016021473
239	0xbd3664fd	-0.044529904
240	0xbc838aaf	-0.01605734
241	0x3d5bc228	0.05365196
242	0xbb102480	-0.0021994412
243	0x3d10909f	0.03529417
244	0xbd5ea167	-0.054353144
245	0x3d15eb07	0.036601093
246	0x3c0ea220	0.008705646
247	0xbd20b54d	-0.039235402
248	0x3d76f46c	0.060291693
249	0xbce1c9ad	-0.027561987
250	0x3d1c2b50	0.038127244
251	0x3ba2066c	0.004944613
252	0x3d78e0aa	0.06076113
253	0xbbb2e3e0	-0.0054592937
254	0xbc37caab	-0.011217753
255	0x3ca612cd	0.020272637

fc3_q1.weight f4 [1, 256]
0	0xbd0b13d7	-0.033954468
1	0xbd79782b	-0.060905617
2	0x3d14a931	0.036294166
3	0x3d25621b	0.040376764
4	0x3b1b9a36	0.002374304
5	0x3d6db9ea	0.05803863
6	0xbc445853	-0.011983949
7	0x3d0a1551	0.033711735
8	0x3d6bda6d	0.057581354
9	0x3d53d84b	0.051719945
10	0xbcbae220	-0.022812903
11	0x3cd1d371	0.025613518
12	0x3a32ee58	0.0006825677
13	0x3d5e77f9	0.054313634
14	0xb7dac510	-2.607939e-05
15	0xbd172c7c	-0.036907658
16	0xbc961131	-0.018318744
17	0xbd3f34a8	-0.046681076
18	0x3ca67f61	0.02032441
19	0x3d2ffac0	0.042963743
20	0x3d2e2dca	0.042524137
21	0x3d66f19b	0.056382757
22	0x3ceb1fec	0.028701745
23	0xbd1d66f9	-0.03842828
24	0x3d6db6e1	0.058035735
25	0xbd3f46cf	-0.046698388
26	0x3ab206d4	0.0013582357
27	0x3d1fe3aa	0.039035477
28	0x3d60097b	0.05469654
29	0xbb0dd976	-0.002164451
30	0xbd4dd867	-0.050255205
31	0xbc7f92b8	-0.015598945
32	0xbd0f1ba9	-0.03493849
33	0xbd3ef14e	-0.046616845
34	0x3bc64c2b	0.0060515604
35	0xbd3e6067	-0.046478655
36	0xbd3d03a7	-0.04614606
37	0xbb9a2d75	-0.004705126
38	0xbd06b5a4	-0.03288807
39	0x3cd4dec3	0.025985127
40	0xbcada2d9	-0.021195816
41	0x3cd8c134	0.026459314
42	0x3d685c1a	0.05672846
43	0x3ca22800	0.019794464
44	0xbc8ef627	-0.017451359
45	0xbd0afcb0	-0.033932388
46	0x3bb54335	0.0055316933
47	0x3d52d53d	0.05147289
48	0x3d6f029d	0.0583521
49	0x3d0ac1f7	0.033876386
50	0xbd41aff9	-0.04728696
51	0xbaded580	-0.0017000884
52	0xbcd0e3c9	-0.025499241
53	0x3d03ce6f	0.032179292
54	0x3cfd038c	0.03088548
55	0xbd137def	-0.03600877
56	0x3d5cc43b	0.053898077
57	0xbd427d5b	-0.04748283
58	0xbd626f73	-0.055282068
59	0x3d4b6791	0.049659315
60	0xbc4cde18	-0.012504123
61	0xbd7d0c3b	-0.061779242
62	0xbbdded05	-0.0067726397
63	0x3d6dc305	0.058047313
64	0x3d12e7f1	0.035865728
65	0xbd08e78c	-0.033423945
66	0xbd0fe912	-0.035134383
67	0xbd0a65ab	-0.033788364
68	0x3d52f671	0.051504556
69	0x3c668638	0.014070086
70	0xbd74cb3d	-0.059764136
71	0xbd1eb648	-0.038748056
72	0x3c9956ed	0.018718207
73	0x3c82b685	0.015956173
74	0x3d2c0030	0.041992366
75	0xb7a44000	-1.9580126e-05
76	0xbcb27365	-0.02178354
77	0x3cd89a30	0.02644071
78	0x3c8465e7	0.016161872
79	0x3ca1a319	0.019731091
80	0xbca5a425	-0.020219872
81	0xbd189315	-0.037249643
82	0xbcb50189	-0.022095459
83	0xbc3612d0	-0.011112884
84	0xbc7a2ea6	-0.015269911
85	0x3cb73d59	0.02236812
86	0xbcc87e78	-0.024474367
87	0x3d022501	0.03177357
88	0x3d485f1d	0.048918832
89	0xbd105447	-0.035236623
90	0x3d00c63c	0.03143905
91	0x3d6a5366	0.05720844
92	0x3d47affd	0.04875182
93	0xbd5b13ee	-0.053485803
94	0x3bb89600	0.005633116
95	0x3cf0a7d0	0.029376894
96	0x3bb325e5	0.005467164
97	0x3d0df307	0.034655597
98	0xba4579a8	-0.0007533082
99	0xbcf85c40	-0.030317426
100	0xba931094	-0.0011220151
101	0x3d0d8e4d	0.034559537
102	0xbc426550	-0.011864975
103	0x3c78db25	0.015188967
104	0x3b0d8916	0.0021596602
105	0xbb3170c0	-0.002707526
106	0x3cfb925b	0.030709436
107	0x39915000	0.0002771616
108	0x3d56ef49	0.052474294
109	0x3c7a920d	0.01529361
110	0xbbda9015	-0.006670008
111	0xbc9e014d	-0.01928773
112	0xbd7af8ab	-0.061272305
113	0xbd0080c7	-0.03137281
114	0x3d00aa3c	0.03141235
115	0x3d2c5532	0.042073436
116	0x3d4d65cb	0.050145905
117	0xbd2f56ff	-0.042807575
118	0x3d181aa5	0.037134785
119	0x3cecd728	0.028911188
120	0x3d7f7207	0.062364604
121	0x3cd5eb58	0.026113197
122	0xbb8208d5	-0.003968338
123	0xbbb36a9b	-0.005475355
124	0x3d1c0883	0.038094055
125	0xbd13015f	-0.03588998
126	0x3d385da8	0.045011193
127	0x3d1d5835	0.0384142
128	0xbd007a4e	-0.03136664
129	0x3d19d3d6	0.037555538
130	0x3b906c1b	0.0044074184
131	0xbd4d0ea1	-0.05006278
132	0xbc47b69a	-0.012189532
133	0xbb4ceff6	-0.0031270958
134	0xbd02e05d	-0.03195225
135	0xbd6e1929	-0.058129463
136	0xbd3be303	-0.045870792
137	0x3ca992db	0.020699909
138	0x3cc3fafb	0.023923388
139	0x3ccbb57c	0.024866812
140	0xbd3d0bcd	-0.046153832
141	0x3d5ea409	0.054355655
142	0x3c40da25	0.01177076
143	0xbce2e30f	-0.02769616
144	0xbcf1adf8	-0.0295019
145	0xbc9c6c21	-0.019094529
146	0xb8784288	-5.918977e-05
147	0x3ca19153	0.019722616
148	0xbcc65425	-0.024210045
149	0xbc10f36b	-0.008847098
150	0xbc834d35	-0.016028026
151	0x3d59db61	0.05318773
152	0x3d245ca7	0.040127423
153	0x3d6a7200	0.057237625
154	0xbca66b40	-0.020314813
155	0xbc213220	-0.009838611
156	0xbca5681c	-0.020191245
157	0x3d380ea3	0.044935834
158	0xbd1c0787	-0.038093116
159	0xbd2e5cff	-0.042569157
160	0xbd4b6ac9	-0.049662385
161	0xbd25f67b	-0.040518265
162	0xbd5fe50f	-0.054661807
163	0x3d2c5320	0.04207146
164	0x3d37f8aa	0.04491488
165	0xbd424510	-0.047429144
166	0x3cd8fb1f	0.026486931
167	0xbc2f774b	-0.010709594
168	0x3d4407d9	0.047859047
169	0x3d62beb9	0.05535767
170	0x3be178b0	0.006880842
171	0xbd4d92a8	-0.05018869
172	0xbd28bc08	-0.041194946
173	0x3cadbf2c	0.021209322
174	0xbd5a8893	-0.053352904
175	0x3cf84a54	0.03030888
176	0xbd353feb	-0.04425041
177	0xbc6d8780	-0.014497638
178	0x3c613883	0.013746384
179	0xbce51c51	-0.027967604
180	0x3ba7a77b	0.005116401
181	0xbd34ef0b	-0.04417328
182	0x3d56f2d3	0.05247767
183	0xbd2f681b	-0.042823892
184	0x3c691ed8	0.014228545
185	0xbd569be4	-0.052394763
186	0xbcc53c75	-0.02407668
187	0x3d133423	0.035938393
188	0x3c4c0e35	0.012454559
189	0x3d122c7a	0.035686947
190	0x3c8ce9c8	0.01720132
191	0x3d48a2d9	0.04898343
192	0x3c66735b	0.014065589
193	0xbd6ddd11	-0.058072153
194	0xbbf138c0	-0.0073615015
195	0xbd4c611b	-0.049897294
196	0xbbc4c440	-0.00600484
197	0xbbaf4670	-0.005348973
198	0xbcfc3145	-0.030785212
199	0x3d5e5069	0.054275904
200	0x3ccbd818	0.024883315
201	0xbd471ec4	-0.048613325
202	0xbb80b685	-0.003928008
203	0x3d746bcb	0.059673112
204	0xbd724d78	-0.05915591
205	0x3a3d3f58	0.0007219217
206	0x3d2e24d5	0.042515595
207	0xbd2aea69	-0.041727457
208	0x3d2a246f	0.041538652
209	0xbd47a284	-0.04873897
210	0x3c1e57ce	0.009664489
211	0x3ccb2abb	0.024800649
212	0x3d21a853	0.039467167
213	0x3d036d4b	0.03208665
214	0xbbf73ab0	-0.007544838
215	0x3d47f3f3	0.048816632
216	0x3d2fda3e	0.04293274
217	0x3d19c8a5	0.037544865
218	0x3d297f2d	0.04138105
219	0xbd00996f	-0.031396326
220	0xbd21b2c0	-0.03947711
221	0x3c5dfd05	0.013549094
222	0xbabcd714	-0.001440736
223	0xbb9cb2cb	-0.004782056
224	0xbd2a59fd	-0.041589726
225	0x3c62a498	0.0138331875
226	0x3b83ba95	0.004020045
227	0xbc81fe84	-0.015868433
228	0xbceddb99	-0.029035376
229	0x3cd55273	0.026040291
230	0xbcc9aef8	-0.024619564
231	0x3ce0230d	0.027360464
232	0x3d769147	0.06019714
233	0x3b5fc800	0.003414631
234	0x3d4f49dc	0.050607547
235	0x3a8539c0	0.0010164306
236	0xbcc177a5	-0.023616621
237	0x3d72901e	0.059219472
238	0x3a1b54d8	0.00059254235
239	0xbcbf4017	-0.02334599
240	0xbd11de5d	-0.035612453
241	0xbd048ba4	-0.032359734
242	0xbc876a18	-0.016530082
243	0x3cd6a54b	0.026201865
244	0x3ce89d91	0.028395446
245	0x3d74919b	0.059709173
246	0xbd0c6b1e	-0.034281842
247	0xbc23a29b	-0.009987499
248	0xbd1cba3c	-0.038263544
249	0x3c822f2b	0.015891632
250	0xbc940d98	-0.018072888
251	0xbbb2dccb	-0.0054584495
252	0x3c610c28	0.013735808
253	0xbb562200	-0.0032674074
254	0x3d5201bd	0.05127119
255	0xbc9d9af9	-0.019238936

fc1_q2.weight f4 [256, 8]
0	0x3e334247	0.17505752
1	0xbe90bf70	-0.28271055
2	0xbc01f8ba	-0.007932836
3	0xbd02e5ca	-0.031957425
4	0xbeab9a88	-0.33516335
5	0x3e972537	0.2952058
6	0x3ea19752	0.3156076
7	0x3eaf0c41	0.34189036
8	0x3e3029ec	0.17203492
9	0x3e5b7f1c	0.21435207
10	0x3e84acc0	0.25913048
11	0x3e77b06e	0.24188396
12	0x3ead93fc	0.33901966
13	0x3e35b4cd	0.17744751
14	0x3e07d591	0.13265063
15	0x3d14f601	0.03636742
16	0xbdb65f36	-0.08904879
17	0xbe831bbf	-0.25607106
18	0x3e28e9ae	0.16495392
19	0xbe8e533c	-0.27797878
20	0x3ea7f791	0.32806066
21	0xbea6cd14	-0.32578337
22	0xbe667f22	-0.22509435
23	0xbe8fd297	-0.28090355
24	0xbe9f8708	-0.31157708
25	0xbe3e7e7d	-0.18602939
26	0x3e32be2f	0.17455362
27	0xbcacc0f0	-0.021088094
28	0xbe8f697b	-0.28010163
29	0xbe47c111	-0.19507243
30	0xbd0334fc	-0.03203295
31	0x3c071d8a	0.008246789
32	0xb919d76e	-0.00014671471
33	0x3ea8eee3	0.32994756
34	0x3e168717	0.1469997
35	0x3eb076b5	0.34465566
36	0xbe15c102	-0.14624408
37	0x3e936bc6	0.28793162
38	0x3e4bbea6	0.19896945
39	0x3e960411	0.29299977
40	0x3da2a661	0.079418905
41	0x3dfc2e3b	0.12313505
42	0xbdfe86ce	-0.12428056
43	0x3e3b3d4f	0.18285106
44	0x3e2af682	0.16695598
45	0x3e29de0d	0.16588612
46	0xbe97faed	-0.2968363
47	0xbea5a231	-0.32350305
48	0xbc899c26	-0.01679809
49	0xbd4cde6b	-0.0500168
50	0xbe9890d8	-0.29798007
51	0xbe20dca6	-0.1570917
52	0xbe7778a5	-0.24167116
53	0xbda5a690	-0.0808841
54	0xbde44841	-0.11146594
55	0xbeb40f31	-0.3516784
56	0x3eb38400	0.35061646
57	0xbe00631b	-0.12537806
58	0xbe30e27f	-0.17273901
59	0x3e4e9b94	0.20176536
60	0x3e92cd15	0.2867209
61	0xbe9d5c8e	-0.30734676
62	0xbe5082b4	-0.2036236
63	0x3cafb462	0.021448318
64	0x3d2acbc5	0.041698236
65	0x3c3c6efe	0.011501072
66	0x3e96c17e	0.29444498
67	0xbe9bf540	-0.30460548
68	0x3e2b5896	0.16733012
69	0x3dac642b	0.08417543
70	0x3e9a6983	0.30158624
71	0x3ea75932	0.32685238
72	0xbe6a718e	-0.2289488
73	0xbe88dd42	-0.26731306
74	0x3ea513a9	0.32241562
75	0x3e8183c6	0.25295848
76	0xbea35e85	-0.3190805
77	0x3e8ddff1	0.27709916
78	0xbe23ba5d	-0.1598906
79	0xbd84262d	-0.06452594
80	0x3e6ab794	0.22921592
81	0xbda77940	-0.081774235
82	0x3de0c832	0.10975684
83	0xbeb45968	-0.35224462
84	0xbe15a71d	-0.1461453
85	0xbc2d1f53	-0.01056655
86	0x3e89c333	0.26906738
87	0x3e74dec0	0.23913097
88	0x3eb1c3d6	0.34719723
89	0xbd3326b8	-0.043738097
90	0xbe0a1414	-0.13484222
91	0xbe3efaf1	-0.18650414
92	0xbdc96eb1	-0.09835566
93	0x3e9d7eb3	0.30760726
94	0x3e863127	0.26209375
95	0xbe8af29f	-0.2713823
96	0xbcc6c2f6	-0.024262886
97	0x3eab75b1	0.3348823
98	0xbeb39139	-0.35071734
99	0x3e057070	0.13031173
100	0xbddea879	-0.10871977
101	0x3d598788	0.05310777
102	0xbe177932	-0.14792326
103	0xbdf9c9b3	-0.12196674
104	0x3e424129	0.18970169
105	0x3e635e88	0.2220403
106	0x3e80ffb1	0.25195077
107	0x3947ee28	0.00019066839
108	0x3db4d8dd	0.08830426
109	0x3e267112	0.1625407
110	0xbe7e1f50	-0.24816632
111	0x3dea6043	0.11444142
112	0xbe8b62f3	-0.2722393
113	0x3eab0619	0.3340309
114	0x3dadb970	0.08482635
115	0x3e13fbaa	0.14451471
116	0xbe97b324	-0.2962886
117	0x3eac0947	0.33600828
118	0x3e4038c9	0.18771662
119	0xbd1cb844	-0.038261667
120	0xbdcac06b	-0.09899982
121	0xbeaba1a1	-0.3352175
122	0xbd8a39f7	-0.06749337
123	0x3e1d9cd3	0.15391855
124	0x3d890063	0.06689527
125	0x3e10569a	0.14095536
126	0x3df17626	0.11790113
127	0xbe841ef1	-0.25804856
128	0xbea6e5de	-0.3259725
129	0xbd0758f0	-0.0330438
130	0x3e3e2ab9	0.18570985
131	0x3e846bdd	0.25863543
132	0x3e26ef94	0.1630233
133	0xbe34b985	-0.17648895
134	0xbe6fff67	-0.23437272
135	0xbdfe0425	-0.12403134
136	0xbd9bbac5	-0.07603983
137	0xbdc7cf11	-0.09756292
138	0x3dc7fd50	0.097651124
139	0x3e17569a	0.1477913
140	0xbcf42a1f	-0.029805241
141	0x3e50f58e	0.20406172
142	0x3e463d1f	0.19359253
143	0xbb973419	-0.004614365
144	0xbe127d60	-0.1430564
145	0x3d13da25	0.03609671
146	0xbc319d42	-0.010840716
147	0x3e11c425	0.1423498
148	0xbe2fc9bf	-0.17166804
149	0x3c31fb24	0.010863099
150	0xbcbf4d10	-0.023352176
151	0x3e5fd99f	0.2186036
152	0x3e9ef3ef	0.31045482
153	0xbe897697	-0.2684829
154	0x3e762e84	0.24041182
155	0x3e50d149	0.20392336
156	0x3e708512	0.23488262
157	0x3d38ad4a	0.045087136
158	0x3d2d9d6b	0.042386454
159	0xbe25ff42	-0.16210654
160	0xbdf9632b	-0.12177118
161	0xbe8126c3	-0.25224885
162	0x3d8a4d14	0.06752983
163	0xbe331c6a	-0.17491308
164	0xbe91a3d7	-0.28445312
165	0xbd88ea6c	-0.066853374
166	0xbe6e4570	-0.23268676
167	0xbe92874a	-0.28618842
168	0xbea94d69	-0.33066872
169	0x3e66b277	0.22529016
170	0x3e52e6aa	0.20595804
171	0xbdfdb324	-0.12387684
172	0x3e01f3c0	0.1269064
173	0xbdb73f25	-0.08947591
174	0xbdffbfc5	-0.12487749
175	0x3eae1b01	0.34004977
176	0x3e165208	0.1467973
177	0x3d27c30f	0.040957507
178	0xbe9a76fa	-0.30168897
179	0xbd73c77a	-0.059516408
180	0x3ea68131	0.3252044
181	0x3d9d154b	0.07670077
182	0x3e5977d2	0.21237114
183	0xbd80bd14	-0.06286064
184	0x3d7d6660	0.06186521
185	0x3e9dab5e	0.30794805
186	0xbe4aee9e	-0.19817588
187	0x3e8ffa89	0.2812083
188	0x3e5dadc6	0.2164832
189	0x3e5686e5	0.20949896
190	0x3e554fb3	0.20831184
191	0xbe82e67d	-0.25566474
192	0x3e89ae45	0.2689077
193	0x3e8058c3	0.2506772
194	0xbe1c2ddf	-0.15251873
195	0x3e344dcc	0.17607802
196	0xbe04c21b	-0.1296467
197	0xbeac1a3a	-0.3361376
198	0x3e858f10	0.2608571
199	0x3e999353	0.29995212
200	0x3e22ed99	0.15910949
201	0x3e86d289	0.263325
202	0xbe0d79fd	-0.13816066
203	0xbe77b712	-0.2419093
204	0xbdd6539e	-0.104651675
205	0x3e79fa0f	0.24411796
206	0xbe2c3528	-0.16817153
207	0xbea0d494	-0.31412184
208	0xbe91fd19	-0.2851341
209	0x3cb0c079	0.021576153
210	0xbdb98e37	-0.090603285
211	0x3de12d23	0.10994937
212	0x3e8ace84	0.27110684
213	0xbd42bf7d	-0.0475459
214	0x3cf97424	0.030450888
215	0xbe43e236	-0.19129261
216	0xbdbdb9a4	-0.09263924
217	0xbe44eac7	-0.19230185
218	0xbeae00ab	-0.33984885
219	0x3e353076	0.17694268
220	0xbe0a728b	-0.13520257
221	0xbcacbea3	-0.021086996
222	0x3da3fce2	0.08007218
223	0xbbfe1ff5	-0.0077552744
224	0x3d8b6d83	0.06807997
225	0xbe929387	-0.2862818
226	0x3df17e47	0.117916636
227	0xbda5ba13	-0.080921315
228	0x3c7fa58f	0.015603437
229	0xbe19253a	-0.14955607
230	0xbdc6ba63	-0.09703519
231	0xbe113b7c	-0.14182848
232	0xbd31a5a9	-0.043370876
233	0xbe123154	-0.1427663
234	0x3e9cc1e8	0.3061669
235	0x3eb14d0e	0.346291
236	0x3d549ea6	0.05190911
237	0xbeb34c77	-0.35019276
238	0xbde6a14b	-0.11261233
239	0xbe3a177f	-0.18173026
240	0x3e5b3007	0.2140504
241	0xbea01b69	-0.31270912
242	0xbea2352a	-0.31681186
243	0x3c5b9a88	0.013403542
244	0xbcfe03d5	-0.031007687
245	0x3d8ae883	0.06782629
246	0x3de81a07	0.11333089
247	0xbeb3f541	-0.3514805
248	0xbcd02a0b	-0.025410673
249	0xbe9947e4	-0.2993766
250	0x3ea2893e	0.31745332
251	0x3e9a0feb	0.3009027
252	0x3e669ca2	0.22520688
253	0xbd01db4d	-0.031703282
254	0x3e057b53	0.13035326
255	0x3e374afd	0.178997

fc1_q2.bias f4 [256]
0	0xbe500239	-0.20313348
1	0x3e14b814	0.14523345
2	0x3e5e30c6	0.21698293
3	0x3d8e2417	0.06940477
4	0xbdb071bd	-0.08615444
5	0x3ea59574	0.32340586
6	0xbe53f80f	-0.20700096
7	0x3c5bee22	0.0134234745
8	0xbe39ede0	-0.18157148
9	0x3e98ca80	0.29841995
10	0xbe51130b	-0.2041742
11	0xbe4d867d	-0.20070834
12	0x3e96d946	0.2946264
13	0xbe8ad5cd	-0.27116242
14	0xbe696e17	-0.22795902
15	0x3eae4bcb	0.340422
16	0xbd46bc99	-0.048519704
17	0xbea1c6f0	-0.3159709
18	0x3d5025cc	0.050817296
19	0xbe2f1204	-0.17096716
20	0x3e900b6d	0.28133717
21	0x3eb16fdd	0.34655657
22	0x3eadacdd	0.33920947
23	0xbe06d844	-0.13168436
24	0x3e9b5d39	0.3034456
25	0xbd776410	-0.06039816
26	0x3c693070	0.01423274
27	0x3db92c0a	0.09041603
28	0xbd727476	-0.059193097
29	0x3e6c9045	0.2310191
30	0x3e5ad245	0.21369274
31	0x3b32af6c	0.0027265204
32	0x3e0745bf	0.132102
33	0xbe823c1f	-0.25436494
34	0xbe260c46	-0.1621562
35	0xbe95f4b0	-0.29288244
36	0x3e8e3034	0.2777115
37	0xbe5843e0	-0.21119642
38	0x3e0e68eb	0.1390721
39	0xbe359b25	-0.17734964
40	0x3dc0195b	0.09379836
41	0x3dbf51dd	0.09341786
42	0xbdc8151d	-0.09769652
43	0x3ea504b8	0.32230163
44	0xbcc711fc	-0.024300568
45	0xbea27737	-0.3173158
46	0xbe6ec24c	-0.23316306
47	0xbd79b6df	-0.060965415
48	0xbe60f81a	-0.21969643
49	0xbd7205ef	-0.05908769
50	0x3d020970	0.03174728
51	0x3e0e341d	0.13887067
52	0xbe31c9e9	-0.17362179
53	0xbe9392fe	-0.28823084
54	0x3c2babc6	0.010477966
55	0xbe9a25d7	-0.30106995
56	0xbe57fe97	-0.21093212
57	0xbceb764a	-0.028742928
58	0x3cd10704	0.02551604
59	0xbe8e9093	-0.27844676
60	0x3e7d59bb	0.2474126
61	0x3eaf9736	0.34295052
62	0xbe47d6fd	-0.19515605
63	0x3e356485	0.17714126
64	0x3e0dcdb6	0.13848004
65	0xbe417fc7	-0.188964
66	0xbd09b228	-0.03361717
67	0x3c1402aa	0.009033838
68	0x3ea4b7ef	0.3217158
69	0xbe9f0a92	-0.31062752
70	0xbdd36a92	-0.10323061
71	0xbe748c46	-0.23881635
72	0x3ca4ed9b	0.02013283
73	0xbe2622fe	-0.16224286
74	0x3dbcfb40	0.0922761
75	0xbe766dc2	-0.24065307
76	0x3d69586d	0.056969095
77	0xbe1b64ca	-0.15175167
78	0x3e380aa5	0.1797281
79	0xbe03674d	-0.12832375
80	0x3d4835e2	0.04887951
81	0x3d893f4b	0.06701525
82	0x3da1fc4d	0.07909451
83	0xbd0ece86	-0.034864925
84	0x3d9cfddf	0.076656096
85	0xbdec0fe3	-0.11526468
86	0x3e33cfc7	0.1755973
87	0x3d8d4981	0.068987854
88	0x3db5e86b	0.08882221
89	0xbdd606d4	-0.10450521
90	0x3e9e3665	0.30900875
91	0xbc1d6f5b	-0.009609069
92	0xbe6cd13c	-0.23126692
93	0xbe201b7a	-0.15635481
94	0x3dd701c3	0.10498383
95	0xbe69093d	-0.2275743
96	0x3e2f29f3	0.17105846
97	0x3e5a0ba3	0.21293502
98	0xbdc73eb5	-0.09728757
99	0x3e8ffb36	0.28121346
100	0xbe97776c	-0.295833
101	0x3e2429e6	0.16031608
102	0x3e00c49f	0.12575005
103	0xbe882ae1	-0.26595214
104	0x3e4baa99	0.19889297
105	0x3eb4640e	0.35232586
106	0xbd3e1607	-0.046407726
107	0xbd5c21fb	-0.053743344
108	0xbd2445ce	-0.040105633
109	0x3e8bfbee	0.27340645
110	0x3e453b36	0.19260868
111	0xbe9b9708	-0.30388665
112	0x3de17098	0.11007804
113	0x3da391cd	0.07986794
114	0x3eb1b069	0.34704903
115	0xbe838bc0	-0.25692558
116	0x3eac46e4	0.33647835
117	0x3ddfe640	0.109325886
118	0xbd9a50d2	-0.075349465
119	0x3e88d99d	0.26728526
120	0x3e1e2abf	0.15445994
121	0x3ccecd15	0.025244275
122	0xbdbca304	-0.0921078
123	0x3eb1e35b	0.3474377
124	0x3dd297c9	0.10282857
125	0xbe54f441	-0.207963
126	0xbe4168b0	-0.18887591
127	0x3ea82470	0.328403
128	0x3dc3b437	0.09555858
129	0x3ded206e	0.11578451
130	0xbdac3054	-0.08407655
131	0xbe89343e	-0.2679767
132	0x3e5bcbfd	0.21464534
133	0xbd84a9cf	-0.06477701
134	0xbe17d1df	-0.14826153
135	0x3eacb99d	0.33735362
136	0xbdb4191b	-0.08793851
137	0xbdd239ad	-0.10264907
138	0x3e0a8db1	0.13530613
139	0xbd8ba15b	-0.068178855
140	0xbe16f0a5	-0.14740236
141	0xbe5de958	-0.21671045
142	0x3e480e2d	0.19536658
143	0x3cf15446	0.02945913
144	0x3c808f39	0.015693294
145	0x3d802090	0.06256211
146	0xbe447e15	-0.19188721
147	0x3d883321	0.06650377
148	0xbe2e8fab	-0.17046992
149	0xbe8de778	-0.2771566
150	0x3e7dd182	0.24786952
151	0x3e84b025	0.25915638
152	0x3e9a6841	0.30157664
153	0x3d94293b	0.072344266
154	0x3d4fb7e3	0.050712477
155	0x3e83b759	0.2572582
156	0xbea90484	-0.33011258
157	0xbddeca91	-0.1087848
158	0xbe3b9449	-0.18318285
159	0xbdaa810a	-0.083253935
160	0x3bca1501	0.0061670546
161	0x3e4c1501	0.19929887
162	0xbe5a0c4a	-0.2129375
163	0xbe252d05	-0.16130455
164	0xbe97d8b2	-0.29657513
165	0xbe62de0f	-0.22155021
166	0x3ccce0d8	0.025009558
167	0xbe333ad2	-0.17502907
168	0x3dc42132	0.09576644
169	0xbdc331b0	-0.095309615
170	0x3e89da5d	0.2692441
171	0x3d51556a	0.051106848
172	0xbd786a22	-0.06064809
173	0xbe9896d1	-0.29802564
174	0x3e1b9a8a	0.1519567
175	0x3e31804e	0.173341
176	0x3c9cbe5c	0.01913374
177	0x3d926284	0.071476966
178	0x3db2161d	0.08695624
179	0x3e044226	0.12915859
180	0x3e09e2e4	0.13465458
181	0x3e5608e6	0.20901832
182	0x3da4db23	0.080496095
183	0xbe67d77e	-0.22640797
184	0x3e314dc5	0.17314823
185	0x3eb3d5ce	0.35124058
186	0xbeb32fbd	-0.3499736
187	0x3ea26a1f	0.3172159
188	0xbeaaab5e	-0.33333868
189	0x3e9dc81e	0.3081674
190	0xbd969d68	-0.073542416
191	0x3d4b44f6	0.049626313
192	0x3eb274f5	0.34854856
193	0xbeafadc7	-0.3431227
194	0xbdd943a0	-0.106086016
195	0x3d005b4c	0.031337067
196	0x3e369663	0.17830805
197	0x3c5d4760	0.013505787
198	0xbe4169de	-0.18888041
199	0xbea7e1ce	-0.32789463
200	0x3db4c49b	0.08826562
201	0x3e6adc67	0.2293564
202	0xbea067f3	-0.31329307
203	0x3e8d5191	0.27601293
204	0x3e584681	0.21120645
205	0xbd7d36bb	-0.061819773
206	0x3cc10afd	0.02356481
207	0x3e5cb8de	0.21554896
208	0xbe646766	-0.22305068
209	0x3eaac552	0.33353668
210	0x3ea25b74	0.31710398
211	0x3e67d015	0.22637971
212	0xbea999cf	-0.3312516
213	0x3dd4732a	0.10373528
214	0xbe78a212	-0.24280575
215	0xbd8c685c	-0.068558425
216	0x3db12590	0.086497426
217	0x3bade5af	0.0053069214
218	0xbe96c086	-0.2944376
219	0xbd1dd0fd	-0.038529385
220	0x3d5813c5	0.05275323
221	0xbe807651	-0.25090268
222	0x3e23386b	0.1593949
223	0xbe4c0dfa	-0.19927207
224	0xbe4b6daa	-0.19866052
225	0x3e0fe657	0.14052711
226	0xbe94ee48	-0.29088044
227	0x3e6b0869	0.22952427
228	0xbe417477	-0.18892084
229	0x3c08c108	0.0083468035
230	0x3e0d648a	0.13807884
231	0x3e382471	0.17982651
232	0x3e6f83e4	0.23390156
233	0x3e89c586	0.2690851
234	0xbe9bd23a	-0.30433828
235	0xbe19df6d	-0.15026636
236	0xbdba00d6	-0.09082191
237	0xbe5f2988	-0.21793187
238	0x3e458fcd	0.19293137
239	0x3d40413d	0.046937216
240	0x3e696263	0.22791438
241	0xbe5ad2d8	-0.21369493
242	0x3e1bb810	0.15206933
243	0xbe9b2336	-0.303003
244	0xbe20d57e	-0.15706441
245	0xbe43cafa	-0.19120398
246	0xbe33d72c	-0.1756255
247	0x3e4ffbea	0.20310941
248	0x3bd1420e	0.006386048
249	0xbe09efc6	-0.13470373
250	0x3db4e593	0.0883285
251	0x3cd6669a	0.026171971
252	0xbea85636	-0.32878274
253	0xbcf111b8	-0.029427394
254	0xbdf60adc	-0.1201379
255	0x3e5b24bf	0.21400736
