paper_reproductions/adaptive_quantum_cvrp/models/rl_run_test_output/sac_penalty_learner_final_actor.pth (torch, 278429 bytes, 8 tensors)

fc1.weight f4 [256, 6]
0	0xbe30f17f	-0.17279623
1	0xbe9dec41	-0.3084431
2	0xbd7d6020	-0.06185925
3	0xbe0e463e	-0.13893983
4	0x3e2d6e51	0.16936614
5	0xbe352528	-0.17689955
6	0x3e0e67a4	0.13906723
7	0xbeadd960	-0.33954906
8	0x3d80c6bd	0.06287906
9	0x3e41935c	0.1890387
10	0xbec75d8a	-0.38938552
11	0x3eb427d6	0.35186642
12	0xbe368c81	-0.17827035
13	0x3e39fc10	0.1816256
14	0x3e3351c0	0.17511654
15	0x3e3cbac9	0.18430628
16	0x3d129bb2	0.035793014
17	0xbe02a6ba	-0.12758914
18	0xbea2c1cf	-0.3178849
19	0xbe20d1f7	-0.15705095
20	0x3d4daca7	0.050213482
21	0x3d375913	0.044762682
22	0xbe13bb45	-0.14426906
23	0xbeb206bb	-0.3477076
24	0x3e906c68	0.28207707
25	0xbdd33087	-0.1031199
26	0x3adb5b5f	0.0016735605
27	0xbde53d5d	-0.11193345
28	0x3e819c63	0.25314626
29	0xbe71163a	-0.23543635
30	0xbe0f0293	-0.13965826
31	0xbd5fc2e7	-0.054629233
32	0x3df9f01e	0.12204002
33	0x3ea12ab1	0.31477883
34	0x3ebd0831	0.36920312
35	0xbe8df924	-0.27729142
36	0xbea8ed37	-0.3299348
37	0x3e5b28fe	0.21402356
38	0x3e7bf4bf	0.24605082
39	0xbe814523	-0.2524806
40	0x3e1ffad8	0.15623033
41	0xbeb43078	-0.3519323
42	0x3e54f8d9	0.20798053
43	0x3e76f831	0.24118115
44	0xbd368651	-0.044561688
45	0xbe720b30	-0.2363708
46	0xbeaa12a8	-0.3321736
47	0x3dc7979e	0.097457156
48	0x3e202fbd	0.1564321
49	0xbd99624b	-0.07489451
50	0xbec290e9	-0.38001183
51	0xbeabced3	-0.33556232
52	0x3d45a21c	0.048250303
53	0xbdfd6786	-0.12373261
54	0xbd45d9d6	-0.048303448
55	0xbcdb71d3	-0.026787674
56	0x3e251857	0.16122566
57	0xbdd81387	-0.105505995
58	0xbe826c1f	-0.25473115
59	0x3ea571a3	0.3231326
60	0xbe92abd9	-0.28646734
61	0x3ec54d22	0.3853541
62	0x3d9638a2	0.073350206
63	0x3d8c7bd1	0.068595536
64	0x3d3cee74	0.046125844
65	0xbe3fa3b9	-0.18714799
66	0xbe255270	-0.16144729
67	0xbe9c12c7	-0.30483076
68	0x3e2a08cd	0.1660492
69	0xbea4254c	-0.32059705
70	0xbbc9c8e2	-0.0061579803
71	0xbe9abb08	-0.3022082
72	0xbec9b681	-0.39397052
73	0x3dec559c	0.11539766
74	0x3d30c407	0.043155696
75	0x3d7ac843	0.06122614
76	0x3ded51d4	0.11587873
77	0x3eb15530	0.34635305
78	0x3e871cac	0.26389062
79	0xbe1ae0dc	-0.1512484
80	0xbec6448c	-0.38724172
81	0xbeaf4107	-0.342293
82	0xbeb6a265	-0.35670772
83	0xbe7649ef	-0.24051641
84	0xbde9e0b4	-0.11419812
85	0x3e314932	0.17313078
86	0xbe780ae4	-0.24222904
87	0xbec7a7f4	-0.38995326
88	0xbdc10088	-0.094239295
89	0x3eaf0919	0.34186628
90	0x3e1591c3	0.14606385
91	0x3e6d4751	0.23171736
92	0xbe91cbd7	-0.2847583
93	0x3d8755a9	0.06608135
94	0xbe0ff9ec	-0.14060181
95	0xbded751e	-0.11594604
96	0x3e5b9a62	0.21445611
97	0x3e1ab293	0.15107183
98	0xbe0e43c1	-0.13893034
99	0xbe0a79cc	-0.13523024
100	0x3d0d63b4	0.034518912
101	0xbe84c099	-0.2592819
102	0x3e53ae96	0.20672068
103	0x3e6e4ce4	0.23271519
104	0xbea07fdf	-0.31347558
105	0x3e857191	0.26063207
106	0xbe082031	-0.1329353
107	0xbe2d806c	-0.1694352
108	0xbdac8c02	-0.08425142
109	0x3e795b88	0.24351323
110	0x3e74aa80	0.23893166
111	0x3e647b54	0.22312671
112	0xbe65e32d	-0.22449942
113	0xbddb60c1	-0.10711814
114	0x3ea7b8b6	0.3275811
115	0xbe82f7c6	-0.2557966
116	0xbd7ed339	-0.062213156
117	0x3e2f7067	0.17132722
118	0xbea169bd	-0.31525984
119	0xbe989eb7	-0.2980859
120	0xbe3f20fe	-0.1866493
121	0xbdca5a4c	-0.09880504
122	0xbe8bc908	-0.27301812
123	0x3db69143	0.08914425
124	0x3cdad3d5	0.026712338
125	0x3e3417c3	0.1758719
126	0xbe7b4005	-0.2453614
127	0xbdf613c6	-0.1201549
128	0x3cd19ad5	0.025586525
129	0xbec0a5a2	-0.37626368
130	0xbeab0709	-0.33403805
131	0x3d9c89f6	0.076435015
132	0x3ecc3a88	0.39888406
133	0x3ece7683	0.40324792
134	0x3d0b25a8	0.03397146
135	0x3e9a9c94	0.30197585
136	0xbec565bf	-0.3855419
137	0xbddd54fd	-0.10807226
138	0x3c1dacbc	0.009623703
139	0x3e77f217	0.24213444
140	0x3e034255	0.12818272
141	0xbd51f3ad	-0.051257778
142	0x3e953e31	0.2914901
143	0xbdc846ef	-0.097791545
144	0x3eaa7b72	0.33297306
145	0xbe1314b4	-0.14363366
146	0x3dee3b0a	0.116323546
147	0xbdfc90f7	-0.12332337
148	0x3e0f3d91	0.1398833
149	0x3e89482a	0.2681287
150	0x3e3af00a	0.1825563
151	0xbcf3dda3	-0.02976877
152	0x3d034a93	0.03205354
153	0xbde51a82	-0.111866966
154	0xbe268da8	-0.16264975
155	0xbeb670d1	-0.35632947
156	0x3e12a268	0.14319766
157	0xbe7f438e	-0.24928114
158	0x3e66f166	0.22553024
159	0x3df5c4d5	0.12000433
160	0xbec9de35	-0.39427343
161	0x3ecfede0	0.40611172
162	0xbdc4fef7	-0.09618943
163	0x3e3d850f	0.18507789
164	0xbec361ac	-0.38160455
165	0xbe42bc91	-0.19017245
166	0xbc6763cf	-0.014122917
167	0x3d2d211f	0.042267915
168	0xbe4158a0	-0.18881464
169	0xbe0e3aa9	-0.13889565
170	0x3ea351a2	0.31898218
171	0xbd2ca459	-0.04214892
172	0x3dcb025e	0.09912561
173	0xbeba9abb	-0.36446175
174	0xbe9e2891	-0.30890325
175	0xbe289650	-0.1646359
176	0xbe31c6a1	-0.17360927
177	0x3ec1d153	0.37855014
178	0xbe5a10ef	-0.21295522
179	0xbcdee236	-0.027207475
180	0x3e3d9fb9	0.1851796
181	0x3e9639a9	0.29340866
182	0x3e297c74	0.16551381
183	0x3e18b284	0.14911848
184	0xbd0ea301	-0.03482342
185	0xbea0619d	-0.31324473
186	0xbdf4f83f	-0.11961412
187	0x3ecc5216	0.39906377
188	0x3de1f601	0.1103325
189	0xbe456e30	-0.19280314
190	0x3d02833f	0.031863447
191	0xbe8e033a	-0.27736837
192	0xbeb5067e	-0.35356516
193	0x3cad4e62	0.02115554
194	0x3e8445fc	0.25834644
195	0x3cef5c8a	0.02921893
196	0xbe80b053	-0.25134525
197	0x3ea7e5e5	0.32792583
198	0xbe52c818	-0.20584142
199	0x3ebb93ea	0.36636287
200	0x3eca6d86	0.39536685
201	0xbeb1b731	-0.34710076
202	0x3e49c011	0.19702174
203	0x3dcfcb0f	0.10146152
204	0x3e965a6f	0.2936587
205	0xbc87dc68	-0.01658459
206	0xbe42c252	-0.1901944
207	0xbe9a31bf	-0.30116078
208	0xbec7bc95	-0.39011064
209	0x3db49b8d	0.088187315
210	0xbe726331	-0.23670651
211	0xbec71069	-0.38879707
212	0x3d8e3acc	0.06944808
213	0xbe3c1cbe	-0.1837034
214	0x3e1a0f1f	0.1504483
215	0x3d2ce050	0.04220611
216	0xbdfbddf2	-0.12298192
217	0xbe85a3f3	-0.26101646
218	0xbeaefa7f	-0.34175488
219	0xbd41d4a4	-0.04732193
220	0xbe260067	-0.16211091
221	0x3e8a56b9	0.2701929
222	0xbe7d2e16	-0.24724612
223	0xbd75f25a	-0.060045578
224	0xbe8c9b46	-0.27462214
225	0x3eb1c3d9	0.34719732
226	0xbca78b96	-0.020452302
227	0x3e41edf7	0.18938433
228	0xbc334bf8	-0.010943405
229	0xbeb1dd3c	-0.347391
230	0x3e13313b	0.14374249
231	0x3dd2cc5a	0.10292883
232	0xbd96d876	-0.073655054
233	0xbd5e4636	-0.054266177
234	0x3e0c97df	0.13729809
235	0x3e0401c9	0.12891306
236	0x3dc7e0a5	0.097596444
237	0xbe545bf0	-0.20738196
238	0x3c9d5235	0.019204238
239	0xbd30202b	-0.042999428
240	0xbe689643	-0.2271357
241	0xbeac8459	-0.33694723
242	0xbe934e6d	-0.28770772
243	0xbdb56026	-0.088562295
244	0xbdbaf1c6	-0.09128146
245	0x3ecaefeb	0.39636168
246	0xbd147dc9	-0.03625277
247	0x3dde828e	0.10864745
248	0x3c30a1fe	0.010780809
249	0xbe1c0019	-0.15234412
250	0x3ec4b688	0.3842051
251	0x3ebe3c9f	0.37155625
252	0x3d9fd638	0.07804531
253	0xbe5cbb48	-0.21555817
254	0xbe2246e7	-0.1584736
255	0xbd6c7512	-0.057728834

fc1.bias f4 [256]
0	0xbe3f403d	-0.18676849
1	0x3e91bf5b	0.28466305
2	0x3eadd9d5	0.33955255
3	0x3e8aa3ce	0.27078098
4	0x3eac3847	0.33636686
5	0xbe643dc9	-0.22289194
6	0x3e654ed1	0.22393347
7	0xbb5db2ae	-0.0033828425
8	0x3e5d4753	0.2160924
9	0xbca575e8	-0.020197824
10	0x3e7b9f99	0.245726
11	0xbd4c5fe1	-0.049896125
12	0x3cef2cac	0.029196106
13	0x3e5ee5f6	0.2176741
14	0xbc2ced39	-0.010554605
15	0xbe048f83	-0.1294537
16	0x3ec35590	0.38151217
17	0xbe223794	-0.15841514
18	0xbd9c10af	-0.0762037
19	0x3d8066fb	0.06269642
20	0xbb4ce8a4	-0.0031266594
21	0x3ddd9b48	0.10820633
22	0x3d9b592d	0.07585368
23	0x3d852092	0.06500353
24	0x3e90b179	0.282604
25	0x3e079447	0.13240157
26	0x3eb72c8c	0.35776174
27	0xbd84256b	-0.064524494
28	0x3dc38c2c	0.0954822
29	0x3e50296b	0.203283
30	0xbe5879e2	-0.21140245
31	0xbecb51e4	-0.39710915
32	0xbd8c63bb	-0.068549596
33	0xbeaef8a2	-0.34174067
34	0xbecfcc32	-0.40585476
35	0xbd363d57	-0.044492092
36	0xbe9b3d4f	-0.30320212
37	0xbe26a165	-0.16272505
38	0xbe9e65c8	-0.30937028
39	0xbea13e6a	-0.3149293
40	0xbe91d6d1	-0.28484204
41	0x3d3c6b4e	0.04600077
42	0x3dfbc702	0.12293817
43	0xbcbf5c44	-0.023359425
44	0xbe314646	-0.17311963
45	0xbdb685c1	-0.0891223
46	0xbe07957a	-0.13240615
47	0xbe61c7fd	-0.22048946
48	0x3e48bc10	0.1960299
49	0x3eb4364c	0.35197675
50	0x3ea03e5e	0.31297582
51	0xbd89b233	-0.06723442
52	0xbec41ec9	-0.38304737
53	0x3db4c629	0.088268586
54	0x3e1ab1bb	0.15106861
55	0xbd91a0e1	-0.07110763
56	0xbe88e1da	-0.2673481
57	0x3e4db4ca	0.20088497
58	0x3e74d55e	0.23909518
59	0x3de78338	0.11304325
60	0xbebd6702	-0.3699265
61	0x3ea0aa1e	0.3137979
62	0x3e927780	0.28606796
63	0xbe4af170	-0.19818664
64	0x3ea0789e	0.31342024
65	0xbdba0b45	-0.09084181
66	0x3b6b0d5a	0.0035866112
67	0xbd5468bc	-0.051857695
68	0x3d070894	0.032967165
69	0xbeb75983	-0.3581048
70	0xbea36c37	-0.319185
71	0x3e5b1258	0.21393716
72	0xbe6594e1	-0.22420074
73	0xbd5fa92f	-0.054604705
74	0x3e34dd23	0.17662482
75	0x3e119a17	0.14218937
76	0xbe0c74cd	-0.13716431
77	0xbe39b51d	-0.18135495
78	0xbeb4d90b	-0.3532184
79	0xbe1dcdeb	-0.15410583
80	0xbebbf6c4	-0.36711705
81	0xbeb907e9	-0.36138847
82	0xbec6b067	-0.3880646
83	0x3e8481b9	0.2588022
84	0xbddccb75	-0.10780994
85	0xbece47f4	-0.4028927
86	0x3eae2b42	0.34017378
87	0xbe482a34	-0.19547349
88	0x3ec23253	0.3792902
89	0x3e10a735	0.14126284
90	0xbdf16931	-0.11787642
91	0x3d9e5248	0.07730538
92	0xbea61d4d	-0.3244423
93	0x3d93658d	0.07197104
94	0xbec287e0	-0.3799429
95	0xbea2698f	-0.3172116
96	0xbea6c136	-0.32569283
97	0xbe3d9465	-0.1851364
98	0x3e831fb3	0.25610122
99	0x3eaf40ad	0.3422903
100	0x3e9204c4	0.2851926
101	0xbe7fbf51	-0.24975325
102	0xbe96e4a9	-0.2947133
103	0xbeac0364	-0.33596337
104	0x3e9a31ee	0.30116218
105	0xbe808234	-0.25099337
106	0xbeaae2cb	-0.33376154
107	0xbebc9fbe	-0.36840624
108	0x3e34e7b3	0.17666511
109	0x3c47acc5	0.012187188
110	0x3d7145fa	0.058904625
111	0x3ea725e0	0.32646084
112	0x3e114f41	0.14190389
113	0x3dc50d89	0.09621722
114	0x3b022fc2	0.0019864892
115	0x3d0b33f2	0.033985086
116	0xbe531969	-0.20615162
117	0xbe68d736	-0.22738346
118	0x3e92451f	0.2856836
119	0x3de6fdab	0.11278852
120	0x3ec02da7	0.3753483
121	0xbea637b5	-0.32464376
122	0xbeba3676	-0.36369675
123	0xbe0423c3	-0.12904267
124	0xbea2d87b	-0.31805786
125	0xbebcc7a5	-0.36871067
126	0x3d478053	0.048706364
127	0x3e805ba7	0.25069925
128	0x3d925db8	0.07146782
129	0xbdaef6b5	-0.085431494
130	0x3ec8e874	0.39239848
131	0xbe8badf1	-0.27281144
132	0x3e2e8b84	0.17045408
133	0xbeb428bc	-0.35187328
134	0xbe9c72d4	-0.30556357
135	0x3dcaed03	0.09908488
136	0x3cf31f30	0.029677957
137	0xbdce0e33	-0.10061302
138	0x3e7deee2	0.24798158
139	0xbe629efe	-0.22130963
140	0xbeca46e4	-0.3950721
141	0xbeb4e3d7	-0.35330078
142	0x3db50b0d	0.088399984
143	0xbd655ff0	-0.055999696
144	0xbed0bea0	-0.40770435
145	0xbec405bf	-0.38285634
146	0x3e665f45	0.2249728
147	0xbeafbed0	-0.34325266
148	0xbe9690e6	-0.29407424
149	0xbe4bde4f	-0.19909023
150	0x3de912cb	0.113805376
151	0x3dae2c3e	0.08504532
152	0xbea0b4f9	-0.3138807
153	0x3e138fba	0.14410296
154	0xbe6d2df1	-0.23162057
155	0x3dbd83a4	0.09253624
156	0xbeab8c2f	-0.3350539
157	0xbebc98c4	-0.368353
158	0xbebb4d40	-0.36582375
159	0x3e842ffa	0.25817853
160	0x3e8ef7c6	0.2792341
161	0xbe8d786a	-0.2763093
162	0xbe69d0ec	-0.22833604
163	0x3e69144c	0.22761649
164	0xbe359d90	-0.17735887
165	0xbdc57786	-0.09641938
166	0x3e937837	0.28802654
167	0xbe70e737	-0.23525701
168	0x3eca85ce	0.3955521
169	0x3e358f0f	0.17730354
170	0xbe65bc88	-0.224352
171	0x3d66c266	0.056337737
172	0x3e7e16fb	0.24813454
173	0xbea75800	-0.32684326
174	0xbec58d0a	-0.38584167
175	0xbd70c180	-0.058778286
176	0x3d88eecd	0.06686173
177	0x3e640511	0.22267558
178	0xbe0612f7	-0.13093172
179	0xbdc6c2c4	-0.09705117
180	0xbd5a549d	-0.05330335
181	0xbe0f50a6	-0.13995609
182	0x3cbc17c4	0.022960551
183	0x3eb344d0	0.35013437
184	0xbe848a93	-0.25886974
185	0xbeaca497	-0.33719322
186	0x3da002b1	0.07813013
187	0xbdd5e307	-0.10443693
188	0x3e4d64ed	0.20058031
189	0xbe7b891b	-0.2456402
190	0xbd5cd232	-0.053911395
191	0xbe632c42	-0.22184852
192	0xbe10278b	-0.14077584
193	0xbcb54942	-0.022129659
194	0xbda57806	-0.08079533
195	0xbea04eb5	-0.3131005
196	0xbddfea39	-0.10933346
197	0xbec9efe4	-0.39440835
198	0xbe54d2ca	-0.20783535
199	0xbea29824	-0.317567
200	0x3ea031fc	0.31288135
201	0x3c05bffd	0.008163449
202	0x3ece3deb	0.40281615
203	0xbe6b180b	-0.2295839
204	0x3e13f94c	0.14450568
205	0x3e5eebb7	0.21769606
206	0x3b4f481d	0.0031628676
207	0x3d218625	0.03943457
208	0x3e95b70c	0.29241216
209	0x3e483135	0.19550021
210	0x3c28e7d3	0.010309177
211	0xbeb38864	-0.35064995
212	0x3c94aa3c	0.01814758
213	0x3de2a5c8	0.110667765
214	0x3e1328a1	0.14370967
215	0xbdc78a18	-0.09743136
216	0x3e491203	0.19635777
217	0xbeba20c9	-0.36353138
218	0xbe6aaee8	-0.22918284
219	0x3e43e690	0.19130921
220	0xbecdc422	-0.401887
221	0xbeb1f727	-0.34758875
222	0xbe94b6d3	-0.29045734
223	0xbdcd93ac	-0.10037932
224	0x3d3eabf4	0.046550706
225	0x3e480dd2	0.19536522
226	0xbdbe7913	-0.09300437
227	0xbea4b6e4	-0.32170784
228	0x3e538f4e	0.20660135
229	0x3ea1276b	0.31475386
230	0x3d0214a9	0.031757984
231	0xbe145fd5	-0.14489682
232	0x3e0ba154	0.1363576
233	0x3c0ad824	0.0084743835
234	0x3e887fcc	0.2666
235	0xbe355128	-0.1770674
236	0xbe92b41a	-0.28653032
237	0xbe3e51a1	-0.18585826
238	0xbe3c1118	-0.18365896
239	0x3e541cd4	0.20714122
240	0x3e465daa	0.19371668
241	0x3dcaa246	0.098942325
242	0xbe954e94	-0.29161513
243	0xbd7a9f14	-0.061186865
244	0x3e2fba2b	0.17160861
245	0x3e49301f	0.19647263
246	0xbe8210b6	-0.25403374
247	0x3e5c9a0c	0.21543139
248	0xbea75e8c	-0.3268932
249	0x3d1c117a	0.038102604
250	0xbe1a7440	-0.15083408
251	0xbe552df2	-0.20818308
252	0x3dc1f095	0.094697155
253	0x3ec6b015	0.38806215
254	0x3c749679	0.014928454
255	0xbeac276b	-0.33623824

fc2.weight f4 [256, 256]
0	0xbd750c9c	-0.05982648
1	0xbd15829c	-0.036501512
2	0x3ccf5d24	0.025312968
3	0x3d4e794a	0.05040864
4	0xbbaa2370	-0.0051922128
5	0xbc497220	-0.012295276
6	0x3d473dc2	0.04864288
7	0xbd730b66	-0.059337042
8	0xbd57a38a	-0.052646197
9	0xbd038554	-0.032109573
10	0xbcdbe2d4	-0.026841559
11	0xbc9e8cf8	-0.019354329
12	0x3d70dfee	0.058807306
13	0x3d6d1a36	0.057886325
14	0xbd0808a8	-0.03321138
15	0xbd6605d8	-0.056157917
16	0xbc10b618	-0.008832477
17	0x3d171aae	0.036890678
18	0xbcdcba64	-0.026944347
19	0x3cfc0280	0.03076291
20	0xbc3885b8	-0.01126235
21	0x3c1ff9a8	0.0097641125
22	0x3d377516	0.044789396
23	0xbcd952d0	-0.026528746
24	0x3c105770	0.008809909
25	0xbd0c39b6	-0.034234725
26	0xbd6baea8	-0.057539612
27	0xbc1e5650	-0.009664133
28	0xbd4df498	-0.05028209
29	0xbd1c98bc	-0.038231596
30	0x3d0ca82e	0.034340076
31	0xbcb567a0	-0.022144139
32	0xbd019c00	-0.031642914
33	0xbd57acc4	-0.052654997
34	0x3cb6307c	0.022239916
35	0xbd67f282	-0.056627758
36	0xbc077c40	-0.00826937
37	0xbd58785c	-0.05284916
38	0xbb980950	-0.004639782
39	0xbd1c89b8	-0.038217276
40	0xbcd27da0	-0.025694668
41	0xbd6c1e50	-0.057646096
42	0xbd39808a	-0.0452886
43	0xbd1c42ec	-0.03814976
44	0x3c8a3028	0.016868666
45	0xbd2ad11e	-0.041703336
46	0x3c013520	0.007886201
47	0xbbc0b470	-0.005880885
48	0x3c3cb518	0.0115177855
49	0x3d64e06a	0.05587808
50	0xbb737900	-0.003715098
51	0xbb4a8dc0	-0.0030907243
52	0xbcabc82c	-0.020969473
53	0xbd0296d6	-0.03188213
54	0x3a025100	0.00049711764
55	0xbd29b4ee	-0.041432314
56	0xbc97b1b0	-0.018517345
57	0xbc9a39f8	-0.01882647
58	0x3cb6bc9c	0.022306733
59	0x3cb7ad24	0.022421427
60	0xbd0c48d8	-0.034249157
61	0x3d41c1a0	0.047303796
62	0x3d181482	0.037128933
63	0xbc705e00	-0.014670849
64	0xbbf26190	-0.0073968843
65	0xbd42687a	-0.047462918
66	0xbcfa933c	-0.030587785
67	0x3c8866ec	0.01665064
68	0x3d5b636e	0.05356162
69	0xbcfb1f64	-0.030654617
70	0xbc9c1098	-0.019050881
71	0xbcfe170c	-0.031016849
72	0xbc95a2ac	-0.018266045
73	0xbcb93408	-0.022607818
74	0xbd3ef820	-0.04662335
75	0x3cc0b754	0.023524918
76	0x3d02f71a	0.031973936
77	0xbd5dcce2	-0.05415047
78	0xbbd556b0	-0.006510578
79	0xbc538a58	-0.012911402
80	0x3c965670	0.018351763
81	0x3d34d65e	0.04414975
82	0x3cd63944	0.026150353
83	0xbd4cb4be	-0.049977057
84	0x3d3614a2	0.04445327
85	0xbd07bc48	-0.033138543
86	0x3d2bcc52	0.041942902
87	0xbc8e4d34	-0.017370798
88	0x3d1c3060	0.03813207
89	0xbcfa9810	-0.030590087
90	0x3c17e078	0.009269826
91	0x3d02f148	0.031968385
92	0x3c1a70d8	0.009426318
93	0x3d5b5560	0.053548217
94	0x3ce1f55c	0.027582817
95	0x3cdfb634	0.02730856
96	0x3d212910	0.0393458
97	0xbd192306	-0.037386917
98	0x3b90acf0	0.004415147
99	0x3d6f8fb4	0.058486655
100	0xbced07b4	-0.028934337
101	0x3cb21fdc	0.021743707
102	0x3d6d4982	0.05793143
103	0x3c306900	0.010767221
104	0xbd0771ec	-0.03306763
105	0xbc46d7f0	-0.012136444
106	0x3c18ba80	0.009321809
107	0x3d62e0ca	0.055390157
108	0xbab78f00	-0.0014004409
109	0x3b2534c0	0.0025208443
110	0x3c24c9f8	0.010057919
111	0x3c667d18	0.014067911
112	0x3d17373a	0.036917903
113	0xbd2eb502	-0.04265309
114	0xba61a500	-0.0008607656
115	0x3b8f0000	0.0043640137
116	0x3cc5e0f4	0.024155118
117	0xbd64f836	-0.055900775
118	0xbcf83820	-0.0303002
119	0x3c25b298	0.010113381
120	0xbc14e558	-0.009087883
121	0xbd5f94fc	-0.054585442
122	0xbc7d0ab0	-0.015444443
123	0x3bba49e0	0.005685076
124	0xbd2f0a8c	-0.042734668
125	0xbd514fb0	-0.051101387
126	0x3d69e3be	0.057101957
127	0x3ca0062c	0.019534193
128	0xbc9e8668	-0.0193512
129	0x3d59a1d0	0.053132832
130	0x3d5510e8	0.052018076
131	0xbbe9a430	-0.0071301684
132	0x3c82a308	0.01594688
133	0x3d045a26	0.032312535
134	0xbd672eea	-0.056441225
135	0x3d65d7e8	0.056114107
136	0xbd1ad410	-0.037799895
137	0xbd2600e2	-0.040528186
138	0xbc3a55d8	-0.011373006
139	0xbc8045c0	-0.01565826
140	0xbd4c0c7c	-0.049816594
141	0xbc542870	-0.012949094
142	0xbd092840	-0.03348565
143	0x3cef6338	0.029222116
144	0x3d4da572	0.05020661
145	0xbd74594a	-0.059655465
146	0x3cbd13e8	0.023080781
147	0xbd124b3a	-0.035716273
148	0x3ce60150	0.028076798
149	0x3c0ae318	0.008476995
150	0xbd09a31e	-0.033602826
151	0xbd6ced5a	-0.057843544
152	0x3cba88a8	0.02277024
153	0xbd07dc4e	-0.033169083
154	0xbb8992f0	-0.0041984245
155	0xbd0b9da2	-0.034085877
156	0xbcac0e64	-0.021002956
157	0xbd702346	-0.05862739
158	0x3d03136c	0.032000944
159	0x3d7ad71a	0.061240293
160	0x3d18433a	0.037173487
161	0xbd33bf52	-0.04388363
162	0xbd0e5b8e	-0.034755282
163	0xbd6622be	-0.056185476
164	0xbd5c150a	-0.053731002
165	0x3b057e60	0.0020369515
166	0x3bbee310	0.005825408
167	0xbd44387e	-0.047905438
168	0xbd6f0d88	-0.058362514
169	0xbd2e8d5c	-0.04261528
170	0xbd031a54	-0.03200753
171	0x3cd32bf4	0.025777794
172	0xbc8cf988	-0.01720883
173	0xbc85dc60	-0.016340435
174	0xb910ee00	-0.00013821572
175	0x3d739126	0.059464596
176	0xbb5b0740	-0.003342107
177	0x3d1e4752	0.038642235
178	0x3cb39270	0.021920413
179	0xbd5d695c	-0.054055557
180	0x3ba52770	0.0050401017
181	0xba9b0440	-0.0011826828
182	0x3d622cd0	0.055218518
183	0xbd3fe36e	-0.046847753
184	0xbd348af4	-0.04407783
185	0xbb842aa0	-0.0040334016
186	0xbd7bb5d0	-0.061452687
187	0xbd582b0e	-0.052775435
188	0xbd72231e	-0.05911552
189	0x3d14f6fc	0.036368355
190	0xbcc3a9b0	-0.023884624
191	0x3c9939c8	0.01870431
192	0x3d2d2eba	0.04228089
193	0x3cc349c0	0.023838878
194	0x3d62ca64	0.055368796
195	0xbb4c9940	-0.0031219274
196	0x3d07c044	0.033142343
197	0xbd253556	-0.04033407
198	0xbd5835d4	-0.05278571
199	0x3d229272	0.039690442
200	0xbcedc5a4	-0.029024906
201	0xbd630e12	-0.05543334
202	0xbc619240	-0.013767779
203	0x3d61bc14	0.055111006
204	0x3d0df230	0.034654796
205	0xbd3fc5da	-0.046819545
206	0xbd04130a	-0.03224472
207	0xbd7a18e6	-0.0610589
208	0x3d5588ae	0.0521323
209	0x3d5a3518	0.05327329
210	0x3be7a530	0.0070692524
211	0xbc0bc748	-0.008531399
212	0xbc892730	-0.016742319
213	0x3cd788d4	0.026310362
214	0x3d3f5eda	0.046721317
215	0x3cdbcbd0	0.026830584
216	0x3c2a3350	0.01038821
217	0x3d4df73e	0.050284617
218	0x3cf3bea0	0.029753983
219	0xbd474c9a	-0.048657037
220	0xbca65fec	-0.020309411
221	0x3d266aa4	0.040629044
222	0x3cfa2fc4	0.030540355
223	0xbd375ee0	-0.044768214
224	0x3d33d584	0.043904796
225	0xbd3c504a	-0.045975007
226	0xbc2e3280	-0.010632157
227	0xbcfd3278	-0.030907854
228	0xb9f4c800	-0.00046688318
229	0xbd768054	-0.060180977
230	0xb9f20e00	-0.00046168268
231	0xbca33ff8	-0.019927964
232	0x3d21e398	0.03952369
233	0xbca1ec5c	-0.019766025
234	0xbc76c788	-0.01506222
235	0x3cea3a14	0.028592147
236	0xbba05fb0	-0.0048942193
237	0x3b38b640	0.0028184801
238	0x3868e000	5.5521727e-05
239	0x3d285140	0.04109311
240	0x3c82e428	0.015977934
241	0x3d2f1568	0.042745024
242	0x3b8cccb0	0.0042968616
243	0xbd23fc8e	-0.040035777
244	0xbcbad28c	-0.022805475
245	0x3d03918a	0.03212122
246	0xbd43ff28	-0.047850758
247	0xbd62f180	-0.055406094
248	0xbd3546c0	-0.044256926
249	0xbc05d8d0	-0.008169368
250	0xbd0a52f8	-0.03377053
251	0xbd06202e	-0.032745533
252	0xbc12d1c8	-0.008961149
253	0x3c79bd28	0.015242852
254	0x3c2bb768	0.010480739
255	0x3d453376	0.04814478

fc2.bias f4 [256]
0	0xbc7ca558	-0.01542028
1	0xbd16ce76	-0.03681799
2	0x3c2bd8e8	0.010488726
3	0x3c6220c0	0.0138017535
4	0x3c9b6cb8	0.01897274
5	0xbc9d4908	-0.019199863
6	0xbd57b316	-0.052661024
7	0x3d341732	0.043967433
8	0xbbffe8a0	-0.0078097135
9	0xbc271378	-0.010197513
10	0xbd056cae	-0.03257435
11	0x3c86ca54	0.0164539
12	0x3d51e0b4	0.051239684
13	0xbd2db30e	-0.042407088
14	0x3d6d5c20	0.057949185
15	0x3bfe5000	0.0077610016
16	0xbd0ab9ae	-0.033868484
17	0xbd588f9c	-0.05287133
18	0xbd11194e	-0.035424523
19	0x3c5ae1f0	0.013359532
20	0x3cedb4e4	0.02901692
21	0xbd20ac04	-0.039226547
22	0xbd00a6e8	-0.031409174
23	0xbca97704	-0.020686634
24	0xbd311510	-0.043232977
25	0x3d189c58	0.037258476
26	0x3d423caa	0.047421135
27	0xbcdef28c	-0.027215265
28	0xbce81b2c	-0.028333269
29	0x3cefd3e8	0.02927585
30	0xbb93b3f0	-0.004507534
31	0xbc46d500	-0.012135744
32	0x3d7822d2	0.060580082
33	0xbc57fcc8	-0.013182826
34	0x3b9e8270	0.0048373267
35	0x3b1feae0	0.002440147
36	0x3d42b346	0.04753425
37	0x3d192ee4	0.037398234
38	0xbcddc838	-0.02707301
39	0x3c5d71d8	0.013515912
40	0x3cef9ac0	0.029248595
41	0x3cc3f27c	0.023919336
42	0x3d5f822a	0.054567493
43	0xbc821974	-0.015881278
44	0xbc4824b0	-0.012215778
45	0x3bc520e0	0.006015882
46	0x3d2691ee	0.040666513
47	0x3c121a28	0.008917369
48	0xbd3e5c58	-0.046474785
49	0x3c1f2118	0.00971248
50	0xbbc6bb30	-0.006064795
51	0x3d2f2818	0.042762846
52	0x3d23d2c0	0.03999591
53	0xbd18b974	-0.037286237
54	0x3d4dfbf4	0.05028911
55	0x3c998eb0	0.018744797
56	0xbd02f0a4	-0.031967774
57	0xbc8656c0	-0.016398787
58	0xbd5a8358	-0.053347915
59	0xbbf2ed70	-0.0074135587
60	0xbccee84c	-0.025257252
61	0x3d721f5a	0.05911193
62	0x3acd2080	0.0015649945
63	0x3bb08200	0.005386591
64	0x3d0ea8d8	0.03482899
65	0x3c90aa6c	0.017659388
66	0x3d3a18a8	0.04543367
67	0x3d19d1da	0.037553646
68	0xbd7eb59a	-0.062184907
69	0xbd23ac48	-0.039959222
70	0xbbfc20a0	-0.007694319
71	0xbc848bb8	-0.016179904
72	0xbd40bdd0	-0.04705602
73	0x3ce85718	0.028361842
74	0x3c91b014	0.017784156
75	0xbd707296	-0.058703028
76	0x3d22d526	0.039754055
77	0xbd3d3af2	-0.046198793
78	0xbc538488	-0.012910016
79	0x3bfd3380	0.0077270865
80	0xbd4c224a	-0.049837388
81	0xbd1d9ac0	-0.03847766
82	0xbd552f30	-0.052046955
83	0xbd65a6f2	-0.056067415
84	0x3d588752	0.052863427
85	0x3c528a40	0.012850344
86	0x3d4ef7fc	0.050529465
87	0x3aa940c0	0.0012912974
88	0x3bcb89f0	0.006211512
89	0x3d515426	0.05110564
90	0xbbb57eb0	-0.005538784
91	0x3c939b30	0.018018335
92	0x3d61e3a2	0.05514873
93	0xbbc4d2d0	-0.006006576
94	0xbd7e393e	-0.06206631
95	0xbd7b1896	-0.061302744
96	0x3ca2927c	0.01984524
97	0x3ce8c598	0.028414533
98	0x3d64a482	0.05582095
99	0xbc88fa54	-0.016720928
100	0x3c9beb50	0.019033104
101	0x3cf66dfc	0.030081742
102	0xbd209e20	-0.0392133
103	0x3b383720	0.002810903
104	0x3d4f83b4	0.05066271
105	0x3c6b39d0	0.014357045
106	0x3d4fa636	0.05069562
107	0xbca71428	-0.020395353
108	0xbd1d8d80	-0.038465023
109	0xbd761a4a	-0.060083665
110	0x3bcb48f0	0.006203763
111	0xbd6e89a0	-0.05823672
112	0xbcf27018	-0.029594466
113	0x3d49d15a	0.04927192
114	0x3cfc6544	0.030810006
115	0x3d4d057e	0.050054066
116	0xbcbd4278	-0.023102984
117	0xbd2f115c	-0.042741165
118	0x3d7c8c5c	0.061657295
119	0xbbbf0330	-0.0058292374
120	0x3c32ec00	0.010920525
121	0x3d4d47d2	0.05011732
122	0x3d7e721e	0.06212055
123	0xbd3df468	-0.046375662
124	0xbc6e3c30	-0.014540717
125	0xbd027e02	-0.03185845
126	0x3d1e0d32	0.038586803
127	0xbbd78850	-0.006577529
128	0x3a980340	0.0011597648
129	0xbbdeb8a0	-0.0067969114
130	0x3d63a540	0.055577517
131	0xbcdbc830	-0.026828855
132	0x3d522472	0.05130429
133	0x3cdd7aa0	0.027036011
134	0x3d35470c	0.04425721
135	0xbd13d2ee	-0.03608983
136	0x3d3edb5e	0.046595924
137	0x3d777eca	0.06042365
138	0x3d07ee04	0.033185974
139	0xbc4994e8	-0.012303568
140	0xbc753a88	-0.014967568
141	0x3d3c8ff0	0.046035707
142	0x3cb0a7ac	0.021564327
143	0xbcfeda58	-0.031109974
144	0x3c9355a8	0.01798518
145	0xbd655054	-0.05598481
146	0x3c7b94c8	0.015355296
147	0x3d466694	0.04843767
148	0x3cfa4108	0.030548587
149	0xbc2974d0	-0.010342792
150	0x3d63709c	0.055527315
151	0x3d39c916	0.045357786
152	0x3c4ac9c0	0.0123772025
153	0xbcf18698	-0.029483125
154	0xbd272f9a	-0.04081688
155	0x3b073d80	0.0020636022
156	0x3d0d9c6e	0.03457301
157	0x3d3448c0	0.044014692
158	0xbc5f0da0	-0.013614088
159	0x3cdb3b8c	0.026761793
160	0xbd50bbbe	-0.050960295
161	0xbd26418a	-0.040589847
162	0xbcdf874c	-0.027286194
163	0x3d091fcc	0.03347759
164	0xbd43f968	-0.047845274
165	0x3c99aaa8	0.018758133
166	0x3c50ac60	0.01273641
167	0xbcd13ac8	-0.025540724
168	0xbd5f4f80	-0.054519176
169	0xbd3ba98a	-0.045815982
170	0x3d412818	0.047157377
171	0xbd6e5ee2	-0.058195956
172	0xbb57fdc0	-0.0032957643
173	0xbceb1964	-0.02869863
174	0x3c9a320c	0.018822692
175	0x3d3a2354	0.045443848
176	0x3d0afd92	0.03393323
177	0x3d2c94ac	0.042133972
178	0x3d2ab5de	0.04167735
179	0xbd0326f0	-0.032019556
180	0x3baf9650	0.005358495
181	0x3cd34024	0.02578742
182	0x3d2c8dac	0.042127296
183	0x3d2b4d20	0.0418216
184	0xbd680a40	-0.0566504
185	0xbd11008e	-0.03540092
186	0xbd30e412	-0.043186255
187	0xbc783f80	-0.015151858
188	0xbcf18c70	-0.029485911
189	0xbc0332a0	-0.008007675
190	0x3bce35c0	0.0062930286
191	0xbabeec40	-0.0014566258
192	0xbd224ca0	-0.039623857
193	0xbca6a104	-0.02034045
194	0x3c997710	0.018733531
195	0xbd061bac	-0.032741234
196	0xbd7f49b8	-0.062326163
197	0x3d642640	0.05570054
198	0x3d24e61e	0.04025852
199	0x39675e00	0.00022064894
200	0xbcb05054	-0.021522678
201	0x3bfd8990	0.007737346
202	0x3ca6143c	0.02027332
203	0x3c5c28c0	0.01343745
204	0x3cbf2484	0.023332842
205	0x3cefff64	0.029296584
206	0x3d6b0e9a	0.057386972
207	0x3ccc37c8	0.024928942
208	0x3d53966a	0.051657118
209	0xbb5b9240	-0.003350392
210	0x3d35e270	0.0444054
211	0xbd5990be	-0.053116553
212	0xbb5a6a80	-0.003332764
213	0xbd317a68	-0.043329626
214	0xbc9f1adc	-0.019421987
215	0xbd3743aa	-0.044742264
216	0x3d24a406	0.040195487
217	0x3c0d5748	0.0086267665
218	0xbc87326c	-0.016503535
219	0x3b815b90	0.0039476827
220	0x3d3122f0	0.04324621
221	0xbd4a567a	-0.049398877
222	0xbd2e3404	-0.042530075
223	0xbd3275c0	-0.043569326
224	0xbb7391e0	-0.0037165806
225	0x3bc43a90	0.0059884265
226	0x3d7ee900	0.062233925
227	0xbbedd510	-0.007258065
228	0x3d5d41c8	0.054017812
229	0xbd7ae2d6	-0.061251484
230	0xbd4c9e54	-0.04995568
231	0xbd244244	-0.04010226
232	0x3c0f4968	0.008745529
233	0xbb7337c0	-0.0037112087
234	0xbd36f1d8	-0.044664234
235	0x3d4ce486	0.050022624
236	0xbc72ef50	-0.014827564
237	0xbc122cd0	-0.008921817
238	0x3c2f1510	0.010686174
239	0x3d57272a	0.052527584
240	0xbc511478	-0.012761228
241	0xbc90a84c	-0.017658375
242	0x3d3725ee	0.044713907
243	0xbd30546e	-0.04304927
244	0xbd258f44	-0.040419832
245	0xbd534b3c	-0.05158542
246	0x3d71601c	0.058929548
247	0x3bb7e310	0.0056117848
248	0x3b65a140	0.003503874
249	0x3d7ec9fc	0.062204346
250	0x3d354a48	0.044260293
251	0x3d262612	0.04056365
252	0x3ca00ce4	0.019537397
253	0x3ce5652c	0.028002344
254	0x398ed500	0.00027243048
255	0xbd788d02	-0.06068135

mean_layer.weight f4 [2, 256]
0	0xbbab9730	-0.005236529
1	0xbccb1564	-0.024790473
2	0xbaea3cc0	-0.0017870888
3	0xbd2fefda	-0.04295335
4	0x3c21cfd8	0.009876214
5	0xbd5e1fe8	-0.054229647
6	0x3bd97470	0.006636195
7	0xbc7b6448	-0.015343733
8	0x3c0207c0	0.007936418
9	0xbd25fde4	-0.040525332
10	0xbcc52b68	-0.02406855
11	0x3d55bfe0	0.05218494
12	0xbd253692	-0.040335245
13	0xbd081878	-0.03322646
14	0x3c90ef14	0.017692126
15	0x3c241870	0.010015592
16	0x3d2c6156	0.042085014
17	0xbd216980	-0.039407253
18	0xbbfdf7f0	-0.0077505037
19	0x3b7acf00	0.0038270354
20	0xbd7aa412	-0.061191626
21	0xbd08fbb6	-0.033443175
22	0xbd2f7116	-0.042832457
23	0xbd16ea2a	-0.03684441
24	0xbd7df5d0	-0.062002003
25	0x3d4ebea0	0.050474763
26	0xbcb495f4	-0.02204416
27	0xbcd0fb48	-0.025510445
28	0x3d4dfb6a	0.050288595
29	0x3b9ace10	0.0047242716
30	0xbbc67f90	-0.006057687
31	0x3d382664	0.044958487
32	0xbd126374	-0.035739377
33	0xbd49516c	-0.049149916
34	0x3cefeb64	0.029287048
35	0x3d2e41b8	0.042543143
36	0xbc99601c	-0.018722586
37	0x3d26273e	0.040564768
38	0x3cba1ef8	0.022719845
39	0xbc763ab0	-0.015028641
40	0xbcf03ee8	-0.029326871
41	0x3c562310	0.013069883
42	0xbd3926a2	-0.04520286
43	0xbc1ce670	-0.009576425
44	0xbd627622	-0.05528844
45	0xbd42d96c	-0.04757063
46	0xbc611ac8	-0.013739295
47	0xbd7dc264	-0.061952963
48	0x3c24bf38	0.010055356
49	0x3d655602	0.055990227
50	0x3b1c0fe0	0.0023813173
51	0xbcb77e48	-0.022399083
52	0x3d75b822	0.059990056
53	0x3bcd4c60	0.006265208
54	0xbc23d680	-0.009999871
55	0xbd26b8de	-0.040703647
56	0x3c92ede4	0.0179357
57	0x3d3e2040	0.046417475
58	0xbd4a14be	-0.049336188
59	0xbcbaf478	-0.02282165
60	0xbd2f0950	-0.04273349
61	0x3bd25d00	0.006419778
62	0xbcd4204c	-0.025894307
63	0x3ae7e680	0.0017692596
64	0xbc8d8490	-0.017275125
65	0x3c7503a0	0.014954478
66	0x3c02bbb8	0.007979326
67	0x3d6ec218	0.05829057
68	0x3d55325e	0.052049987
69	0x3cb757d4	0.022380747
70	0xbd70f790	-0.058829844
71	0x3d05fb90	0.03271061
72	0x3d7f5c54	0.06234391
73	0x3d1077c4	0.035270467
74	0x3d67dc1e	0.056606404
75	0xbb860740	-0.0040902197
76	0x3ca4c9d0	0.020115763
77	0xbd42b80c	-0.047538802
78	0x3d4418f8	0.047875375
79	0x3cf369d4	0.029713549
80	0xbcdc1364	-0.026864715
81	0xbd179f62	-0.037017234
82	0xbd538c1a	-0.051647283
83	0x3d343ec2	0.044005163
84	0x3c5e3ab0	0.013563797
85	0x3a1ae400	0.00059086084
86	0x3d7cba7c	0.061701283
87	0xbd65dbea	-0.05611793
88	0xbd34194e	-0.043969445
89	0x3d4c0112	0.04980571
90	0x3ca9b208	0.020714775
91	0xbd4e4d9c	-0.050366983
92	0xba16bc00	-0.000575006
93	0x3d22bb9a	0.039729692
94	0xbd1adc1a	-0.03780756
95	0x3c5d36a0	0.013501793
96	0x3d117b4e	0.035517983
97	0x39475400	0.00019009411
98	0x3d155152	0.036454506
99	0xbd21efb6	-0.039535247
100	0x3cd3bdec	0.025847398
101	0x3cfe536c	0.031045638
102	0xbca8dd5c	-0.020613365
103	0xbbcfaab0	-0.006337486
104	0x3cf0fca8	0.02941735
105	0xbb58e060	-0.0033092722
106	0x3d3f2142	0.046662576
107	0xbcab2364	-0.020890899
108	0x3d741e08	0.059598953
109	0x3c77e858	0.015131079
110	0xbc942b58	-0.018087074
111	0x3c803dd8	0.01565449
112	0xbd0a91dc	-0.03383051
113	0xbc5552b0	-0.0130202025
114	0x3b234f20	0.0024918988
115	0x3cd8f628	0.026484564
116	0xbbc7d2f0	-0.0060981438
117	0x3c8da150	0.017288834
118	0x3c5133d0	0.012768701
119	0x3d58fd7e	0.052976124
120	0x3cb9cb90	0.022680074
121	0xbd062f84	-0.03276016
122	0x3d561dce	0.052274518
123	0x3cde5760	0.027141273
124	0xbcbc4610	-0.022982627
125	0xbcf02450	-0.02931419
126	0xbc935088	-0.017982736
127	0x3d6b45ae	0.0574395
128	0xbd568260	-0.05237043
129	0x3d171a1a	0.036890127
130	0xbcdd1cf4	-0.026991345
131	0xbbe48b50	-0.006974615
132	0xbc1c20d8	-0.009529315
133	0xbca9bfb8	-0.020721301
134	0x3d71449e	0.05890333
135	0xbd4b4a66	-0.0496315
136	0xbd291af8	-0.041285485
137	0xbcdab3ec	-0.026697122
138	0x3d39fcac	0.045406982
139	0xbbd2cd60	-0.006433174
140	0xbcde34d0	-0.027124792
141	0xbd37ce7c	-0.044874653
142	0xbac84500	-0.0015279353
143	0xbd04a848	-0.032387048
144	0xbd751db2	-0.059842773
145	0x3cd6901c	0.026191764
146	0x3cd3ac88	0.025839105
147	0xba035480	-0.0005009845
148	0x3c203250	0.00977762
149	0xbbab41e0	-0.005226359
150	0xbd67f532	-0.05663032
151	0x3d1669b6	0.036721908
152	0xbcbffba4	-0.023435421
153	0x3d4fdb8a	0.05074648
154	0x39555e00	0.0002034828
155	0xbbac6150	-0.005260624
156	0x3b0a5600	0.002110839
157	0xbb791900	-0.0038009286
158	0x3d616696	0.055029474
159	0xbcd34668	-0.025790408
160	0x3d7c6ab2	0.06162519
161	0x3d0b4cfc	0.034008965
162	0xbba98670	-0.005173497
163	0xb935b600	-0.00017329305
164	0x3c2a3210	0.010387912
165	0x396d7200	0.0002264455
166	0x3d241984	0.040063396
167	0x3d5a5ab0	0.053309143
168	0x3d29d942	0.04146696
169	0x3d5d3f86	0.05401566
170	0xbd0c146a	-0.034199156
171	0x3b191b40	0.002336219
172	0x3c265e80	0.0101543665
173	0xbb320720	-0.0027164891
174	0xbc0c6230	-0.008568332
175	0xbd47a276	-0.04873892
176	0x3d70120e	0.05861097
177	0xbcd71914	-0.026257075
178	0xbd6ff06a	-0.058578886
179	0x3ca72448	0.020403042
180	0x38778800	5.901605e-05
181	0x3d6f4b4a	0.05842141
182	0xbc8e6a6c	-0.01738473
183	0x3d4275c2	0.047475584
184	0x3d617484	0.05504276
185	0x3bdba810	0.006703384
186	0x3b4461a0	0.0029965416
187	0xbd3187b4	-0.043342307
188	0xbcac595c	-0.021038704
189	0x3d1082f4	0.035281137
190	0x3d771642	0.06032396
191	0xbbd4fae0	-0.006499633
192	0xbd037cfc	-0.032101616
193	0x3bed3340	0.0072387755
194	0x3b373fa0	0.0027961507
195	0xbbaf9dd0	-0.005359389
196	0x3d718f68	0.058974653
197	0x3cde63dc	0.027147226
198	0xbcb606e0	-0.022220075
199	0x3d0c52a6	0.034258507
200	0x3b111b00	0.0022141337
201	0xbd5136c2	-0.05107761
202	0x3cd8aafc	0.02644872
203	0x3d1bea5e	0.038065307
204	0xbd35af1a	-0.044356443
205	0x3cc53fbc	0.024078242
206	0x3d7e83b6	0.062137328
207	0x3d377e90	0.044798434
208	0xbb5ed980	-0.0034004152
209	0x3d615870	0.05501598
210	0x3d4c56d6	0.0498875
211	0xbd6285b0	-0.055303276
212	0xbc89434c	-0.016755722
213	0xbabacac0	-0.0014251098
214	0x3d53c800	0.051704407
215	0xbd1faa0c	-0.03898053
216	0x3d0410a0	0.032242417
217	0xbd531564	-0.05153407
218	0x3d0b3356	0.033984505
219	0x3c831d94	0.016005315
220	0x3d61fbf2	0.055171914
221	0x3c93a82c	0.018024527
222	0xbc2644b8	-0.01014822
223	0x3d15ba72	0.03655476
224	0x3d153158	0.03642401
225	0xbc9ea110	-0.01936391
226	0x3d592dd8	0.053022236
227	0xbd1d4320	-0.038394094
228	0xbd30988e	-0.043114237
229	0xbc625538	-0.013814263
230	0xbced612c	-0.028977
231	0xbaadb080	-0.0013251454
232	0x3c0b82e8	0.008515097
233	0xbd042106	-0.032258056
234	0xbd189e26	-0.037260197
235	0xbd3b3062	-0.04570044
236	0x3cda832c	0.026673876
237	0x3d55e8bc	0.052223906
238	0x3cd0a198	0.025467679
239	0xbd0eb26a	-0.034838118
240	0xbcc47ecc	-0.023986243
241	0x3d3f2196	0.04666289
242	0x3c1a8eb8	0.009433441
243	0x3c856c38	0.016286954
244	0x3d3184dc	0.043339595
245	0xbd6a1e92	-0.05715806
246	0xbc4a8a70	-0.012362108
247	0xbd1a4506	-0.037663482
248	0xbd5c8a76	-0.053842984
249	0xbc8ad75c	-0.016948394
250	0x3d474ac8	0.0486553
251	0x3d513cf6	0.051083528
252	0xbc5c5c00	-0.013449669
253	0xbd0d050a	-0.034428634
254	0x3d101db8	0.035184592
255	0xbd0348a0	-0.032051682

mean_layer.bias f4 [2]
0	0x3d73e22a	0.05954186
1	0x3d0a1690	0.033712924

log_std_layer.weight f4 [2, 256]
0	0xbc177ac0	-0.0092455745
1	0xbd2f94a4	-0.042866364
2	0xbd148124	-0.03625597
3	0xbc085a28	-0.008322276
4	0x3d13ac80	0.03605318
5	0x3d38952a	0.04506413
6	0x3d5a0730	0.05322951
7	0x3c4e16d0	0.012578681
8	0xbd03bc42	-0.03216196
9	0x3d725398	0.059161752
10	0xbd73ad7c	-0.05949162
11	0xbd5b20e2	-0.053498156
12	0x3cb084c8	0.02154769
13	0xbbd77540	-0.0065752566
14	0x3c98b6d0	0.01864186
15	0xbd0be7bc	-0.034156546
16	0xbc5e6040	-0.0135727525
17	0xbd07e0da	-0.03317342
18	0xbcec3058	-0.028831646
19	0xbcd37584	-0.025812872
20	0x3d5e6f28	0.054305226
21	0x3cccbce8	0.024992421
22	0x3ca2c1b8	0.019867763
23	0xbd7b364a	-0.06133107
24	0x3d025b14	0.03182514
25	0xbd22e2b6	-0.03976699
26	0xbd65343c	-0.055958018
27	0x3cd69d58	0.026198074
28	0xbb3364a0	-0.002737321
29	0xbc21c330	-0.0098731965
30	0xbd300e02	-0.04298211
31	0xbcc3aabc	-0.023885123
32	0xbd322ae4	-0.043497935
33	0xbd4acea0	-0.04951346
34	0xbc536d18	-0.012904428
35	0x3d0e8c4c	0.034801766
36	0xbb680640	-0.0035404116
37	0xbd571b9a	-0.052516557
38	0xbca73438	-0.020410642
39	0x3c3cf210	0.011532322
40	0xbc996e60	-0.018729389
41	0x3d60ffb8	0.054931372
42	0xbcab35bc	-0.020899646
43	0x3c70e4b8	0.014702968
44	0x3ca7d740	0.020488381
45	0x3caa5d14	0.020796336
46	0xbd64fbac	-0.055904076
47	0x3d61e6d8	0.05515179
48	0xbbaddae0	-0.005305633
49	0xbd0a0ec4	-0.033705488
50	0xbc04f2f0	-0.008114561
51	0x3d1034dc	0.03520666
52	0xbce07ec0	-0.02740419
53	0x3c823ca4	0.015898056
54	0x3cf791c4	0.030220874
55	0x3c823304	0.015893467
56	0x3d26bc2e	0.040706806
57	0x3c3a0660	0.011354059
58	0xbd4ea4ae	-0.05045002
59	0x3bb3ad00	0.0054832697
60	0x3c2636e0	0.010144919
61	0xbc968a78	-0.018376574
62	0x3d0e902e	0.03480547
63	0x3d64be76	0.0558457
64	0x3d24a65e	0.040197723
65	0xbd44f990	-0.048089564
66	0x3c355738	0.011068158
67	0xbb0142a0	-0.001972355
68	0xbd55ddfc	-0.052213654
69	0xbd73b7ae	-0.059501342
70	0x3d16daa4	0.036829606
71	0x3cbc85b8	0.02301298
72	0x3c8653fc	0.016397469
73	0xbd7dee90	-0.06199509
74	0x3d1a6558	0.037694305
75	0x3d47bc0e	0.048763327
76	0x3abbcdc0	0.0014328286
77	0xbd18af6a	-0.037276663
78	0x3d718b8a	0.058970965
79	0x3d2eb114	0.042649344
80	0xbd440534	-0.047856525
81	0xbd23ff2a	-0.040038265
82	0x3b9f1ae0	0.0048554987
83	0xbd7c62e6	-0.061617754
84	0xbd12cebc	-0.03584169
85	0x3d7d53d8	0.061847538
86	0xbd5c7c06	-0.053829215
87	0xbc425ec0	-0.0118634105
88	0x3d16ac6a	0.03678552
89	0xbbeec3f0	-0.007286541
90	0xbc43cc38	-0.011950545
91	0xbd2abc92	-0.04168374
92	0xbd2edf64	-0.04269351
93	0x3ce058d8	0.027386114
94	0xbd273f34	-0.04083176
95	0x3b2850c0	0.0025682896
96	0xbb05b480	-0.0020401776
97	0x3c6a7780	0.014310718
98	0x3c0f3518	0.008740686
99	0x3d751a3c	0.059839472
100	0xbcdd1b04	-0.026990421
101	0x3d1d1d26	0.038357876
102	0xbc44ac20	-0.012003928
103	0xbd078dee	-0.03309434
104	0x3d433e20	0.04766667
105	0x3bee4950	0.007271923
106	0xbcf15354	-0.02945868
107	0x3d3184c2	0.0433395
108	0xbd6c478a	-0.057685412
109	0x3cddcbf8	0.027074799
110	0xbd33f850	-0.04393798
111	0x3d59f7f8	0.053214997
112	0x3ce98c54	0.028509296
113	0x39a44900	0.00031334907
114	0x3ce619a4	0.028088398
115	0x3d0935b4	0.03349848
116	0x3cdf42b8	0.027253494
117	0x3d028a6e	0.031870298
118	0xbd5342d2	-0.051577397
119	0xbc0bce10	-0.008533016
120	0x3cc84cf8	0.024450764
121	0xbbfd89d0	-0.007737376
122	0x3ca2688c	0.019825242
123	0x3c7ba2d8	0.015358649
124	0xbd1fb392	-0.03898961
125	0x3d16f280	0.03685236
126	0xbc89f028	-0.016838148
127	0x3d760d5e	0.06007134
128	0x3c2258d8	0.009908877
129	0x3a031c80	0.00050015
130	0xbd773fac	-0.060363457
131	0xba425700	-0.00074134767
132	0x3bf4f7e0	0.007475838
133	0x3d0341dc	0.03204523
134	0xbc547c80	-0.012969136
135	0x3d3668c2	0.0445335
136	0xbc7b0158	-0.015320145
137	0x3cf83ae4	0.030301519
138	0xbb0822a0	-0.0020772591
139	0x3c765590	0.015035048
140	0x3ce2fea8	0.02770932
141	0x3d424bce	0.047435574
142	0xbd669e22	-0.05630315
143	0xbcab7f18	-0.020934626
144	0x3cb70208	0.022339836
145	0x3d5e347e	0.05424928
146	0xbc12de70	-0.008964166
147	0xbd3aa95a	-0.045571662
148	0x3d73a268	0.059481055
149	0x3d283e62	0.041075118
150	0xbc7ec718	-0.015550397
151	0xbc3c9700	-0.011510611
152	0xbd16c0b6	-0.036804877
153	0x3cb09b0c	0.021558307
154	0xbd0ddd26	-0.03463473
155	0x3d1ff612	0.03905303
156	0xbd4f309c	-0.050583467
157	0x3d2b8f70	0.04188484
158	0xbc0dd0e0	-0.008655757
159	0x3caf7930	0.021420091
160	0xbd172a4a	-0.036905564
161	0xbd721b6a	-0.059108175
162	0xbd14958c	-0.03627543
163	0x3cf441e8	0.029816583
164	0x3cdc1578	0.026865706
165	0x3b82f570	0.0039965436
166	0xbc84c8e0	-0.016209066
167	0xbc1d66d8	-0.009607039
168	0x3a184a80	0.0005809441
169	0x3d00ee0a	0.03147701
170	0x3d6cfc08	0.057857543
171	0xbc230608	-0.009950168
172	0x3d2f198e	0.04274898
173	0xbd5d2658	-0.053991646
174	0xbd61321c	-0.05497943
175	0x3c889870	0.01667425
176	0x3ca904b8	0.020632133
177	0x3d1b0d72	0.03785462
178	0x3d6c5a5c	0.05770336
179	0x3b96e2c0	0.0046046674
180	0x3d2f1212	0.042741843
181	0xbc8958dc	-0.016766004
182	0x3b2161c0	0.0024624914
183	0xbcd6777c	-0.026180021
184	0x3d1978a4	0.037468567
185	0x3d416218	0.04721269
186	0x3d15b1fe	0.0365467
187	0xbd23d380	-0.039996624
188	0xbd2b3000	-0.041793823
189	0x3ca9480c	0.020664237
190	0x3d62207c	0.05520676
191	0xbcb32e88	-0.021872774
192	0xbd7fa724	-0.062415257
193	0x3cff09a0	0.03113252
194	0x3bfc6cf0	0.007703416
195	0xbcbb3660	-0.022853076
196	0x3cadd980	0.021221876
197	0x3c21d810	0.0098781735
198	0x3bec1db0	0.0072056875
199	0x3c7e31e0	0.015514821
200	0x3cf1bb40	0.029508233
201	0x3d31acd0	0.043377697
202	0xbcd23110	-0.02565816
203	0xbc43b690	-0.011945382
204	0x3c7236a8	0.014783539
205	0x3d31a0c0	0.043366194
206	0x3d71d8ba	0.059044577
207	0x3cb7105c	0.022346668
208	0x3c923d48	0.017851487
209	0x3d211e10	0.03933531
210	0x3d06a80e	0.032875113
211	0xbcc837dc	-0.024440698
212	0x3c150c78	0.009097211
213	0x3b1f6340	0.0024320632
214	0x3ce70a34	0.028203107
215	0x3a084c80	0.00051993877
216	0x3c5ebb88	0.013594516
217	0xbb78d800	-0.0037970543
218	0x3d1c537e	0.03816556
219	0xbd671b2c	-0.056422397
220	0xbd4642cc	-0.048403546
221	0xbd787330	-0.060656726
222	0xbc865d04	-0.016401775
223	0xbb5b5820	-0.0033469275
224	0xbd3a7f5a	-0.04553161
225	0xbcd29584	-0.02570606
226	0x3b9ee850	0.004849471
227	0xbd7a6ad8	-0.06113705
228	0xbb8d2c50	-0.004308261
229	0x3cd1aa00	0.025593758
230	0xbcf23afc	-0.029569142
231	0x3cd348e0	0.025791585
232	0x3abcf600	0.0014416575
233	0x3d7efc50	0.062252343
234	0xbd5a94a2	-0.053364404
235	0x3c4c9c90	0.012488499
236	0x3d1ce43a	0.03830359
237	0x3ced4f9c	0.028968625
238	0x3cc297e0	0.02375406
239	0x3b4b3a00	0.0031009912
240	0xbd65c6d0	-0.056097806
241	0xbcc347bc	-0.023837917
242	0x3d377df2	0.044797845
243	0x3ce60ef8	0.02808331
244	0xbbcca7b0	-0.006245576
245	0xbd44d61c	-0.048055753
246	0x3bd0b2c0	0.006368965
247	0xbd161cca	-0.03664855
248	0xbbaffb00	-0.0053704977
249	0xbcb10784	-0.021610029
250	0x3d2f6604	0.0428219
251	0xbd06fff6	-0.032958947
252	0xbbbfd260	-0.005853936
253	0xbc1954b8	-0.009358577
254	0xbd614466	-0.05499687
255	0xbb5dcc80	-0.0033843815

log_std_layer.bias f4 [2]
0	0xbd798340	-0.060916185
1	0x3bb145d0	0.0054099336
