paper_reproductions/adaptive_quantum_cvrp/models/rl_run_test_output/sac_penalty_learner_final_critic.pth (torch, 552001 bytes, 10 tensors)

fc1_q1.weight f4 [256, 8]
000000 a4 e6 06 3e eb 5b ed bd 2d bf 47 3d dd 71 83 3d
       0.1317392 -0.115897976 0.048766304 0.06418202
000010 6f ea 3c 3d 64 b8 2e 3d b6 04 83 3e bb 80 af be
       0.04612201 0.042656317 0.25589532 -0.342779
000020 61 5f d7 bc fc 27 8d 3e fb f8 87 bd d1 b3 96 be
       -0.026290597 0.27569568 -0.06639286 -0.29434064
000030 09 1c 86 bd 2a 6a fd bd e1 8d 00 bd 24 f3 32 be
       -0.06548316 -0.12373765 -0.031385306 -0.17475563
000040 fc c0 86 3e 6d d6 e4 bd c0 b4 a4 be 56 6e 73 bd
       0.2631911 -0.11173711 -0.3216915 -0.059431396
000050 6e 77 e4 bd 04 f7 7a be af ef f5 bd 1d dd 8d 3e
       -0.11155592 -0.24508291 -0.12008607 0.2770776
000060 5a 65 fa 3c 5e 5e 69 3e 91 85 20 be 2f 36 58 be
       0.030565906 0.22789904 -0.15675952 -0.2111442
000070 90 59 3f be 63 c3 8e be 7f fd 20 3d 32 40 49 bd
       -0.18686509 -0.27883443 0.039304253 -0.049133487
000080 65 e6 e2 bd 73 1b 76 be 4d 80 a1 3e 2a 34 24 bd
       -0.110791005 -0.24033909 0.31543198 -0.04008881
000090 07 e3 a8 3e 4b b5 2a 3e 36 d9 ac 3e 41 c7 18 3e
       0.32985708 0.1667072 0.3375947 0.1491976
0000a0 b2 39 00 be 89 9d de bd 9f 25 80 3e 79 da 0f bd
       -0.12522009 -0.10869891 0.25028703 -0.03512046
0000b0 c0 2a 7c be af 51 39 be 2f 1a 46 3d 91 9f b0 3d
       -0.24625683 -0.18097566 0.048364814 0.08624185
0000c0 02 b6 bd bd 83 fa 7a bb 98 3d 32 3e e6 23 c5 3d
       -0.09263231 -0.003829629 0.17406309 0.09625988
0000d0 2a 4e be 3d b3 e9 83 be e2 67 46 3e 39 1d b4 3e
       0.09292252 -0.25764236 0.19375566 0.35178545
0000e0 e9 fa d4 3d 6c 6e 16 be 56 6f 86 3e b3 bf a2 bd
       0.1039942 -0.1469056 0.26256818 -0.0794672
0000f0 68 df 37 3e 42 6d c7 bd bb 76 53 3d ef e2 3f be
       0.17956316 -0.09737636 0.051626902 -0.18738912
000100 b9 3a 70 3d 7c 02 7b be 2a 4e 81 3e c7 4d 30 be
       0.058649752 -0.24512666 0.25254947 -0.1721717
000110 4d 62 a6 3e 87 a2 0f be a3 74 1a 3e 29 31 cb 3d
       0.32496873 -0.14026843 0.15083556 0.09921486
000120 54 b7 38 be a1 13 a3 bd 3a b8 b4 3e 9b 61 1c bc
       -0.18038684 -0.07962728 0.35296804 -0.009544755
000130 2d de 73 3d a3 a6 a5 be 79 4a d1 bd d8 a0 32 3e
       0.059538055 -0.32353696 -0.10219283 0.1744417
000140 f0 3d 26 3e ee fc 21 be 84 9a 9c bd 8b b6 5f be
       0.16234565 -0.15819141 -0.07646659 -0.21846978
000150 67 ed 8d 3e dd ea 1a 3d ff 1f 09 be 85 69 95 bd
       0.27720186 0.03782164 -0.13391112 -0.07295517
000160 8c 3d 58 3c d8 f8 23 3d 7d c4 1d 3e ad 77 62 be
       0.013198268 0.040032238 0.15406986 -0.22115965
000170 7c 0d 59 3e bc ea 35 3e fd d5 8b bd 18 66 05 bd
       0.2119655 0.17765325 -0.068279244 -0.032568067
000180 e9 1c 80 be cd d1 50 3d 10 23 89 3e d4 bc 44 3e
       -0.25022057 0.05098133 0.26784563 0.19212657
000190 0d 7f 7a be 88 5f 6d be 44 ea aa 3e 3a 7e 7b be
       -0.24462529 -0.23180974 0.33381855 -0.2455987
0001a0 9c c2 8c bd 90 81 69 3e 7c dc 38 be 75 22 76 be
       -0.06873056 0.2280333 -0.18052858 -0.24036582
0001b0 12 b9 4e 3e ae 3d f2 3d 9b f6 6d 3d f2 33 04 bc
       0.20187786 0.11828171 0.05809651 -0.008069025
0001c0 52 3d c5 3d ec 2c ce 3d 8e f9 45 3e 69 cf 07 3e
       0.096308365 0.10067162 0.19333479 0.13262714
0001d0 9a 29 ef 3c 2e 95 8b 3e d3 e7 e4 bc 96 7f 45 be
       0.029194642 0.27262253 -0.027942574 -0.19286951
0001e0 56 0f 87 be a8 90 28 3e 9c f6 d0 bb 74 9f 97 be
       -0.26378888 0.16461432 -0.0063770544 -0.2961384
0001f0 cf f4 cd 3d f7 cc a8 3e 06 b2 aa be a3 1a 94 be
       0.10056459 0.32968876 -0.33338946 -0.28926572
000200 42 44 b2 3e 29 95 ac 3e 12 49 db bd ee c4 26 3c
       0.34817702 0.3370755 -0.107072964 0.010178788
000210 2c 6e 13 be 37 a7 9a bd ee b6 87 3e c1 49 ec bd
       -0.14397496 -0.07551425 0.26506752 -0.11537505
000220 8a cc a6 3e 36 7f 8e be 41 00 17 be fa 17 b1 3d
       0.32577926 -0.2783143 -0.1474619 0.08647151
000230 26 20 a4 3e ab 97 73 be 43 57 0b 3e b2 c8 ae 3e
       0.32055777 -0.23788325 0.13607506 0.34137493
000240 0e b1 b1 3e 01 ac aa bb 03 2b 4c 3d 64 5a 56 3e
       0.34705395 -0.0052084927 0.049845707 0.20932919
000250 0d de 8a 3e 73 3a 52 3e 7d 1a b2 bc 8a f4 ff 3b
       0.27122536 0.20530109 -0.021741146 0.0078111337
000260 70 bd 69 bc 9a ae f4 3d d2 24 b2 bc d3 4e 92 be
       -0.014266357 0.11947365 -0.021746073 -0.28575763
000270 33 bf a8 3d 09 38 9e be 85 88 11 be 37 c0 1d 3e
       0.08239593 -0.30902126 -0.14212234 0.15405355
000280 56 fe a4 be 10 c9 a7 be 17 d6 88 3d 97 79 d0 bd
       -0.32225293 -0.32770586 0.066814594 -0.101794414
000290 10 b0 8c 3d 41 ba 1c be ad 59 0a be 24 73 83 3e
       0.06869519 -0.15305425 -0.13510771 0.25673783
0002a0 7d 04 eb bd 87 b1 ae be 5d 24 56 3e cc fe e0 3d
       -0.114754654 -0.34119818 0.20912309 0.10986099
0002b0 77 db 25 3c d2 aa ac 3e ec 3d 79 be 60 a1 72 be
       0.010123125 0.33724076 -0.24340028 -0.23694372
0002c0 54 58 5c 3d b5 3e 74 be b5 c0 91 bd d6 7f a0 be
       0.053795174 -0.23852046 -0.07116834 -0.3134753
0002d0 d4 23 66 3e 21 9c 60 be 72 3b 4f be 0f 32 79 3d
       0.22474605 -0.21934558 -0.2023752 0.060838755
0002e0 d5 9c 65 3e c2 b9 af 3c 23 8a 0a be 47 5c b2 3e
       0.22423108 0.02145088 -0.13529257 0.34836027
0002f0 32 a5 4c 3d 21 d3 9f be 53 a1 1f be 25 97 b8 3d
       0.04996223 -0.31215766 -0.15588884 0.090132035
000300 67 22 65 bd 91 51 d7 3d 03 77 15 be b8 ae 9a 3e
       -0.05594101 0.105136044 -0.1459618 0.30211425
000310 8a a7 5c bd 26 ca ed bd 3c 93 06 be 4b 5f 73 3e
       -0.053870715 -0.116108224 -0.13142103 0.2376682
000320 d5 25 8a bc 3d 46 b2 bc 66 76 78 3e 5d 70 8f 3e
       -0.016863743 -0.021762008 0.24263915 0.28015414
000330 24 2b 7f bc d0 bc 7f 3e 5a 13 27 3e bb a0 8c 3e
       -0.01557425 0.2497437 0.16315976 0.27466378
000340 f0 31 f4 bd 70 98 8d 3d 1f 35 a1 be ad 4b 91 3e
       -0.11923587 0.06913841 -0.3148584 0.2837805
000350 4b 49 9a be 43 e9 45 bc 4c 10 2a be 57 3f 84 3e
       -0.30134043 -0.01207954 -0.1660778 0.25829574
000360 ac 0a 31 be 80 6d a0 be 45 cd 29 3d b8 5d 19 3e
       -0.17289227 -0.31333542 0.041455526 0.14977157
000370 a1 75 1d 3e 73 ff 98 ba 4a 0c 5a 3e 2d 67 92 3c
       0.15376903 -0.001167281 0.2129375 0.017871464
000380 08 c1 b3 be 48 b4 5a be 66 b5 9d be 02 7b e7 bd
       -0.3510821 -0.21357834 -0.3080246 -0.11302759
000390 f4 e7 5b 3e 4f 84 6f be 1e 1f 36 3e 86 5a 58 3e
       0.21475202 -0.23390315 0.17785308 0.21128282
0003a0 78 4e c1 bd c9 d9 16 3e b7 7c ec 3c 40 b4 86 bd
       -0.09438795 0.14731516 0.028868062 -0.06577349
0003b0 4a bf a6 be 63 a8 a8 3e ff 4b 9b bd fc a1 50 3d
       -0.32567817 0.3294097 -0.075828545 0.05093573
0003c0 0c d8 e7 bd f5 fb ab be 4b 41 94 3e e6 d0 32 bd
       -0.113205045 -0.33590665 0.28956065 -0.043656252
0003d0 d1 86 c5 bd cc 3d b1 be ac 95 9e 3e 88 23 9f 3e
       -0.09644855 -0.3461746 0.30973566 0.31081796
0003e0 c6 4e 94 3e df e8 13 3e d1 7a 82 3e 1c 56 7d 3d
       0.2896635 0.14444302 0.25484326 0.0618497
0003f0 a6 66 75 be c5 ba 12 3e 49 fe fe bd 31 6a fe 3a
       -0.23964939 0.1432906 -0.12450845 0.001941031

fc1_q1.bias f4 [256]
000000 fc 5b 9d 3d 54 32 87 bd 04 13 11 3c f4 25 2c 3e
       0.0768356 -0.06601396 0.008854631 0.16811353
000010 6d c1 b1 3e 3e d5 91 3e f2 60 31 3d ef 0e 94 3e
       0.34717885 0.28483003 0.043305345 0.28917643
000020 7a ff 54 3e 21 f4 f8 3d 0d 00 87 3e 4a d1 b7 3d
       0.20800582 0.12155939 0.26367226 0.089754656
000030 aa 54 33 3e c7 45 80 3e 0e 6f 1d be 98 71 a3 3e
       0.17512766 0.25053236 -0.15374395 0.31922603
000040 4b 3f 7c 3e 68 fe 95 3e ce a6 6d 3e ea 17 a1 be
       0.2463352 0.2929566 0.23208162 -0.31463557
000050 a1 42 03 3e 60 85 18 bd 6d ef 54 3d 24 2d 33 be
       0.12818386 -0.03723657 0.051986147 -0.17497689
000060 25 89 b5 3d 1b 8c a3 3e 01 56 84 be 22 4b 8c 3e
       0.08864049 0.3194283 -0.25846866 0.27401072
000070 54 42 98 3e 5d 5d a8 be ca c4 fa 3d 2b c6 8f be
       0.29738104 -0.3288373 0.12244566 -0.28080878
000080 ea 83 35 3e 42 0d 4f 3e 4f 14 3b be fe e1 07 3e
       0.17726102 0.20219901 -0.18269466 0.13269803
000090 c1 68 81 be 26 81 11 3e d4 e8 78 be f5 15 c0 3d
       -0.25275233 0.14209422 -0.24307567 0.09379188
0000a0 6c 91 2c bd 6a 41 a5 3e 66 c2 6e be 0d 88 d8 bc
       -0.042130873 0.3227647 -0.23316345 -0.026432062
0000b0 55 56 b9 bc 2d b7 de 3d 73 0e 03 be b1 96 8d 3e
       -0.022624174 0.10874782 -0.1279848 0.2765403
0000c0 de 35 23 be 40 fb 83 3e 61 6c 56 be b1 ec 40 3d
       -0.15938517 0.25777626 -0.20939781 0.047100727
0000d0 a8 db 0d be b5 5a ca bd 2f 10 6a 3e e3 4e 4a 3d
       -0.13853323 -0.09880582 0.22857736 0.04939164
0000e0 8c 38 48 3e 23 7b fa 3d 14 6d f7 bd f1 83 59 be
       0.19552821 0.12230518 -0.12081352 -0.21241738
0000f0 42 95 9a 3e b0 65 93 3e 8d e9 60 be 5e f3 a7 3e
       0.30192 0.2878852 -0.21964093 0.32802862
000100 ad 5e e1 3d f4 6d 85 3e cb 1a e5 bd 0c 68 06 3e
       0.11004386 0.2606045 -0.11186751 0.13125628
000110 53 b9 97 3e 02 3d a0 be 86 d4 5c bd ed 64 99 be
       0.2963358 -0.31296545 -0.053913616 -0.29959813
000120 88 b3 6b be aa 12 62 be e0 51 36 bb e3 39 6e be
       -0.23017704 -0.22077432 -0.0027819797 -0.2326427
000130 17 76 7e be ad b2 1d 3e 9e f7 ba bd 68 c8 25 3e
       -0.24849735 0.1540019 -0.091292605 0.1618973
000140 73 79 46 3e bc 4f ad 3e 78 df a5 bd 98 30 4e 3d
       0.19382267 0.33849895 -0.08099264 0.05033931
000150 91 e8 cb bd 7f 03 9f 3e c7 1d 61 bd 96 4a 3c bd
       -0.09956468 0.31057355 -0.05496004 -0.04596957
000160 05 61 ad be f6 bb 5e be 0b ab b2 3e 05 21 97 3e
       -0.33863083 -0.21751389 0.3489612 0.2951738
000170 55 38 8b 3e f1 13 f2 bd da a8 80 3e ae bc 8e bd
       0.27191415 -0.1182021 0.25128824 -0.069695815
000180 87 00 4f bd 3f 9f 84 3e 65 6b fc 3c c3 df 80 3e
       -0.050537612 0.25902745 0.030812928 0.25170717
000190 a7 46 bc bd 8a 3e 21 be 35 cf a9 be 56 21 16 be
       -0.09193163 -0.15746513 -0.331659 -0.14661154
0001a0 f0 cc 6c 3e fc 87 ae be 33 80 a1 3d fd 23 b4 3e
       0.23125052 -0.34088123 0.0788578 0.35183707
0001b0 eb 3b 95 bc 54 12 02 bd e5 61 30 3e 83 95 62 be
       -0.018217048 -0.03175576 0.17224844 -0.22127347
0001c0 06 e9 36 be 81 a5 ad bc 0c a8 8b 3e b5 26 9d 3d
       -0.17862329 -0.021197082 0.27276647 0.076733984
0001d0 ab 3f 47 be 3c be fc 3d 82 ce af be 58 5a 3f 3e
       -0.19457881 0.12340972 -0.3433724 0.18686807
0001e0 88 d6 50 3d cc 24 65 3d 1b 07 19 3e 15 90 af 3d
       0.050985843 0.055943295 0.14944117 0.08572403
0001f0 19 d4 5b be c2 2c 67 3e 90 8b fd bd c9 56 09 3e
       -0.21467628 0.22575668 -0.12380135 0.13412012
000200 31 61 bc bd 5f e1 89 be 9c da ee 3d 70 16 05 3d
       -0.09198225 -0.26929757 0.1166279 0.0324921
000210 61 ff 19 3e 87 8a 3f be 16 d8 d6 bd 3d b5 51 be
       0.15038826 -0.18705188 -0.10490434 -0.20479293
000220 13 d7 aa 3e 28 9c 83 3d b1 42 57 3e a5 c5 84 be
       0.33367214 0.06426269 0.21021535 -0.2593204
000230 d0 01 78 3e 3b ea 78 be b4 00 75 3e c6 d6 91 bd
       0.24219441 -0.24308102 0.2392605 -0.07121043
000240 a0 79 c5 bd c4 a0 5f 3e a7 12 9e 3e 0d c6 21 be
       -0.09642339 0.21838671 0.30873606 -0.15798207
000250 70 7c b3 3d f9 88 9a be e7 15 91 be 45 89 91 be
       0.08763969 -0.30182627 -0.28337023 -0.2842504
000260 3c 96 55 3e c4 13 4c 3e d8 99 35 be 1f 2d 99 3e
       0.20858091 0.19929415 -0.17734468 0.29917237
000270 2e 96 af be 21 50 a4 be 47 09 51 3e 10 26 f4 bc
       -0.34294266 -0.32092384 0.20413695 -0.029803306
000280 c4 ce 7e be 45 b9 9f 3e e4 01 b7 3c db d5 3d be
       -0.24883562 0.31196037 0.022339769 -0.1853861
000290 cc dd bf bb 80 d9 8a be 22 e5 51 3e df 22 7e 3e
       -0.0058552977 -0.27119064 0.20497563 0.2481799
0002a0 cf 47 22 3e 58 1d 54 be 56 58 67 3e 64 fd 87 be
       0.15847705 -0.20714319 0.22592291 -0.2656051
0002b0 71 be 1c bd 49 e7 f1 bb 2a ec a6 3d 56 65 ec 3d
       -0.038267557 -0.0073823077 0.081505135 0.11542766
0002c0 e3 12 8c 3c 3f 90 d3 3d 88 9d 65 be 9e 77 cd 3d
       0.01709885 0.10330247 -0.22423375 0.10032581
0002d0 0f e9 9e 3e b3 98 74 be d7 fe 10 be 33 94 6d 3d
       0.31037185 -0.23886375 -0.14159714 0.058002662
0002e0 9f f7 b1 3e 2b 73 fa bc bc b3 e4 bc 11 c2 22 be
       0.34759232 -0.030572494 -0.027917735 -0.15894343
0002f0 15 82 98 be d8 b9 26 3e 54 a5 83 be a8 22 28 be
       -0.29786745 0.16281831 -0.25712073 -0.1641947
000300 47 1b b7 3d 5d 2b 17 be a1 fe 21 3e 68 2a 08 be
       0.089407496 -0.14762636 0.1581979 -0.13297427
000310 b4 54 93 be 1c 74 c8 bd 54 19 93 be 1f ce 0f be
       -0.2877556 -0.09787771 -0.2873026 -0.14043473
000320 4a 71 a8 bd 6c b1 ae 3e 8e 5b 1d 3e 84 64 2f 3e
       -0.08224733 0.34119737 0.15366957 0.17128187
000330 6c 02 87 bd cb f7 ad 3e dc 6b 71 3e c0 f4 28 be
       -0.06592259 0.33978114 0.23576301 -0.16499615
000340 4f 71 b4 be f7 1f 70 3e 76 10 8b bd 14 38 8a bc
       -0.35242698 0.23449694 -0.06790249 -0.016872443
000350 c3 db 98 3e 49 31 88 3e c5 54 8b 3e 5a b3 c8 bd
       0.29855165 0.26600102 0.27213112 -0.097998336
000360 e6 a1 56 be 8f b0 ad be a1 bf 25 3e 5f bc 5a be
       -0.20960197 -0.33923766 0.16186382 -0.2136092
000370 38 1c 75 3e 3f 65 6c 3d 5c 5e 71 3e a0 e8 29 3e
       0.23936546 0.057713743 0.23571151 0.16592646
000380 ba ec 4f be d5 06 8c 3d f1 8f 4a 3e 24 9b ae 3d
       -0.20305148 0.068372406 0.19781472 0.085256845
000390 c5 78 a5 3e bd 0d 23 3e 0f b2 0d be ff cc 74 3e
       0.32318702 0.1592321 -0.13837455 0.23906325
0003a0 85 68 8a 3e d2 ce b0 3e de 9a b1 3e c5 80 9a 3e
       0.27032867 0.3453279 0.34688467 0.30176368
0003b0 54 90 76 be 74 49 eb 3d 51 4a 81 be 4e ed 8c be
       -0.24078494 0.114886194 -0.2525201 -0.275248
0003c0 24 36 5a bb f8 44 21 be 55 13 a9 3e 44 de 2e 3d
       -0.003329643 -0.15748966 0.33022562 0.042692438
0003d0 12 56 83 bd 29 a3 5c 3d ba 4d b3 bc 8a e5 b1 be
       -0.06412901 0.05386654 -0.021887649 -0.34745437
0003e0 60 14 93 3e de 71 22 3e 28 de 0c 3e cf 03 2b bb
       0.28726482 0.1586375 0.13756621 -0.00260948
0003f0 a3 c4 92 be d7 98 20 3d df 62 66 3e 80 ee 34 bc
       -0.28665647 0.03920826 0.22498654 -0.011043191

fc2_q1.weight f4 [256, 256]
000000 64 af 40 bd 94 fa 56 bd c0 bd 75 3b a0 18 37 3c
       -0.047042266 -0.052485064 0.0037497133 0.011175305
000010 c8 1f 3a bd ec 84 a3 3c 80 59 24 3b 98 88 6a 3c
       -0.045440465 0.019960843 0.002507776 0.014314793
000020 70 1f 06 bc 70 f1 14 3d bc f3 42 3d 36 f2 0d 3d
       -0.008186206 0.036363065 0.047595724 0.03465482
000030 a4 94 05 bd 0e 80 2f 3d bc fa f9 bc 78 81 76 bc
       -0.032612458 0.04284673 -0.030515067 -0.015045516
000040 7c 5a 3d 3d 50 aa 22 bd d0 60 a9 bb 34 c9 d6 3c
       0.04622887 -0.039713204 -0.0051690117 0.026218988
000050 00 73 56 bb 38 59 2b bc 10 e9 b4 bb ca b5 59 bd
       -0.0032722354 -0.010458283 -0.0055209473 -0.053151883
000060 10 72 ec 3c f4 54 d0 3c 80 40 b1 ba 02 9a 58 bd
       0.028862983 0.025431134 -0.0013523251 -0.05288125
000070 3e e2 23 bd c0 e6 01 3c 78 5f a8 bc 80 c0 19 bb
       -0.040010683 0.00792855 -0.020553336 -0.0023460686
000080 5c 1b f7 3c 10 d5 6e 3c 96 8f 4e 3d 80 e7 08 bb
       0.030164413 0.014577165 0.050429903 -0.0020889938
000090 d4 4d be bc c2 fd 3c bd 20 4d f3 bb b4 3a 9b 3c
       -0.02323047 -0.04614044 -0.0074249655 0.01894889
0000a0 78 86 74 3c f0 ae a3 3b 48 12 7a bd 10 ab 22 bd
       0.014924638 0.0049952194 -0.06105259 -0.03971392
0000b0 12 fd 5a 3d c8 21 72 bd 30 08 d6 3b 18 5f 6a 3c
       0.053464003 -0.059114248 0.0065317377 0.014304899
0000c0 88 62 af bc 10 46 d9 bc e0 fe 7a bd 6e 62 44 3d
       -0.021409288 -0.026522666 -0.061278224 0.047945432
0000d0 c0 c4 0c bc 00 33 00 3a 80 49 18 3c 14 3e fa 3c
       -0.008591831 0.0004890412 0.0092948675 0.03054718
0000e0 08 3e 2d bc de 3c 6e bd 18 8f 35 bc 5c 3f b1 bc
       -0.010573871 -0.058163516 -0.0110814795 -0.021636657
0000f0 98 ba 21 3d e8 3f 41 3d 9c d9 d5 bc 64 b8 f8 3c
       0.03948459 0.047180086 -0.02610474 0.030361362
000100 e2 e4 74 3d 60 b3 bf 3c 5c 8c e1 3c 06 c7 67 3d
       0.059788592 0.023400962 0.027532749 0.056586288
000110 ca 64 67 bd 14 bc 7d bd 0c bb d8 bc f0 fc ae bb
       -0.056492604 -0.061946943 -0.026456378 -0.005340211
000120 24 f4 f8 3c d6 f3 41 bd f8 c1 53 bc 06 52 7f 3d
       0.030389853 -0.04735168 -0.012924664 0.062334083
000130 00 c0 08 b9 56 6b 38 3d 32 70 26 bd d2 5c 11 bd
       -0.00013041496 0.04502424 -0.04063434 -0.03548891
000140 4c 0a ee 3c 18 58 66 bd d0 a4 ce bb d0 aa 94 bc
       0.029057644 -0.056236356 -0.0063062683 -0.018147856
000150 76 28 01 3d 4a 9b 50 bd 28 db 0b 3c 5e c8 64 3d
       0.031532727 -0.050929345 0.008536138 0.055855148
000160 60 e8 ba 3b 08 da 05 3c 48 da 0f 3c 14 fc 9c bc
       0.005703971 0.0081696585 0.00878007 -0.019163169
000170 58 cd 2a bd 66 96 30 3d 9a c2 1a bd 4c 6f 70 3d
       -0.041699737 0.04311218 -0.037783243 0.05869989
000180 40 57 7e bc b4 ae e8 bc 6a c9 0b 3d 28 11 45 3d
       -0.015523732 -0.028403617 0.03412763 0.048112065
000190 60 35 ef bc f4 9c da 3c e8 20 c2 3c e6 13 02 bd
       -0.029200256 0.02668617 0.023697332 -0.031757258
0001a0 84 4d 29 3d 8c 2d c0 3c 98 46 6d 3c f0 a6 af bc
       0.04133369 0.023459218 0.014482163 -0.021441907
0001b0 92 f0 71 3d c8 36 80 bc e6 a5 16 bd f2 ac 23 3d
       0.059067316 -0.015651122 -0.036779307 0.039959855
0001c0 4e 18 1b 3d 00 2a 2f bc 08 fa 6b 3c 3c 67 63 3d
       0.037864976 -0.010691166 0.014402874 0.055518374
0001d0 00 58 35 3b 20 04 7c 3b ce d7 00 3d a4 2e 9e 3c
       0.002767086 0.0038454607 0.031455807 0.01930935
0001e0 76 8e 01 3d b8 ee 26 3d 00 c3 1d 3a a4 4d e8 3c
       0.031630002 0.040755004 0.0006018132 0.028357334
0001f0 ea 7a 10 bd 52 df 46 3d 54 69 46 bd 80 6d 38 ba
       -0.03527347 0.04855282 -0.048440292 -0.000703536
000200 64 9a 8f bc 10 27 bd 3b 58 cb 0a bd f6 0d 7e bd
       -0.017529674 0.005772479 -0.03388533 -0.062025033
000210 14 00 fb bc 10 fe fb bb 50 5b 29 bc 00 d9 4d 3c
       -0.030639686 -0.0076901987 -0.010336712 0.012563944
000220 64 ce 4d bd fc dd 35 3d 86 c9 04 3d fa f7 77 3d
       -0.050245658 0.044401154 0.03241875 0.060539223
000230 f4 b2 90 3c 18 c0 bf bc 50 da 2e 3d d4 5f d7 bc
       0.017663456 -0.023407027 0.042688668 -0.026290812
000240 5a 68 2e 3d 20 09 ee bc 92 58 11 bd a8 e1 03 bc
       0.042579986 -0.029057086 -0.035484858 -0.008049406
000250 40 ec e4 ba 40 a3 23 bb 90 8f a2 bc ac 85 7d 3d
       -0.0017465428 -0.002496913 -0.019843847 0.061895058
000260 0e b7 1d 3d f4 48 3e bd 36 5f 07 3d 04 54 36 bd
       0.038504653 -0.046456292 0.033049785 -0.044513717
000270 8e 6b 43 bd 3a 8b 48 bd 40 8a a3 bb ca 6a 66 3d
       -0.047709994 -0.0489609 -0.004990846 0.056254186
000280 60 76 c4 bc b8 9a 4e 3c b0 cc 7b bc d8 bc a4 3c
       -0.023982227 0.01261013 -0.0153686255 0.020109579
000290 68 84 17 bc 00 0c 1f 3c b4 eb 7d bd 04 32 1e bd
       -0.009247877 0.009707451 -0.061992362 -0.038621917
0002a0 c6 ef 30 bd e0 22 f7 3b e0 b7 65 bd f2 d5 4e bd
       -0.043197416 0.007541999 -0.05608356 -0.050497003
0002b0 c2 81 26 bd 60 0b bf bb a8 47 e5 bc 44 46 e4 bc
       -0.04065109 -0.0058302134 -0.02798827 -0.027865537
0002c0 80 ba 79 bb cc 4d ce 3c c8 14 6f 3d 9c 4a 5f 3d
       -0.0038105547 0.02518358 0.058369428 0.054514512
0002d0 80 c3 15 3c 76 78 57 bd 34 e0 f7 bc 6c 53 50 bd
       0.009140849 -0.052605115 -0.030258276 -0.050860807
0002e0 76 4b 49 3d e8 33 cd 3c 98 ad 3b 3d e4 af 6b bd
       0.04914423 0.025049165 0.04581985 -0.05754079
0002f0 e0 a4 f2 bb fa 31 67 bd fc fd 4d 3d 1c a9 53 3d
       -0.0074049085 -0.056444146 0.050291047 0.051674947
000300 50 97 fc bb 14 7a b0 3c dc 3d 7a bd 48 a6 bd 3c
       -0.0077084675 0.021542586 -0.06109415 0.023150578
000310 76 08 47 3d 76 be 1c 3d 9a 02 0b 3d 20 3c 5a bd
       0.048592053 0.038267575 0.033938028 -0.053279996
000320 fc 4f 5a 3d c6 33 25 3d 2c 69 a6 bc c4 80 f5 3c
       0.053298935 0.040332578 -0.020313822 0.029968627
000330 a0 d8 3e 3d 92 1b 25 bd 80 c0 00 3a 88 76 08 bc
       0.04659331 -0.040309496 0.0004911497 -0.008329041
000340 c0 f5 9d bc b8 59 df 3c 84 6e bd bc 20 3d ab bc
       -0.019282222 0.02726446 -0.023123987 -0.02090317
000350 e4 01 c1 bc 30 86 59 bc ec 1f 27 bd 9c 54 96 bc
       -0.023560472 -0.013276622 -0.040801927 -0.018350892
000360 90 5d bf 3b 4e e9 6c bd 20 53 40 3c bc 08 73 bd
       0.005840011 -0.057839684 0.011738569 -0.0593345
000370 e2 24 0f bd b8 12 40 3c ec bf e1 3c 40 41 3f 3b
       -0.034947284 0.011723213 0.027557336 0.002918318
000380 e0 36 71 bd 38 a6 05 3c 1e 21 39 3d 04 32 ca 3c
       -0.058890224 0.008157305 0.0451976 0.024682052
000390 e8 f2 7b bd 50 83 9a 3b 4e 9e 0c bd aa 91 3f 3d
       -0.06151095 0.0047153607 -0.03433066 0.046769775
0003a0 9a 21 6c bd 62 4d 03 3d a8 5f 31 bd 20 3a 0a 3c
       -0.057649232 0.03205622 -0.043304116 0.00843671
0003b0 f2 a5 5c bd 18 e9 81 bc b0 1a 0a 3c 54 25 9d bc
       -0.053869195 -0.015858218 0.008429214 -0.019182838
0003c0 70 68 ab bc 54 76 87 bc 64 8f 2d bd 04 19 cb 3c
       -0.020923823 -0.016535915 -0.042373076 0.024792202
0003d0 26 6b 01 bd 28 d2 54 3c 88 ec e6 3c 10 c5 4b bc
       -0.031596325 0.012989558 0.028188959 -0.01243712
0003e0 b4 a0 83 3c ee be 05 3d c4 39 39 3d a0 b9 74 3b
       0.01606784 0.032652788 0.045221105 0.0037342086
0003f0 18 08 10 bc e0 5c d2 bc 14 0b e1 bc 92 37 00 3d
       -0.008790992 -0.025679052 -0.027471103 0.031302996

fc2_q1.bias f4 [256]
000000 ba 13 62 3d 6c c7 d1 bc 13 2f 5f bc 13 aa 0d bd
       0.055194594 -0.025607787 -0.013622063 -0.034586024
000010 2f e0 6e 3d ac c1 53 3d 14 39 3d bd 40 b9 9e 3c
       0.058319267 0.05169837 -0.046197012 0.019375443
000020 7e e6 57 bd 08 c8 a8 3c 00 c1 e2 3c 43 ac 23 bd
       -0.05271005 0.020603195 0.02767992 -0.039959203
000030 3a d5 6f 3d 52 83 77 3d 10 5b 1a 3d af 58 43 3d
       0.058552958 0.06042797 0.0376845 0.047691997
000040 70 3e 7f 3c b7 26 13 bd 37 e5 cc 3b ca f4 93 3c
       0.015578851 -0.035925593 0.0062529105 0.01806106
000050 76 9d 19 3d 98 cd b6 3c 2e 60 1c bd dc 52 11 3d
       0.037503682 0.022314832 -0.03817766 0.03547941
000060 3a d1 6d bc 4b c5 14 3c fe f2 4e 3d 50 fa 77 3d
       -0.0145152155 0.009080241 0.050524704 0.06054145
000070 b9 6a 06 3d 60 9f 9d 3b 60 ca 1b bd 3c 7d d5 bc
       0.032816622 0.0048102587 -0.038034797 -0.026060693
000080 c7 eb 79 3d 46 1e 89 bb 7c 6a b6 bc d6 e1 cd 3c
       0.06101587 -0.004184517 -0.022267573 0.025132101
000090 52 0a 51 3d 4c ed 62 3d cb 88 5b 3d a8 2d 69 3d
       0.051035233 0.055402085 0.053597253 0.056928307
0000a0 fd 3c 75 3d 19 af db bc 54 13 06 3d d3 d7 78 bd
       0.059872616 -0.026816892 0.032733276 -0.0607527
0000b0 b0 37 4a 3c 69 ac 78 3d 70 70 e0 3b 80 2c c0 ba
       0.0123423785 0.0607113 0.006849341 -0.00146617
0000c0 a0 9c 09 bb b0 86 18 3d 03 57 62 bd fa ba 67 bd
       -0.0020997897 0.037237823 -0.055258762 -0.0565748
0000d0 d8 cf 2b bc 8e e6 72 3c 64 d3 98 bc 19 73 80 b9
       -0.0104865655 0.014825476 -0.018655486 -0.00024499817
0000e0 e2 f8 66 3d 3c f4 21 bd 90 0c 87 3b 00 ab 31 ba
       0.056389697 -0.03953956 0.0041213706 -0.0006777495
0000f0 86 c6 1d bd dc ca 85 3c 37 a4 0a bb b2 c5 03 bd
       -0.038519405 0.016332082 -0.0021155009 -0.03217096
000100 f3 b3 42 bd 34 18 33 bd 70 da 0a 3d 40 41 40 3d
       -0.047534894 -0.043724254 0.033899724 0.046937227
000110 57 7e 69 3c 8a 2a 5a 3d 27 1c 2b 3d d4 3b 19 bd
       0.014251313 0.053263225 0.041774895 -0.037410572
000120 24 bc 1c bd 5e 12 52 3d 29 7f 08 bd 32 a5 41 bd
       -0.038265362 0.051287048 -0.033324394 -0.047276683
000130 c0 c8 ef bc 80 38 00 bb 10 6a 0f 3c a2 10 61 bd
       -0.02927053 -0.0019564927 0.008753315 -0.054947503
000140 c4 ce 38 3d c0 9f ab bb 90 37 83 3b d5 36 8e 3c
       0.045119062 -0.0052375495 0.0040044263 0.01736013
000150 82 4e 5e bd c7 56 22 3d 18 9f b3 bc 20 4b d7 3b
       -0.05427409 0.03963354 -0.021926448 0.006570235
000160 8e 0c 0c 3c 70 ad f9 3b 0e f8 53 3d 20 dc 0a 3d
       0.008547915 0.0076195523 0.051750235 0.033901334
000170 87 86 d6 bc 86 4c 46 3c 7e 1e 33 3c 95 1a c6 bc
       -0.026187195 0.012103206 0.010932563 -0.024182597
000180 f8 09 27 bc 66 c3 ef bc 58 10 c0 bc 58 b9 a5 3c
       -0.010195248 -0.029267978 -0.023445293 0.02022998
000190 3e 11 7b bc 4f a9 02 3d d3 d1 89 bc 24 a6 2f 3d
       -0.015323935 0.031899747 -0.016823685 0.042883053
0001a0 1e 4a 20 bd b7 44 fd ba 46 03 13 3d 52 38 2f bd
       -0.039133184 -0.0019322847 0.035891794 -0.04277832
0001b0 fc 86 e4 bc ea 91 58 3d e0 ee 19 bb 20 3f 50 3c
       -0.027896397 0.05287353 -0.0023488328 0.012710363
0001c0 ba 07 4e 3d b5 16 65 3d ef 31 95 3c e1 72 c1 bc
       0.050300337 0.05592986 0.018212287 -0.023614349
0001d0 70 56 a9 bc 68 44 87 bc db be f1 bc e6 7f 0d 3d
       -0.0206711 -0.01651211 -0.029509952 0.0345458
0001e0 14 90 19 bc 08 ba 28 3c f2 c8 74 bd 62 6a 78 bd
       -0.00937273 0.01029826 -0.05976195 -0.06064833
0001f0 3e 14 01 bd b0 14 8e 3c a0 11 89 bc 10 59 13 bc
       -0.031513445 0.017343849 -0.016732037 -0.008993402
000200 e0 a0 84 bb 11 b5 a3 3c 54 14 b6 3c 41 a3 47 3d
       -0.004047498 0.0199838 0.02222649 0.048739675
000210 14 65 68 3d 87 89 1a bd 3c 3b 28 3d 1a 69 1c 3d
       0.05673702 -0.037728813 0.041072115 0.03818617
000220 22 8f 43 bd 96 16 10 bd 90 ef b2 3b b7 82 12 3d
       -0.047743924 -0.03517779 0.005460687 0.03576919
000230 a9 50 9f 3a 28 8f 50 bc 1f 61 61 bd 00 29 68 3c
       0.0012154776 -0.012729444 -0.055024263 0.014169931
000240 04 6e ff bc 3c a3 87 ba d4 ae c0 3c 98 9d ff bc
       -0.03118039 -0.001034833 0.023520865 -0.031203076
000250 f8 6d 43 3d ce 75 6a 3d 50 80 68 bc 50 b9 83 bb
       0.047712296 0.057241254 -0.014190748 -0.0040198937
000260 39 67 58 bd 80 48 f6 3a be e0 24 3c b0 5b 9d bc
       -0.052832816 0.0018789917 0.010063348 -0.01920876
000270 4e 15 5d bd 82 20 d3 bc f6 b9 35 bd ef c0 3f 3c
       -0.053975396 -0.025772337 -0.0443668 0.011703714
000280 18 63 72 bc 25 07 8d 3c fa 41 48 bd 01 01 79 bd
       -0.014794134 0.01721532 -0.048891045 -0.060791973
000290 57 d3 3b bd 99 b9 14 bd e6 09 5d bd 83 6c 2b bd
       -0.045855846 -0.036309812 -0.053964518 -0.04185153
0002a0 a8 65 69 bd 41 7a c1 bb f4 ae 49 3d fc ed 60 bd
       -0.056981713 -0.0059044664 0.049239114 -0.05491446
0002b0 0c 86 45 bd 88 a4 77 bc 50 55 df 3b e8 c4 70 bc
       -0.04822354 -0.015114911 0.00681559 -0.014695384
0002c0 d2 66 1d 3d 04 b3 ca bc 28 e3 85 3c 20 db 2d 3b
       0.038428135 -0.024743564 0.016343668 0.0026528314
0002d0 88 9e 1b 3c 6c 27 61 3d 2f 8c 1a 3d 32 80 35 bd
       0.009498246 0.054969236 0.037731346 -0.04431171
0002e0 57 8a 12 3d 65 7f 19 bc 03 fe 6f bd 6a a3 2f bc
       0.035776462 -0.009368752 -0.058591854 -0.010720113
0002f0 70 27 5b bd e8 3d ed 3b 2e 38 58 bd 48 57 fb bc
       -0.053504407 0.007240046 -0.052787952 -0.030681267
000300 ec ee 29 3d 8c 4d fe 3c 44 1a 63 3d f8 98 c6 3c
       0.04148762 0.031042837 0.05544497 0.024242863
000310 ec 43 08 3d d0 be aa bc 71 0d 11 bd 94 92 1f bd
       0.0332679 -0.02084294 -0.03541321 -0.038958147
000320 03 af f4 bc ec bd 09 3d a5 55 46 bd da ac 1c bd
       -0.029868608 0.03362839 -0.04842152 -0.03825078
000330 76 83 65 3c 20 50 27 3c 60 68 ee 3b 5b 31 36 bd
       0.0140083935 0.010211974 0.007275626 -0.044480663
000340 c0 ac ea bc 28 b5 36 bc f7 7b 39 3d f2 91 52 bc
       -0.028646827 -0.011151589 0.045284238 -0.012852179
000350 70 de 29 3c 7c 6d 59 3d 40 71 b2 bc 00 cf 67 bd
       0.010367975 0.053082928 -0.021782517 -0.056593895
000360 be 81 4f bd d4 cd b4 bc 9f 28 ed 3c a5 41 f1 3c
       -0.05066084 -0.022070803 0.028950034 0.029450247
000370 92 76 42 bb 6c 01 32 3d ea a7 64 bd e7 25 0c 3d
       -0.0029672724 0.043458387 -0.055824198 0.034215834
000380 66 90 b9 3c 34 b7 26 3d 00 23 18 bc f6 ec 34 bd
       0.022651862 0.04070206 -0.009285688 -0.044171296
000390 a5 a3 18 3d 81 07 7e 3d b8 cc 29 bc e0 2a 7a 3b
       0.03726544 0.062018875 -0.01036375 0.0038172528
0003a0 29 78 8d 3c 43 20 18 3c a8 e9 28 3c 60 f1 18 bc
       0.01726921 0.009285036 0.010309614 -0.009334892
0003b0 7f 8a 67 3d 71 11 4b bd 22 9a 73 b9 18 94 f6 3c
       0.056528565 -0.04957718 -0.00023231705 0.030099913
0003c0 e6 28 e4 bc f0 33 0b bd 6a 91 6f 3d 2f 30 f5 bc
       -0.027851533 -0.03398508 0.058488287 -0.029930202
0003d0 71 0c 38 bd 71 57 c6 bc 9d a8 e3 3c 89 7a 6e 3d
       -0.04493374 -0.024211617 0.027790362 0.058222327
0003e0 15 19 8c 3c f4 d8 0e bd df 46 5e bd dc c4 c7 bc
       0.017101804 -0.03487487 -0.054266807 -0.024385862
0003f0 1c 6f 7e bd 40 07 65 3d fc 33 8c 3c 2c 5c dd 3c
       -0.06211768 0.055915117 0.017114632 0.02702149

fc3_q1.weight f4 [1, 256]
000000 3c fe 53 bd 32 d3 5e 3d f3 8d 10 ba 94 78 38 bc
       -0.05175613 0.05440063 -0.0005514316 -0.011259217
000010 cc d5 d6 3c ae bf 03 bd bb 05 f1 3c 40 bf 07 bb
       0.026224993 -0.032165222 0.029421678 -0.002071336
000020 88 e4 73 bd 4e d0 42 bd 44 d5 dc 3c ff 8c ea bc
       -0.059544116 -0.047561936 0.026957162 -0.028631685
000030 ec b1 75 bd 58 65 ef bc e0 fb 78 3b 97 86 a2 bc
       -0.059984133 -0.02922313 0.0037991926 -0.019839568
000040 40 0c 94 3b 3b 7b 54 bd f5 0a 3f 3d a3 22 34 bc
       0.004518062 -0.051875334 0.04664131 -0.010994586
000050 d3 dd 18 bc 80 93 ea ba d2 5a 20 3d 78 f9 61 3c
       -0.009330231 -0.0017896742 0.039149113 0.013792388
000060 62 1b fe 3c b1 d8 4d bd 80 cb 7e bc 88 02 39 bd
       0.031018917 -0.05025548 -0.015551448 -0.04516843
000070 af 00 19 bb ec e0 1a 3d 0c b1 59 3d af 07 f6 3c
       -0.0023346355 0.03781216 0.05314736 0.03003296
000080 9c 14 20 3d e0 c5 3a bd f4 8a 4e bd 42 c6 58 bd
       0.039082155 -0.045598865 -0.050425485 -0.05292345
000090 50 4c f6 bc c0 fc eb 3b f9 29 0e 3d 0c 41 6c bc
       -0.030065686 0.007201761 0.034707997 -0.014419805
0000a0 63 52 15 bd 6d 8a 6e bc e9 f0 eb b9 86 04 06 3d
       -0.036455523 -0.01455937 -0.00045002185 0.032719158
0000b0 86 81 72 3d 6b 3e 09 3d f4 f2 fc 3c 28 ed 38 bd
       0.059205554 0.033506792 0.030877568 -0.045148045
0000c0 cc 67 16 bd 60 b3 4f bc 9c e9 56 3d 84 77 ff 3c
       -0.036720082 -0.012677044 0.05246888 0.03118492
0000d0 16 ba 4b bd 9c 1a e6 3c 0c 4c b7 bc 62 10 1b bd
       -0.049738012 0.02808886 -0.02237513 -0.03785742
0000e0 ae c9 9d 3c 5f 43 a5 bc 80 37 e2 3c ea a2 2f bd
       0.019261207 -0.020173727 0.027614355 -0.042879976
0000f0 28 52 38 3c ca 36 3e 3d 31 21 11 bd ac 3c 68 3d
       0.011250056 0.04643897 -0.035432044 0.056698486
000100 4a d5 08 bd 74 3f 23 3d 48 5f 7b 3d 54 c7 71 3d
       -0.033406533 0.039855435 0.061370164 0.059027985
000110 45 68 5a 3d 20 d6 f8 bc 38 79 a4 bb 9c da 7b bd
       0.053322095 -0.03037554 -0.005019333 -0.06148778
000120 3c d9 34 3c 80 ed bf 3a 80 f5 73 3d ba 25 e5 3c
       0.011038121 0.0014642924 0.0595603 0.027972091
000130 00 28 5a 39 1a 3f 5b bd de cd 4e 3d f5 00 38 3c
       0.00020805001 -0.053526975 0.0504893 0.011230697
000140 9a a1 1a bd 90 89 a3 3b 48 43 42 3d 8c fa 74 3d
       -0.03775177 0.004990764 0.047427446 0.059809253
000150 dc ec 14 3d 2e fc c0 bc 54 98 0b 3d d4 94 ea 3c
       0.0363587 -0.023557749 0.03408082 0.02863542
000160 a7 e5 18 bd 9e 63 49 3d f6 59 3d bc 30 1e 24 3d
       -0.03732839 0.049167268 -0.011557093 0.04006785
000170 c7 1a 7c 3c 6c a7 b7 bc f7 d1 e9 3b 20 16 f3 3b
       0.015387244 -0.0224187 0.0071356255 0.007418409
000180 bc 05 96 bc 36 6d 5c 3d 58 23 51 3c 1c 40 cc 3c
       -0.018313281 0.05381509 0.012764774 0.024932913
000190 92 c5 3e bd 50 44 56 bd e5 38 32 3c f0 78 c8 3b
       -0.046575136 -0.05231124 0.0108778225 0.0061179325
0001a0 19 74 8e 3c c4 03 8a 3c 02 be 67 3c b8 e2 7c bd
       0.017389344 0.016847499 0.0141444225 -0.061739653
0001b0 50 f6 5d bd 90 65 3e bd 5c 47 80 3c 12 6c 45 bd
       -0.05418998 -0.046483576 0.015659027 -0.048198767
0001c0 cc be 6a 3d 9c 98 a8 3c 93 75 1e 3c e7 18 d9 bc
       0.057310864 0.020580582 0.009671587 -0.026501132
0001d0 8e cd 6b bd 38 1c 36 3d 5f b6 33 3d 40 0a ef 3a
       -0.05756908 0.044460505 0.043875095 0.0018237308
0001e0 03 92 4c bc ee e8 54 3d b2 0d fd bc 6e 00 72 3d
       -0.012485984 0.05197995 -0.03089032 0.05908244
0001f0 4f 6a 0a 3d de 1b 28 bd fc 85 70 3d 78 bb f2 bc
       0.03379279 -0.0410422 0.058721527 -0.029630408
000200 30 dc c7 bb fc 6a 34 3d e6 df 4b bd e9 42 9e bc
       -0.0060992464 0.04404734 -0.049774073 -0.019319015
000210 4b cf cb 3c 91 4c cc bc c2 f7 76 3d 48 00 fc 3c
       0.024879118 -0.024938853 0.060294874 0.030761853
000220 20 3a 08 bb d2 e5 01 bd 44 11 df bc d1 55 2a bd
       -0.0020786598 -0.031713314 -0.027229913 -0.041585747
000230 06 f9 5b bd 9a bc 75 3c e9 82 42 bd 50 b4 af bc
       -0.053704284 0.014998579 -0.047488127 -0.021448284
000240 5e ad 70 3d 9c f5 fe 3c 42 e9 32 bd a2 e5 7e 3d
       0.058759086 0.031122975 -0.043679483 0.062230714
000250 35 e7 0d 3d 00 ed 73 bd c4 96 22 3d 86 c9 7e bd
       0.034644324 -0.059552193 0.039694563 -0.062203906
000260 27 4c 61 bd be 98 02 bd d3 75 2d 3d 9c 71 a4 3c
       -0.055004265 -0.031883948 0.042348694 0.020073704
000270 68 63 57 bd a6 91 18 3c b0 8a 61 bc a1 44 11 bd
       -0.052585036 0.009312069 -0.013765976 -0.03546584
000280 c0 26 08 3b 89 0d 12 3d 0b 30 78 3d 42 81 37 bd
       0.002077505 0.03565744 0.060592692 -0.044801004
000290 96 52 19 bd e5 b4 5b 3d 73 e9 62 bd dc 08 e0 bb
       -0.037432276 0.05363931 -0.055398416 -0.0068369936
0002a0 d5 70 a6 bc 29 65 03 bd f0 e6 93 3c f0 2a 87 bc
       -0.020317474 -0.032078896 0.018054456 -0.016499966
0002b0 2a be 21 bd 20 bb b5 bb fa 5c 61 bd 70 f9 c8 bc
       -0.039487995 -0.0055459887 -0.05502031 -0.024533004
0002c0 ea 0c 65 bd e0 0e 8f bc 00 9f 1d ba cc a8 a7 bc
       -0.05592052 -0.017463148 -0.00060127676 -0.02046623
0002d0 8f 84 60 3b 0e 9b 25 3d 9b 4a eb 3b dc 05 4f bd
       0.0034258699 0.040431075 0.0071805245 -0.050542697
0002e0 d2 4b 0e 3d c1 ac 5f 3d 03 48 d7 bc 4b 7e 6b 3d
       0.034740277 0.05460811 -0.026279455 0.05749349
0002f0 6a e5 75 bd de 91 7a bd d4 e2 0a bd 20 41 99 bc
       -0.06003324 -0.061174266 -0.033907726 -0.018707812
000300 84 c1 75 bd 70 5d 10 bd 60 1b d2 bb d5 d2 af 3a
       -0.059999004 -0.03524536 -0.0064119548 0.0013414273
000310 34 a8 3e bd 80 88 a8 bb 21 eb e5 3c b0 a9 b9 bc
       -0.04654713 -0.005143225 0.02806622 -0.022663921
000320 83 fa a6 38 10 df c9 3b 31 31 4d 3d 0c 21 40 3d
       7.962158e-05 0.0061606243 0.05009574 0.046906516
000330 08 cf 7f 3c c0 b7 8e bb 08 a7 95 3c 63 33 17 3d
       0.015613325 -0.004355401 0.018268123 0.03691424
000340 0a ff 17 3d da 6a 62 3d 30 63 75 3d 0d 7a cd 3c
       0.03710846 0.055277683 0.059909046 0.025082612
000350 f8 4f 3e bc 71 68 2a 3d d0 c7 69 bc c8 a4 ed 3c
       -0.011615746 0.04160351 -0.01426883 0.029009238
000360 6d 0e 3b 3d ee f3 6f bd b9 15 30 bd dc 22 23 3d
       0.045668054 -0.05858224 -0.042989466 0.039828166
000370 0a ac 0d 3d 76 5c 5b bd 88 dd 0c bd 0f 23 42 3d
       0.034587897 -0.053554974 -0.034390956 0.047396716
000380 39 2f d8 3c 58 a5 0e bd 7a 47 43 3d 4e a8 39 bd
       0.026389705 -0.034825653 0.047675587 -0.045326523
000390 d1 d4 31 bd 7e 39 5e 3d b2 69 7b 3d a6 85 53 3d
       -0.04341585 0.054254048 0.061380096 0.05164113
0003a0 e3 1b d3 3c 17 4d 00 bd c0 7d 3f bd f8 79 ed 3c
       0.025770133 -0.03132352 -0.046750784 0.028988823
0003b0 b9 a3 51 bd be a0 d4 3b 01 d7 bd 3c 6c c4 7c bd
       -0.05118153 0.0064888885 0.02317381 -0.06171076
0003c0 4e b0 4f bc d0 d6 88 bb b3 e4 54 3d 32 bb 0f 3d
       -0.012676312 -0.0041759983 0.051975917 0.035090633
0003d0 e3 c3 45 3d 1b 1c ac 3c 4a e1 3d bd e7 bb 5a 3c
       0.048282515 0.021009495 -0.04635743 0.0133504635
0003e0 9f 74 a1 bc 18 9a 51 bc eb b3 de bb 3e 1e 08 bd
       -0.01970893 -0.0127930865 -0.0067963502 -0.033231966
0003f0 ca 15 0d bd 7c a4 6d bd bc 83 65 bd a0 68 dc bb
       -0.034444608 -0.058018193 -0.056033835 -0.0067263395

fc1_q2.weight f4 [256, 8]
000000 c0 fc 9f bd 29 f3 42 bd 80 fc 48 be 89 95 aa 3e
       -0.0781188 -0.047595177 -0.19627571 0.3331721
000010 53 85 5d 3e b4 8f a7 be de b8 da 3a 0d 3b 96 be
       0.2163289 -0.32726824 0.0016687175 -0.29341927
000020 ef 5a f3 3b db 4b 75 3c c0 f3 93 be 53 a1 4d be
       0.0074266116 0.014971699 -0.28896904 -0.20081072
000030 86 68 86 3b 2d 76 db 3d 2e 91 6b be 0d 47 6c be
       0.0041018156 0.107158996 -0.230046 -0.23073979
000040 cf bd 10 be a5 e8 b8 3c f8 bb b7 3d f8 f1 01 be
       -0.14134906 0.022571871 0.08971399 -0.1268996
000050 85 9f ac bd 7c c0 96 3e e6 69 e6 3d 62 65 7a be
       -0.084288634 0.2944373 0.11250667 -0.24452737
000060 47 b3 5a 3e b5 89 18 3d a4 32 71 be 56 85 28 3d
       0.21357451 0.037240703 -0.23554474 0.041142784
000070 27 c2 d5 bd 35 c7 65 3e d6 34 98 be f0 3d b2 3e
       -0.10437422 0.22439273 -0.2972781 0.3481288
000080 db fd 56 be 53 ab e2 bd 31 ed 3d bd c8 54 91 be
       -0.20995276 -0.11067834 -0.04636878 -0.28384995
000090 9c b0 05 3e fe 8e 52 be 33 24 71 be e6 70 10 be
       0.13055652 -0.2056236 -0.23548965 -0.14105567
0000a0 4b 8a ab 3e cf 1a 3e be 25 0d 39 be 14 13 21 3e
       0.33503947 -0.18564914 -0.1807142 0.15729934
0000b0 6a 2c 89 3e 77 24 b2 be ac e9 54 3e 2e c4 c4 3d
       0.26791698 -0.34793445 0.20792264 0.09607731
0000c0 f3 98 8b 3e 3a 23 ab 3d 46 94 0e 3e 70 e1 de 3d
       0.27265128 0.08356328 0.1392375 0.108828425
0000d0 df a6 81 bd a3 9d 8c be 90 3f f2 bd 69 ca bd 3d
       -0.06330656 -0.27464017 -0.1182853 0.09267122
0000e0 f7 18 23 3e 87 52 81 be 15 b0 cc bd 1e 28 5d be
       0.15927492 -0.25258276 -0.099945225 -0.21597335
0000f0 ec 04 58 be 3c 62 85 3e 2c f3 5e be 28 38 ee 3c
       -0.21095628 0.2605151 -0.2177245 0.029079512
000100 ff f1 4a be a5 50 a2 bd ee ad fc bd 01 e2 0a be
       -0.19818877 -0.07925538 -0.12337862 -0.13562776
000110 c1 39 ad be e5 4e 9c 3e 45 6e b0 bc 86 28 83 3d
       -0.33833125 0.30528942 -0.021536956 0.064042136
000120 22 eb 87 bd 48 71 3b be d8 61 9c bd b1 6c 73 be
       -0.06636645 -0.18304932 -0.0763585 -0.23771931
000130 54 23 a9 bb 7e 78 10 be b6 60 88 be 14 7c 3d 3e
       -0.005161682 -0.14108464 -0.26636285 0.18504363
000140 f9 c1 a6 3c 85 4b 05 be 1b 47 9c 3d ea f2 a8 3d
       0.020356165 -0.1301709 0.0763075 0.08249457
000150 de e7 3a 3e b0 d6 ed 3d b9 c3 a8 be 8d 71 d8 3d
       0.18252513 0.11613214 -0.32961825 0.10568533
000160 62 30 97 3e 82 8c ab 3d b0 e3 64 be 48 3b 8b 3e
       0.295291 0.08376409 -0.22352481 0.27193666
000170 16 d2 22 3c ee fb ab 3e 70 9c 35 3d 5d 4d 84 be
       0.009937784 0.33590645 0.044338644 -0.25840273
000180 a4 4b 83 3e 2a 6e a5 be 8a d9 2e 3d 5d f9 82 3e
       0.25643647 -0.3231061 0.04268793 0.25580874
000190 06 66 82 be e5 77 fd 3d ba 13 1b be 02 fc 41 3e
       -0.25468463 0.12376384 -0.15144244 0.1894379
0001a0 8d d3 71 bc bc 58 56 be e5 81 89 be ec 05 50 3e
       -0.01475991 -0.20932287 -0.26856914 0.20314759
0001b0 51 bc 2e be 97 14 6a be ca aa 4e 3e b4 86 a5 3e
       -0.17064025 -0.22859417 0.20182338 0.32329333
0001c0 27 82 66 3b 77 a3 be bd 9d 83 33 be 6c 0d a5 3e
       0.0035172792 -0.09308522 -0.17530675 0.32236803
0001d0 21 78 b3 3e c3 f0 8f be ea 42 3c 3e 66 9f d3 bd
       0.3505259 -0.28113374 0.183849 -0.10333137
0001e0 be 3b 3f 3e 7a 9d 04 3e 2a 76 a8 3e ad a2 d7 3d
       0.18675134 0.12950698 0.32902652 0.10529075
0001f0 ab b0 2e be ce 87 9b be f2 1b bf bd 17 2d 65 bd
       -0.17059581 -0.30377048 -0.09331502 -0.055951204
000200 a6 40 aa 3c 97 72 0e be 11 45 3f 3d 83 da cb 3d
       0.02078278 -0.139109 0.046696726 0.09953787
000210 78 b8 b0 bd d5 1e 21 be d6 da 97 be 06 68 ab be
       -0.086289346 -0.15734418 -0.29659146 -0.334778
000220 15 90 66 be 5e 59 40 bd e7 df b2 be 28 b5 1f be
       -0.225159 -0.046960227 -0.3493645 -0.1559645
000230 d2 3b 94 be ef 82 ff 3d 8a 2a 17 be 96 02 61 3e
       -0.2895189 0.124761455 -0.14762321 0.21973643
000240 93 8a 1b 3e a2 b8 83 3e 92 6b 04 3e 50 79 8b bd
       0.1518958 0.257268 0.1293166 -0.06810248
000250 50 fc 9a be 45 76 4f 3e b0 41 a1 3c 96 85 88 3e
       -0.30270624 0.2025996 0.019684643 0.26664418
000260 1a 68 ae 3e ed 73 9c be da b6 88 be 7a aa fd bc
       0.34063798 -0.30557194 -0.26702005 -0.030965079
000270 b6 ba 78 be 54 a9 be bd 39 4f 9f 3d 69 9e fd 3d
       -0.24289975 -0.093096405 0.077787824 0.1238373
000280 a2 ec a5 3e ef f6 b5 bd cf 3b 98 3e 76 42 d8 bd
       0.324071 -0.088849895 0.2973313 -0.105595514
000290 7c 11 8a bd 4a 4a 20 3c 2b 58 97 3e 17 9c 10 bd
       -0.06741616 0.009783337 0.29559454 -0.03530511
0002a0 4d df 10 3e b8 19 a3 3e be f3 2e be bf d9 9f be
       0.14147682 0.3185556 -0.17085168 -0.31220815
0002b0 61 12 7b 3d 48 2e 81 bd ce 9c d5 bd 4b 58 66 be
       0.061296824 -0.063076556 -0.10430299 -0.22494619
0002c0 fc 93 93 3e a0 64 a9 be 12 e4 83 be 93 0e 8d bd
       0.2882384 -0.33084583 -0.2575994 -0.068875454
0002d0 fe 91 46 3d 2e 9a 92 3e 44 70 84 bd ba 0c ec 3d
       0.048479073 0.28633255 -0.064667255 0.11525865
0002e0 fa e6 8c 3e b7 54 b6 3d 57 ee ab 3e 89 b9 93 3e
       0.2751997 0.08902877 0.33580276 0.2885249
0002f0 0b 0c 81 be 96 af ef 3d da 31 0b 3e 68 f9 94 be
       -0.252045 0.11703412 0.13593236 -0.29096532
000300 09 29 50 be 83 b9 8e 3d eb 12 43 3e 15 ad 68 3c
       -0.20328154 0.06968977 0.19050185 0.014201422
000310 6f 76 a5 be 0c 51 b2 bb 94 16 e0 bd d0 54 c5 3d
       -0.3231692 -0.0054417904 -0.109418064 0.09635317
000320 b2 93 00 bd 72 b5 5e be 3b 7d ae 3c 37 78 aa 3e
       -0.031390853 -0.21748903 0.021299949 0.33294842
000330 46 5f d2 3d 4b 1d 40 be 42 25 58 3e 90 fe aa 3d
       0.10272078 -0.18761174 0.21107963 0.08349335
000340 bd e7 4e 3d d7 fd 12 3e 05 22 29 be 11 6d af be
       0.05051397 0.14354645 -0.16516884 -0.342629
000350 e8 e7 66 bb ea a8 1c be bc ba 57 be d2 7d 8e bd
       -0.0035233442 -0.1529881 -0.21067327 -0.06957592
000360 23 7f 54 3b 49 35 96 3d e1 f4 8e 3e e8 c1 c5 bd
       0.0032424412 0.07334382 0.27921203 -0.09656125
000370 f5 64 38 be 93 f4 a2 be ed 20 f8 bd 3f 12 ba 3c
       -0.18007262 -0.3182722 -0.12115655 0.022713779
000380 44 88 43 be 46 30 d4 bd 15 c7 96 3d 82 15 97 3e
       -0.1909495 -0.1036077 0.07362191 0.29508597
000390 26 cf 7f be 2d a9 a4 be 59 a7 73 be 45 98 1c 3d
       -0.24981365 -0.3216032 -0.23794307 0.038231153
0003a0 7b bf 8b bd d3 00 a7 3e 61 55 b1 be db 9e f6 bd
       -0.068236314 0.32617816 -0.3463545 -0.12042018
0003b0 91 79 66 3e 21 17 86 be 8c 1c 91 3e a4 71 22 be
       0.22507311 -0.2618952 0.28342092 -0.15863663
0003c0 e3 1f a9 be 84 eb 85 3e 09 54 fc bd 7f 45 a4 3d
       -0.3303214 0.26156247 -0.12320716 0.08021068
0003d0 78 c0 05 3e dc 58 0d 3e 80 e2 83 bc c3 a4 22 be
       0.13061702 0.13803428 -0.016099215 -0.15883164
0003e0 3c 75 8e 3e c4 1d 8b 3e c5 04 7f be b9 09 78 be
       0.27823818 0.27171147 -0.24904163 -0.24222459
0003f0 5e d1 ae be 98 4e 32 3e d0 e9 95 3e 65 4b 63 3e
       -0.3414411 0.17412794 0.29279947 0.2219673

fc1_q2.bias f4 [256]
000000 ba 05 39 3e 83 f7 9a 3e 83 c7 3e 3d cb 5c 94 3e
       0.18068591 0.3026696 0.046576988 0.28977045
000010 38 39 6e bd ec 6b fa bd ae b4 60 3e 4d 7e 0c be
       -0.058160037 -0.12227616 0.21943924 -0.13720055
000020 82 16 a8 be 45 96 c8 bd a9 03 95 3e 14 d5 8f 3e
       -0.32829672 -0.09794287 0.29104355 0.28092253
000030 a4 2d 11 3e 95 3a 9f bc 68 d1 20 be e2 2c 0a 3e
       0.14177567 -0.019437114 -0.15704882 0.13493684
000040 16 fe 30 be ce 85 81 3e 3e d8 9c be 64 13 8d bd
       -0.17284426 0.25297397 -0.3063373 -0.06888464
000050 b9 86 80 be 3c c6 24 3e 74 86 36 be 58 83 ad be
       -0.25102785 0.16091245 -0.17824727 -0.3388927
000060 8c 62 38 3e 84 f3 93 be db 5d 8a be 5e c7 57 be
       0.18006343 -0.28896725 -0.2702473 -0.21072146
000070 f1 9f ac be ec b4 4d be 7d 67 44 bd 8b 2b f2 bd
       -0.33715776 -0.20088547 -0.047950257 -0.118247114
000080 e0 a9 52 3e 95 06 e8 3d 96 ee f7 bd d0 51 8c 3e
       0.20572615 0.113293804 -0.121060535 0.27406168
000090 ff ea a6 be 85 11 40 3e de ff 49 bd b0 03 07 be
       -0.32601163 0.18756683 -0.04931628 -0.13185
0000a0 b2 15 ad 3c 0c 82 3c 3e 52 e3 87 be b7 59 97 bd
       0.02112851 0.18408984 -0.2654062 -0.073901586
0000b0 2a e2 3b bd 4c 40 00 3e 55 49 6d 3d 7b 49 b8 bd
       -0.045869984 0.12524527 0.057931263 -0.0899839
0000c0 65 24 70 bc 1c ca fb ba f7 93 30 be fa 84 38 3e
       -0.014657115 -0.0019210014 -0.17243944 0.18019477
0000d0 03 1b 95 bd 80 2e a8 3e e6 6a 61 3d 09 9b a7 3e
       -0.07280543 0.32847977 0.055033587 0.3273547
0000e0 9d a4 9c 3e 8a 9e ed 3d 11 36 0c be 74 ca a0 bb
       0.3059434 0.116025046 -0.136925 -0.004906947
0000f0 55 09 02 3e b7 34 93 be d2 4d 5c 3e 67 f1 43 bd
       0.12698872 -0.28751156 0.21514061 -0.04783764
000100 32 db 19 be 8f 71 30 be bc bc 96 3e 63 db d1 3d
       -0.15025023 -0.17230819 0.29440868 0.10246923
000110 ad 08 8b 3e c0 64 8f 3e d2 43 f2 3d 82 7c 5b be
       0.27155057 0.28006554 0.11829342 -0.21434215
000120 9e de 28 3e 10 56 9f 3e 2e 0f 6e 3e ec 07 5b be
       0.16491172 0.31120348 0.23247978 -0.2138974
000130 85 2a 1c be aa 0b 17 be 07 21 24 be f0 02 02 bc
       -0.15250595 -0.14750543 -0.16028224 -0.007935271
000140 76 4e 5d 3d 2c 80 68 be 3c 2a 00 be f7 b3 95 be
       0.054029904 -0.22705144 -0.12516111 -0.29238865
000150 73 59 54 be b9 69 a0 be db d5 20 bd 83 87 22 be
       -0.20737247 -0.3133066 -0.03926645 -0.15872006
000160 d0 6b 72 3e 8c ae c1 bd 91 a7 11 be 4e 3e 08 be
       0.2367394 -0.0945712 -0.14224078 -0.13305017
000170 09 46 3b be 8f 92 87 be 4e 99 43 be 6a 3b 14 3e
       -0.18288435 -0.26479003 -0.1910145 0.1447579
000180 f6 d3 af bd 5b 90 0e 3d 8f 99 8d 3e e2 7f b7 bc
       -0.0858535 0.034805637 0.27656218 -0.022399846
000190 97 69 36 be d4 f2 b0 3e 5b 16 08 be 7b ed 89 3e
       -0.17813717 0.34560263 -0.13289778 0.26938996
0001a0 c5 fc a0 3e 0a ee b4 3e 59 7d 2a 3e fd a9 a1 bd
       0.31442848 0.3533786 0.16649379 -0.07893751
0001b0 a6 f9 55 3e 44 47 ce bd be db 9a 3d e2 77 62 be
       0.20896015 -0.100721866 0.07561444 -0.22116044
0001c0 de db 69 be d1 60 a0 be 4e 64 ce 3d f0 1d 96 bd
       -0.22837779 -0.31323865 0.10077725 -0.07329929
0001d0 32 36 90 be a7 69 01 3d 27 54 9e be 5a 35 85 bd
       -0.28166348 0.0315949 -0.30923578 -0.06504317
0001e0 f7 fe 95 bc 67 60 60 3b 61 81 68 be fa 4a 25 3e
       -0.018310053 0.0034237148 -0.22705604 0.16141883
0001f0 66 70 9e 3c 55 14 92 be 19 3c aa 3e 90 45 a9 3e
       0.019340705 -0.28531137 0.33248976 0.33060884
000200 f6 48 12 3e 39 0f e8 3c e4 b1 5e be b3 e7 17 be
       0.14285645 0.028327571 -0.21747547 -0.1483448
000210 57 bd a4 be 0a ba d2 3d 42 06 a5 be 2b 69 9c 3e
       -0.32175705 0.102893904 -0.32231337 0.30548987
000220 14 ec 7c be df d7 94 3e e6 cb c4 bd cf a3 8a bb
       -0.24699432 0.29070947 -0.09609203 -0.0042309533
000230 5a 83 5b be 05 ff 98 bd 27 2e 89 3e e5 e2 4c be
       -0.21436825 -0.07470516 0.26793024 -0.20008428
000240 59 04 8c bd 90 17 16 bd c0 f6 7a 3d fc 07 f5 3d
       -0.06836767 -0.036643565 0.061270475 0.119644135
000250 98 de a1 3e a1 a6 a1 be 2d d0 61 be 40 55 78 be
       0.31615138 -0.3157244 -0.22052069 -0.2425127
000260 20 24 9e be ec f4 5a be cc f3 07 3e 95 8a 9e 3d
       -0.30886936 -0.21382493 0.13276595 0.07741276
000270 f9 cb 9c be 3c 2d ac 3c ef e8 ae 3e 50 0e 0a be
       -0.3062437 0.021017663 0.3416209 -0.13482022
000280 22 78 a7 be 32 52 ca bc ba 0b 8f be b5 13 6a 3e
       -0.32708842 -0.024697397 -0.27938634 0.2285908
000290 40 ad 72 be e9 b6 fe bb 67 26 88 3e e5 07 90 be
       -0.23698902 -0.0077732694 0.265918 -0.28131023
0002a0 b5 08 7c be 62 6b 98 be e2 47 24 ba 6a f4 93 be
       -0.24612696 -0.29769427 -0.0006266815 -0.2889741
0002b0 8d 52 4d 3d 13 9e 9d be 06 21 89 bb a5 0a 26 bd
       0.050127555 -0.30784664 -0.004184845 -0.040537495
0002c0 48 0b 93 be 28 3a 91 bd 7e 8e 5b be f3 88 94 3e
       -0.28719544 -0.070911705 -0.21441075 0.29010734
0002d0 95 60 c7 3d ff 08 67 3e bc 94 65 3e dc 02 60 be
       0.097352184 0.22562025 0.22420019 -0.21876091
0002e0 01 04 2a be 3e 1e 63 be 71 3c bd 3c 83 99 8d 3e
       -0.1660309 -0.22179505 0.02310011 0.27656183
0002f0 ae 50 c9 3c 85 ad 89 be 2f bd 89 3d 1c bc 05 be
       0.024574604 -0.26890197 0.06725537 -0.1306004
000300 3b 8b 5a be 75 79 61 3e c0 a9 19 3d 54 4b f9 3d
       -0.21342175 0.22018988 0.0375154 0.12172571
000310 6f ac a3 3d 68 b9 a2 3b e2 2d 9a bd fa 5f 9a 3d
       0.079918735 0.00496595 -0.07528283 0.07537837
000320 6c bc ba 3d 73 05 b1 be a6 f1 02 3d b6 4a a4 3e
       0.0911797 -0.3457447 0.031968735 0.3208825
000330 25 7c 45 3e 80 65 96 be 2c c5 78 3e 5c 3c 31 be
       0.19285639 -0.29374313 0.24293965 -0.17308182
000340 22 1c 67 be 0d 83 98 be cb 34 4c 3e d8 f6 70 be
       -0.22569326 -0.29787484 0.19942014 -0.23531663
000350 a2 3d 19 be 32 64 09 be 5f 6f 24 3e b9 4e 84 3e
       -0.14964917 -0.13417128 0.1605811 0.2584131
000360 0c b0 ca 3d 85 1b 0b be 10 09 78 3e 21 66 10 3d
       0.098968595 -0.13584717 0.24222207 0.035253648
000370 a9 a4 76 be fa a7 4b be a6 df 34 3d 1b 72 34 3d
       -0.2408625 -0.19888297 0.0441586 0.044054132
000380 b8 3b ad 3e 3d 46 aa 3d 07 11 17 be db d8 58 bd
       0.33834624 0.08314178 -0.14752589 -0.052941184
000390 9a bf 7d bd e1 a0 72 be 36 31 d8 bd 6a 44 65 3e
       -0.061950304 -0.23694183 -0.10556261 0.22389379
0003a0 8d 8c f8 bd 70 01 a7 be 07 9c 00 be f9 ee 77 3d
       -0.12136183 -0.32618284 -0.1255952 0.060530636
0003b0 bb 86 7d 3d d7 42 bb bd 0a 13 35 be 2a ae ae be
       0.061896067 -0.09143608 -0.17683044 -0.34117252
0003c0 34 7b b4 be fc 53 47 3e c7 5c 53 3e d6 c9 4a 3d
       -0.35250247 0.19465631 0.2064086 0.049508892
0003d0 28 f4 b3 3d 00 6a a9 3e 15 a0 9e be cf 90 12 3e
       0.087868035 0.33088684 -0.30981508 0.14313053
0003e0 74 21 42 bd 98 51 09 3e 45 66 85 be 35 d7 0d 3e
       -0.047395185 0.13410032 -0.26054588 0.13851626
0003f0 c0 0b 27 3e f6 d8 7d 3e 23 b1 4a 3e 1a ee 08 be
       0.16313076 0.24789795 0.19794135 -0.13372079
